columbus/src/main/assets/columbus/11/tap7cls_pixel4xl.tflite (tflite, 661148 bytes, 24 tensors)

model/batch_normalization/batchnorm/mul f4 [32]
00000000: 16d7 eb41 d847 cf41 1115 f041 42f9 f341
00000010: 0db4 e441 2076 f841 a1ef dd41 938e e141
00000020: 2beb ce41 77ac e241 c701 ee41 51b4 c541
00000030: 2a6c e641 70e8 da41 11d8 df41 ec8b f541
00000040: 7cc7 ed41 f4e5 df41 a192 f841 7f1b e341
00000050: ccc4 de41 3c2f c341 d9f7 ec41 8e4a fb41
00000060: 81ab fb41 1258 f641 e16b c041 393b ed41
00000070: ba2b d841 1d27 ca41 5049 d841 7ad8 e441
29.480022 25.91008 30.010286 30.496708 28.587915 31.057678 27.742006 28.194616
25.864828 28.334211 29.750868 24.713045 28.802814 27.363495 27.980501 30.693321
29.722404 27.987282 31.071596 28.388426 27.846092 24.398064 29.62102 31.411404
31.458742 30.793003 24.052675 29.653917 27.02135 25.269098 27.035797 28.605701

model/batch_normalization/batchnorm/sub f4 [32]
00000000: 997a d3be 7d7f 55be 0deb 91be da81 2bbe
00000010: a669 54be 004c 2ebd df56 27be 559f 8bbe
00000020: dbfa 25be 547b 36bd 9b46 63be 00b7 69be
00000030: 6de2 9bbe 6080 efbe dfe7 99bd 8c5e 48be
00000040: d944 23be f88f c4be 2d64 d4bd 4631 84be
00000050: 7b0b 5dbe e153 b0be 0cd2 64bc 6b86 92bd
00000060: 0d15 0cbe a7b1 d4bd ed96 4cbe d6b3 55be
00000070: 60ad 96be 04c4 cebe c9ff ebbd 5c31 bbbd
-0.41304472 -0.20849414 -0.28499642 -0.16748753 -0.20743427 -0.042552948 -0.16341732 -0.27269998
-0.16208975 -0.04455121 -0.22194903 -0.22823715 -0.30446187 -0.4677763 -0.07514929 -0.19567317
-0.15944232 -0.3839109 -0.103706695 -0.25818843 -0.2158641 -0.34438995 -0.013966095 -0.071545444
-0.13679905 -0.10385447 -0.19979449 -0.20869383 -0.2942915 -0.40383923 -0.115233965 -0.09140274

model/batch_normalization_1/batchnorm/mul f4 [64]
00000000: 3a45 d340 56c6 cf41 7f10 e53f 2a4a a33f
00000010: bdec df41 fda0 ef3f ae8a 3d40 0c10 3741
00000020: eb3f a141 5ad1 c13f d7a3 9b3f 2d49 e041
00000030: 181c 0b40 e883 0440 eac0 1440 4add d140
00000040: a0f5 ac3f cdb0 be3f 9c93 3440 97df df3f
00000050: fa44 3b40 39c4 d23f 4fa1 c241 c193 2840
00000060: 3af9 e540 be39 9f3f b2b5 a53f 84d4 3840
00000070: dd28 3f40 bcbd 3540 68d0 a13f ac25 a140
00000080: b0b5 5741 dc42 9041 f6c6 8540 17e0 1241
00000090: 9b20 9641 7b96 c73f b06d 0940 f46d 5b40
000000a0: c7f6 4641 8e0f cf40 70d9 5f41 b5c9 2240
000000b0: 4e83 7340 8e91 9241 c838 ff40 e427 5f40
000000c0: 698b 8541 df9e 3340 9c39 af40 c45e 8040
000000d0: 117c 0940 64f7 8240 ac3b 6540 3c21 ff40
000000e0: 6cf1 c040 057f 6540 9b6e 0c40 d805 1e41
000000f0: 6b24 4f40 4904 0a41 4fef 8a41 d294 7e40
6.6022005 25.971844 1.7895659 1.2757008 27.990595 1.8721005 2.9615893 11.441418
20.15621 1.5142014 1.2159375 28.03573 2.1735897 2.070551 2.3242745 6.558263
1.3512459 1.4897705 2.8215094 1.7490109 2.926085 1.6466132 24.328764 2.6340182
7.186673 1.2439497 1.2946074 2.887971 2.986869 2.8397055 1.2641726 5.0358486
13.481857 18.032646 4.180537 9.179709 18.76592 1.5592798 2.1473198 3.428586
12.435248 6.470649 13.990585 2.5435612 3.8048892 18.321072 7.9756813 3.4868097
16.693071 2.8065717 5.4757824 4.011568 2.1481974 4.092699 3.581767 7.972807
6.0294704 3.5858777 2.1942508 9.876427 3.2365978 8.626046 17.36685 3.9778333

model/batch_normalization_1/batchnorm/sub f4 [64]
00000000: 53f2 c8be e4d5 7abf a4d9 4dbe 4609 04be
00000010: 1ac4 43bf f149 4fbe 2d1b 76be 96e6 22bf
00000020: 2e03 a3bf 0b2f 3ebe 873b 4dbe 2718 2cbf
00000030: f1ad 12be 9ad1 2cbe 047a 6fbe 9f71 e0be
00000040: 6146 58be d814 29be 7f87 40be cf34 2cbe
00000050: ec4e 9cbe f066 38be b9dd 8fbf b515 32be
00000060: d0f6 03bf 116a 66be 7093 4fbe 5ac7 89be
00000070: 9eb8 5fbe f6e3 a9be 95de 0cbe 7c25 92be
00000080: adf8 17bf 231f dabf 12a0 82be 6db8 1cbf
00000090: c95d cebf e565 30be 4229 6cbe 1775 45be
000000a0: 2d55 3cbf 2189 d6be 0f5d b7bf 1c07 23be
000000b0: 88b0 9dbe 2308 f4bf 29d3 aabf 4685 93be
000000c0: 7cd2 c7bf f5fc 16be 6327 d0be 2833 d3be
000000d0: 3464 84be d868 babe 284c 9dbe 7014 45bf
000000e0: 2b02 bfbe e43c 8abe 5b3d 41be b82a 37bf
000000f0: a9eb 4bbe 76cf 02bf 6f35 dbbf dfa7 1cbe
-0.3924738 -0.9798262 -0.20102555 -0.12894163 -0.764711 -0.2024305 -0.24033804 -0.63633096
-1.2735345 -0.18572633 -0.20042239 -0.67224354 -0.14324166 -0.16876832 -0.23386389 -0.43836686
-0.21120597 -0.16511858 -0.18801688 -0.1681702 -0.30528963 -0.18008018 -1.1239539 -0.17391093
-0.5154848 -0.22501399 -0.20271087 -0.26909906 -0.2184777 -0.33181733 -0.13756783 -0.28544223
-0.59363824 -1.7040752 -0.2551275 -0.6121891 -1.6122371 -0.1722637 -0.23062614 -0.19282947
-0.7356747 -0.41901496 -1.4325274 -0.15920681 -0.30798745 -1.9064983 -1.3345691 -0.28812617
-1.561111 -0.14744933 -0.4065505 -0.41249967 -0.258577 -0.36408114 -0.30722165 -0.7698431
-0.37306342 -0.2699958 -0.18871062 -0.7154956 -0.19914116 -0.5109781 -1.7125682 -0.15298413

model/batch_normalization_2/batchnorm/mul f4 [64]
00000000: 0903 833f 5729 913e def8 dc3f e47e 823f
00000010: eb4e 0540 51eb 073f b434 6c40 4995 c53f
00000020: 044c c73f 5a3b bc3f cc98 0c3f d91f 6540
00000030: 1abc 093f 4fe2 5c3f cda8 953f 6adb 4640
00000040: 45a6 be3f 1e39 1e3f 7863 083f 85bd 143f
00000050: 437c f63f f1ed 9b3f ca86 153f 7e88 9640
00000060: 010a 853f 877b 3840 26a7 b63f 8e6b 0d40
00000070: 9fa4 083f f710 883f 104d 433f 1cc0 3d3f
00000080: 47cd a53f 0bf2 f13f ce1b 1140 b429 733f
00000090: e13d fd3e cb36 2a3f f247 a03f 9b44 2640
000000a0: 4bb1 df3f f449 913f 7265 8c3f 2768 aa3f
000000b0: af63 943f fefb 033f c062 863f 828e 403f
000000c0: f063 973f 0e02 163f 7ae9 483f a72e 1e40
000000d0: 1cd1 0c40 83a1 6a3f 1871 f43e 878b e33f
000000e0: 52df 6540 b661 323f 2f53 9c40 e585 503f
000000f0: 9a0f 013f 5270 d73f 0e10 033f 9223 c93f
1.0235301 0.28351852 1.7263448 1.0194974 2.0829418 0.5309344 3.6907167 1.5436183
1.5570073 1.4705613 0.5492065 3.5800688 0.53802645 0.8628282 1.1692139 3.107142
1.4894491 0.61805904 0.5327678 0.58101684 1.9256672 1.2181989 0.58408797 4.7041616
1.0393678 2.8825395 1.426976 2.2096896 0.5337619 1.0630177 0.76289463 0.7412126
1.2953271 1.8901991 2.267322 0.9498551 0.49461272 0.6648986 1.2521956 2.5979373
1.747598 1.1350694 1.0968459 1.3313035 1.1592921 0.51556385 1.0498886 0.7521745
1.1827374 0.58596885 0.78481257 2.4715974 2.200263 0.916527 0.47742534 1.7776955
3.5917554 0.69680345 4.8851542 0.81454307 0.5041443 1.6831152 0.5119637 1.571398

model/batch_normalization_2/batchnorm/sub f4 [64]
00000000: d221 bebe 515c 62be 4649 63bf 9fcf dfbe
00000010: 1815 61bf 024d 95be 97f0 a1bf 3bcd febe
00000020: 7212 ccbe dca6 1abf 2224 75be 8623 a2bf
00000030: 1504 95be 7849 cabe 5ec8 eebe 17e2 ccbf
00000040: 8f22 f8be b381 c8be 1222 9bbe bf00 9abe
00000050: ed98 26bf 5d3b ddbe dc7f 91be c504 ddbf
00000060: 9625 a6be 7130 3ebf 8cb6 25bf a220 3ebf
00000070: aa8d 5abe 0afb cebe d5b9 a0be 96a0 acbe
00000080: 30fd 0bbf a1bc 58bf 14d2 79bf 34d3 8cbe
00000090: 8abc 6fbe 5c96 8bbe 1202 c5be 5f61 31bf
000000a0: 88b9 23bf f9c1 01bf 4973 a6be c6ec dbbe
000000b0: c0c3 e4be 2a9b 92be 90ba 94be 3ee4 acbe
000000c0: 39e6 cfbe edcb 89be bb00 bdbe 3e17 babf
000000d0: 7a8f 88bf 6250 f6be 9109 7abe c111 16bf
000000e0: d442 bbbf f849 abbe 9871 c4bf 6416 acbe
000000f0: fad5 76be 250b 55bf 7491 88be a75e 3fbf
-0.37135178 -0.22105528 -0.8878368 -0.4371309 -0.8792281 -0.29160315 -1.2651547 -0.49765953
-0.39857823 -0.6041086 -0.23939565 -1.2667091 -0.29104677 -0.39509177 -0.46637243 -1.6006497
-0.48463866 -0.39161453 -0.3029943 -0.30078694 -0.65077096 -0.43209353 -0.2841786 -1.726708
-0.3245055 -0.74292666 -0.6473167 -0.74268544 -0.21343103 -0.40425903 -0.3139178 -0.33716267
-0.5468321 -0.84662825 -0.9758618 -0.27504885 -0.23411766 -0.27263153 -0.38478142 -0.692892
-0.63954973 -0.50686604 -0.3250983 -0.4295408 -0.44680595 -0.28634006 -0.29048586 -0.33767885
-0.40605333 -0.26913396 -0.3691462 -1.4538343 -1.0668786 -0.48108202 -0.24417712 -0.5862084
-1.4629769 -0.3345487 -1.5347166 -0.33610833 -0.24105063 -0.8322013 -0.26673472 -0.74753803

model/batch_normalization_3/batchnorm/mul f4 [64]
00000000: e77c b940 b66b d83f 53a4 923f 853e e83f
00000010: 95e1 973f c47c c33f 7dea 0140 6498 b53e
00000020: 1509 8b3f 45c7 a93e 7d92 2f41 d117 a140
00000030: fa62 a83f d99f 613e db7d 2a3f 34ab 2c3f
00000040: 11e9 0e3f 55c9 4540 7b12 333f dc9d e93e
00000050: da90 833f 7bbb 893f 9c77 963e 7186 0240
00000060: 2c4f 7b40 845d fc41 28da 2e3f acc1 e23f
00000070: f208 c43e 2728 2f40 e9c3 8d3e a6d8 9e3e
00000080: 6ef8 ba3e ad35 d540 5c47 5b3f 7095 573f
00000090: 47bb 5a40 46cf 0440 1905 623e 29b1 133f
000000a0: 4331 1f3f 36e9 af3e 78fc fa41 297f 543e
000000b0: 7434 f63e 3341 503e 2d60 ff3e 96e2 b83e
000000c0: 3043 c43e 51d2 e940 5451 fc41 6495 2a40
000000d0: 7a2e c43e 0544 913e 3343 bc3f 8086 fe3e
000000e0: 1cbc 223f 271a fb41 db8c f340 9bc2 1f41
000000f0: efe8 4b40 0954 dc3e bf45 3640 874c a63e
5.796497 1.6907871 1.1456398 1.814408 1.1865717 1.527245 2.029937 0.35467827
1.0862147 0.33159843 10.973264 5.0341573 1.3155205 0.22033633 0.6659829 0.67448735
0.5582438 3.0904133 0.69950074 0.4562825 1.027858 1.076034 0.2938813 2.0394557
3.9267073 31.545662 0.6830163 1.7715354 0.38288075 2.7368257 0.2768853 0.31024665
0.36517662 6.662802 0.8565576 0.842124 3.4176805 2.075151 0.22072257 0.576922
0.6218454 0.34357613 31.373276 0.20751633 0.48086894 0.20337372 0.49878064 0.3611037
0.3833251 7.3069234 31.539711 2.665368 0.3831671 0.28372207 1.4708008 0.4971199
0.6356828 31.38777 7.6109443 9.985011 3.1860921 0.43032864 2.848007 0.3248026

model/batch_normalization_3/batchnorm/sub f4 [64]
00000000: ba7a a9bd e5da 97bf 1f0d b6be efc9 3abf
00000010: b1ae 32bf bb32 0fbf f78f 40bf f31d 02bf
00000020: 02de 0dbf e6a6 43bf 4e3d 92be feb0 bfbe
00000030: 60f4 c9be 6720 26bf 5052 cbbf eea9 e9bf
00000040: 6d7d f1be e739 dcbe 162b 0bbf a3b9 0ebf
00000050: 61a9 85bf 3d8b bdbe 5506 5cbf 6621 c0be
00000060: c648 c4be 9d02 b5bd 928b a3bf d21c 3fbf
00000070: 7e0d 8dbe 8aba 39bf d68c afbe 6d68 5abf
00000080: f494 91bf 8e36 5fbe f0b3 88bf 522d 86bf
00000090: f12c 54be 14f0 8ebf 7735 2abf 7024 e2be
000000a0: ca26 39bf c0ec 9cbe ccbe 263e 160a e6be
000000b0: 34d0 70bf e728 b5be 7a3d febe 079b bcbf
000000c0: 576b 23bf cdb4 1abf 46ce 263c 8199 87bf
000000d0: e10f a3bf e2aa dcbf 3d56 64bf a059 d4bf
000000e0: a729 cebe 5c19 bdbc 706b f9bd 1120 36be
000000f0: ee53 5ebe 07e0 1fbf f201 d1be 3cb4 e6be
-0.08275361 -1.1863676 -0.35556886 -0.72964376 -0.6979781 -0.55936784 -0.7521967 -0.5082695
-0.5541688 -0.7642654 -0.28562397 -0.37439722 -0.39444256 -0.6489319 -1.5884495 -1.8254983
-0.47166005 -0.43012926 -0.5436262 -0.5575201 -1.0442315 -0.37020293 -0.8594716 -0.3752548
-0.38336772 -0.08838389 -1.2776968 -0.7465335 -0.27549356 -0.7255026 -0.34287137 -0.8531559
-1.1373582 -0.21798155 -1.0679913 -1.0482581 -0.20720269 -1.1167016 -0.6648783 -0.44168425
-0.7232481 -0.30649376 0.1628372 -0.4492957 -0.9406769 -0.3538277 -0.49656278 -1.473481
-0.6383566 -0.6043213 0.010181015 -1.0593721 -1.2739221 -1.7239649 -0.8919409 -1.6589851
-0.40266153 -0.023083381 -0.12178695 -0.1778567 -0.21711704 -0.62451214 -0.40821797 -0.45059383

model/batch_normalization_4/batchnorm/mul f4 [7]
00000000: 9edf 1340 b994 1240 1d34 2c40 f8bd 0240
00000010: 916b 2f40 f4ad 2e40 b76d 2e40
2.3105235 2.2903273 2.6906807 2.0428448 2.7409403 2.7293673 2.7254465

model/batch_normalization_4/batchnorm/sub f4 [7]
00000000: 3eb8 37c0 4a30 aabf bb23 adbf ec5b edbf
00000010: e618 02c0 52f7 e7bf feb3 04c0
-2.8706203 -1.3295987 -1.3526529 -1.8543677 -2.0327697 -1.8122351 -2.0734859

model/conv1d/conv1d/ExpandDims_1 f4 [1, 1, 3, 32]
00000000: 7782 033d f430 4abe 1459 b53c bb0e 85bd
00000010: 55f1 063e a51a c23d be76 223e 4346 913c
00000020: 45e3 4f3e 24e9 5dbe 9aa3 0cbe fb3a 10be
00000030: 60b0 8c3d c1e7 3ebe 58e4 80be d5f0 dcbc
00000040: e89c 203e 91fa 37be f694 6e3d 849d 38be
00000050: 43db 263e 50c4 333e 140e be3d e258 8c3d
00000060: b317 d4bd 39e5 bf3c 4c3c 60be 01a3 3d3d
00000070: 2181 3bbe 937b fabd 1f7f e53d 99d7 4f3e
00000080: e61f 0abe f04e a7be 8735 b3bd 7525 f7bd
00000090: d2d4 4d3e fb5c a5bd 76a7 5f3e e8b3 723e
000000a0: b6c7 1ebe d85a ef3c 8cfd f93d 1e91 543e
000000b0: fb13 2dbe 7869 683e c5d1 023e 5ccd c1bd
000000c0: 713e b5bd 6229 08be 566f 1ebd c2ee 0e3e
000000d0: e5c9 72be 16e4 3e3e 1fe9 9a3d e2bb 6dbd
000000e0: 42d4 19be 2491 233e b4f1 493e 71d7 013e
000000f0: 2caa 683e 2591 323e aafb 723e f911 7d3c
00000100: ca6e 0d3e 9bdc 6dbe 15e6 1f3d 14ff 633d
00000110: dc4c aa3d ea4a 2e3e 7e8d 91bc 4091 813b
00000120: 1a1a 28be c671 8d3d ffea 35be da66 8c3e
00000130: fed1 e73d 7583 1e3d ed1f 72be c8b5 ae3d
00000140: 507c 153c 7825 c73d be96 963c 50aa 9f3c
00000150: b97f a43d a85b 6bbe b9c3 313e 6253 eb3d
00000160: 6388 f1bd 47c0 653d f4e9 513e 3f3a e2bd
00000170: 1f74 65bd 9926 723e c926 5d3e 3e12 7c3e
0.032106843 -0.19745237 0.022137202 -0.0649695 0.13177998 0.09477738 0.15865609 0.017733699
0.2030154 -0.21670967 -0.13734284 -0.14085 0.06869578 -0.18643095 -0.25174212 -0.026970306
0.15684855 -0.17966677 0.05824753 -0.18028837 0.16294579 0.17555356 0.09280029 0.068528906
-0.10356083 0.023424732 -0.21898001 0.04629803 -0.18310978 -0.12230601 0.11205887 0.20297088
-0.13488731 -0.32677412 -0.08750444 -0.12067691 0.20100716 -0.08074375 0.21841225 0.23701441
-0.15505871 0.029218122 0.12206563 0.20758483 -0.16902153 0.22696483 0.12775333 -0.09462997
-0.088498004 -0.13297036 -0.038680397 0.13958266 -0.23709829 0.18641695 0.075639956 -0.058040507
-0.15022376 0.15973336 0.19721109 0.1267984 0.22721165 0.1743818 0.23728815 0.01544618
0.13811794 -0.23228686 0.039037783 0.055663183 0.08315441 0.17020765 -0.017767664 0.0039540827
-0.16416207 0.06906466 -0.17765425 0.2742222 0.1131935 0.038699586 -0.23644991 0.08530766
0.009123877 0.097239435 0.018382426 0.019490391 0.08032174 -0.22984183 0.17359819 0.114905134
-0.11793592 0.056091573 0.20499402 -0.11046266 -0.056018945 0.23647536 0.21596827 0.24616334

model/conv1d/conv1d_bias f4 [32]
00000000: 4a59 473c 13b1 743b 67f9 173c 7c78 733b
00000010: 49f0 b73b 3823 34bc 80fa 373b 36ed f13b
00000020: 72aa 2e3b b6f9 aebb f4e2 b43b bf3b 9f3b
00000030: 6564 103c 8f2b 6e3c 8249 7338 baf0 b73b
00000040: f148 8e3b 501a 383c a261 353b 6018 d13b
00000050: fd74 be3b 04d9 263c 37c8 c0bb 68c7 a03a
00000060: 0d8e 113b af83 c63a 313a 943b 547c ae3b
00000070: fc40 ee3b 4c87 503c 3108 c23a 79d7 123a
0.012167284 0.003733699 0.009275771 0.0037150672 0.005613361 -0.010994725 0.0028072894 0.007383014
0.0026651886 -0.0053398265 0.005520219 0.004859417 0.008812998 0.014536752 5.8004174e-05 0.0056134136
0.0043421914 0.011236742 0.0027676602 0.0063810796 0.005812286 0.0101835765 -0.0058832425 0.0012266459
0.0022209913 0.0015145446 0.0045235385 0.0053248797 0.0072709303 0.01272757 0.0014803467 0.0005601566

model/conv1d_1/conv1d/ExpandDims_1 f4 [64, 1, 3, 32]
00000000: 433e 2ebd b2d5 91bd 9180 13bc d581 1d3e
00000010: 65ff 81bd 0fb4 8fbd 30f2 27bd 1170 cdbd
00000020: 9e6e d03a e7b7 a13d 050d 27bd b970 da3d
00000030: 047b 03bd a5e6 893d ca88 30bd 6a4f 093e
00000040: b1bf d43d 68ee 013c 0437 fabc eb79 8dbd
00000050: 382b fdbc 9a4c be3d 7932 8d3d f036 fb3d
00000060: d57c 0d3e 557d 9fbc 97e0 103d e6b2 1a3e
00000070: a576 8c3d 93d7 7d3c 7f07 153e 1c8b 39bd
00000080: b075 10be c205 46bd c75d 553d dbfa bc3d
00000090: e0da f3bd 07ad 8c3d 153c e23d c30e acbd
000000a0: 1c9f b73d 97f1 2d3e a34b 8f3d a2f1 c2bd
000000b0: 3583 3f3d b729 fc3d 79fe 00be 49b9 b0bd
000000c0: 1ab4 e8bd f890 0ebe 5a84 88bb bcdb 83bc
000000d0: f6cf 873d fd49 013d 7a23 18be 0cbe 763d
000000e0: cd02 0abe 5a55 b9bd f5e9 cbbc 1edc bdbd
000000f0: a048 64bd b166 34bd f367 2dbe ceeb 99bd
00000100: 3214 8abd b711 88bd 7aa8 85bd 834a 3b3d
00000110: eb24 e93d 5f60 c63a aafc ebbd 5a1f 05be
00000120: a1e3 1ebe 8b22 c6bb 6b1d 1abe f5af 2b3d
00000130: c5c3 55bd 6357 f8bd aa3e c9bb 5851 bbbd
00000140: 8bc8 10be fcb5 9cbc 7b98 cdbd fefc b73d
00000150: 3315 0e3e 749e a23d cc92 ce3c 5f04 91bd
00000160: 6ab6 0abe bb47 0cbe 6631 8dbb 0c77 00be
00000170: 0bcf 6abd eeb3 053e 3f0e 723c 7314 d33c
00000180: c15f c7bc 8c61 49bd 7371 9abd 734a a53d
00000190: db0c c03d fdee 133e c383 b8bd 49f2 d33d
000001a0: 8b9c 7c3d 6e7e 863d 6062 ccbd fcbc b33d
000001b0: a46b 66bd 4f11 c7bd 0dc8 0c3d 78da babd
000001c0: 359d 8ebd 483c 373d 681c 423c 944c 3cbd
000001d0: 558e 81bd b107 9dbd f5c5 c83d 82f7 28be
000001e0: 5be2 42bd 607e 4b3c dd90 873c 024a cf3b
000001f0: a0ad 853c 07cf 843d 3dbc 06bd d953 453d
00000200: c530 abbd baa7 5c3d 5e2a 373d a741 98bc
00000210: 7c76 96bd f6f2 0f3e 9c61 cb3d 89ac 35bd
00000220: c04e 3bbc 1828 0abc 69a9 303c 1d84 543d
00000230: 350e 1bbe 3f05 43be fdf3 3cbd 35c2 3abd
00000240: 3089 05be e7cb 9fbd ce1d 963d 33cd 38bd
00000250: d083 28be 7e62 0bbe 69a0 11bd dec1 d7bd
00000260: a53a 903d 7720 023d 491b 3dbd f058 a3bd
00000270: b33d ea3d 4a06 023d bfb8 f7bd f6e3 97bd
00000280: 73e5 983d cc58 b6bc 4695 99bc 01d9 d23c
00000290: a9c2 97bd f9a8 253d da02 a03d b721 12be
000002a0: 4295 cdbd 9c02 cabd 5074 973d 9ee3 33bd
000002b0: c02e 1ebd 6e11 8dbd e995 01be 5a82 d03d
000002c0: 4fbd 74bc 1839 e2bd 77d6 fbbd 38ac 12be
000002d0: c2cb 8dbd 58d6 d23d 1bc9 39bd b9d2 c4bd
000002e0: 3e71 ba3d 4680 d7bd 2aa4 ee3d 1f18 dcbc
000002f0: e2c1 463d 5c0b e43d 4b62 3e3d 5c71 97bd
00000300: ff7c d33d 4122 a23d d6a6 803c f81e 2ebe
00000310: 25f7 cbbd 97fb 0f3e c223 09bd 8214 08be
00000320: 843b a03d 621a 763c 5614 ca3b d02a a2bd
00000330: 1997 c2bd 5699 bd3d cda7 f2ba c834 263d
00000340: ea9b 89bd fc99 56bd 3a81 70bd 1846 973a
00000350: 6539 703d fbab 213e e5fa 9fbc 9e11 933d
00000360: 4493 9b3d 5a6e 49bc 0cb6 443c 43de 043e
00000370: 3b4c f5bc 6d77 aabd 9d04 c43d f38f 363e
00000380: 4ec9 22bc fc5f 4d3c 4718 01be c1fc f43d
00000390: a9a1 40bd 26d5 abbd 3c48 39bd db71 5c3d
000003a0: 2b6d 913d 7e4f bc3d 7698 15be cc25 d4bd
000003b0: b027 acbd 5046 433d 4b3a 533d bfcf 713d
000003c0: 63a2 a8bd 27b4 07be 36e5 80bd 0694 eb3d
000003d0: 7900 b83d cea7 8abd 0bd9 ddbd 979b 7dbd
000003e0: 57b0 083e 5794 523c 62cc a2bd 0671 9cbd
000003f0: 2784 e53d 83e4 a73c 387b 89bd 9ceb c53d
-0.042539846 -0.07120837 -0.009002821 0.15381558 -0.06347541 -0.07016765 -0.041002452 -0.100311406
0.0015902107 0.07896405 -0.0407839 0.106660314 -0.03209974 0.06733445 -0.043099202 0.134092
0.10388125 0.007930376 -0.030543812 -0.0690802 -0.030904397 0.09291954 0.068943925 0.12266338
0.13817151 -0.019468943 0.035370436 0.15107307 0.06858567 0.015493291 0.14553641 -0.04529868
-0.14107394 -0.048345335 0.052091386 0.092275344 -0.119069815 0.0686894 0.11046616 -0.08401253
0.089658946 0.1698669 0.069968484 -0.09518744 0.04675599 0.12312644 -0.12597074 -0.0862909
-0.11362477 -0.13922489 -0.004166168 -0.016095988 0.06631462 0.0315647 -0.14857283 0.060239837
-0.13477631 -0.09049483 -0.024891833 -0.092705 -0.055733323 -0.044043247 -0.16934185 -0.07515679
-0.06742133 -0.06644004 -0.06526275 0.045725357 0.11383995 0.0015134922 -0.11522801 -0.13000241
-0.15516521 -0.0060465983 -0.15050285 0.041915853 -0.052188653 -0.12126043 -0.0061415033 -0.091463745
-0.14139001 -0.019129746 -0.10038849 0.08983801 0.13875274 0.07940379 0.025216483 -0.07080912
-0.13546148 -0.13699238 -0.0043088673 -0.12545413 -0.057326358 0.13056919 0.014773904 0.025766587
-0.024337651 -0.049165294 -0.0754117 0.08070841 0.09377452 0.14446636 -0.090095066 0.103489466
0.06167273 0.06567083 -0.09979701 0.0877628 -0.056254998 -0.09720098 0.03437047 -0.09123701
-0.069635786 0.044735223 0.011847593 -0.045971468 -0.06325976 -0.07667483 0.09803382 -0.16500667
-0.04757915 0.012420267 0.016548568 0.006325961 0.016318142 0.064848 -0.03289436 0.048175666
-0.083589114 0.053870894 0.04471814 -0.018585993 -0.07346818 0.14057526 0.09930727 -0.044353995
-0.01143235 -0.008432411 0.010782578 0.051883806 -0.15142138 -0.1904497 -0.046131123 -0.045595367
-0.13040614 -0.07802563 0.073299035 -0.04511757 -0.16456532 -0.1361179 -0.03555337 -0.10535024
0.070424356 0.031769242 -0.0461686 -0.07975948 0.114375494 0.03174428 -0.120957844 -0.07416527
0.07465639 -0.022259139 -0.018747937 0.025738241 -0.07410175 0.040444348 0.07813044 -0.14270674
-0.10038234 -0.09863779 0.07395232 -0.043918245 -0.038618803 -0.0688809 -0.12654842 0.101811126
-0.014937713 -0.11046046 -0.12296765 -0.14323509 -0.06923629 0.10294789 -0.045357805 -0.09610505
0.091036305 -0.10522513 0.116524056 -0.02686697 0.048524745 0.11134979 0.04648046 -0.073946685
0.103265755 0.0791669 0.015704554 -0.17004001 -0.099592485 0.14060818 -0.033481367 -0.13289073
0.07823852 0.015020939 0.006166975 -0.07918322 -0.09501476 0.09257762 -0.0018513143 0.04057768
-0.06719191 -0.052392945 -0.05871699 0.0011541275 0.058648486 0.15788262 -0.019528816 0.071810946
0.07596448 -0.012294376 0.012006294 0.12975411 -0.029943576 -0.0832356 0.095711924 0.1782835
-0.00993569 0.0125350915 -0.12606917 0.119622715 -0.04702917 -0.08390264 -0.045234904 0.05381952
0.071009 0.091948494 -0.1460894 -0.10358772 -0.08406007 0.047674477 0.051569264 0.059036013
-0.08234098 -0.13252316 -0.062937185 0.115028426 0.08984465 -0.067702875 -0.10832413 -0.06191596
0.13348518 0.01285275 -0.07949139 -0.07638745 0.11206847 0.020494705 -0.06712955 0.096640795

model/conv1d_1/conv1d_bias f4 [64]
00000000: 2f14 76bc b099 a1bc d887 97bc 2b87 c0b8
00000010: 1f55 b7bc bcdd 5a3b c510 5c3c f2b4 52bc
00000020: 70fa fdbb 2d06 163b 0d7a 393d ffe6 8abc
00000030: 763d 8abc 6ebc 77bc 0244 943c 583e e43b
00000040: 73a3 3bbb dbac 6e3c 98a1 8a3c 1f83 6dbc
00000050: b440 b43c 53b7 cc3b 5cf4 e6bc c451 77bd
00000060: 75d3 71ba e35e f2bc 7bb3 cd3b e50d fc3c
00000070: 3211 5f3c c3ac 183d 9e17 7f3c d5fc 0dbc
00000080: a809 32bc 2498 333c 6860 97b8 7ace d2b8
00000090: 99d5 0fbc 36a0 c43c c3cc 463c d2f2 acbb
000000a0: 8644 a5bc 6ebd 08ba aaea 84bc 2d39 d7bb
000000b0: 486b 4b3c c4aa 383c 5c22 3a3d 2d58 30bc
000000c0: c7b6 483b ce85 963b ef18 9fbc ca23 1f3c
000000d0: 8446 0e3d 773d b63c 46cf 993c e97c 4b3c
000000e0: 6c10 72bc a5b3 0c3c 00eb 4abc 5478 6abb
000000f0: 96dd 0c3b 78b8 c4bc f661 46bc 2f2a 02bc
-0.015019461 -0.019726604 -0.018497393 -9.1804504e-05 -0.022379456 0.0033396324 0.013431733 -0.012860524
-0.0077508017 0.0022891865 0.045282412 -0.01695585 -0.01687501 -0.015120609 0.018098835 0.0069654398
-0.002863136 0.014567579 0.016922757 -0.014496594 0.02200351 0.00624744 -0.028192692 -0.060380712
-0.000922493 -0.029586261 0.0062774993 0.030768344 0.0136149395 0.037274133 0.015569596 -0.008666237
-0.01086656 0.010961566 -7.218198e-05 -0.000100520396 -0.008778953 0.024002176 0.01213378 -0.00527797
-0.020174276 -0.00052162155 -0.016225178 -0.006568095 0.012415715 0.011271182 0.045442924 -0.01076321
0.0030626522 0.0045935875 -0.019421069 0.009713123 0.034735218 0.022246106 0.018775593 0.012419918
-0.014774423 0.0085877525 -0.01238513 -0.0035777288 0.002149438 -0.024013743 -0.012108317 -0.007944628

model/conv1d_2/conv1d/ExpandDims_1 f4 [64, 1, 3, 64]
00000000: 0580 33bd 4e52 b83d 411d d6bd e901 f43d
00000010: 4d71 c23d 9903 2b3d cb5b a1bd c175 1e3e
00000020: 703b 663b e033 dfbd 13aa 4c3d 2e05 00bd
00000030: 947a 653c 53e2 bf3d bba0 993d 7410 f3bc
00000040: bf81 123e 240a c7bc 7adf 743d 0373 9c3c
00000050: 1427 793d 54d9 653d d2ae 74bd fe2b 31bc
00000060: 44bc 593d cde0 14bd b792 07bd c1c5 0c3e
00000070: 880d 0d3e 7e38 9abb 6c9f a53d bd12 cebd
00000080: 7217 52bd cfe4 24bd 5e81 97bc dba4 6c3d
00000090: 630b f4bd cfd3 f23c c953 993d db3a 52bd
000000a0: 14f3 65bd 6a7a ddbb 57a7 033e ece4 b9bd
000000b0: b60f 67bd f67a d9bc 6c29 c1bc 49c6 1e3d
000000c0: 526d f53d 1cd5 4f3b 769b cfbd 9a70 983d
000000d0: 5dd4 30bd 938b b53d ec3c 9ebd 7bc6 b83d
000000e0: c2e8 563c b248 b0bd c1e3 e13d 95be 52bd
000000f0: 91b9 56bd 6406 afbd d9ba a53d fc6e 86bc
00000100: 870e 283d bc1a c43d 5ebb 7c3d a9fa 733d
00000110: 6553 ae3d 5066 dabd 8752 84bd fc08 08be
00000120: b953 803d 9bda 3abd f921 a53d f92a e33c
00000130: 4808 d6bd 7893 d0bc 75fb e73d 3fc8 61bd
00000140: 75b0 cb3d fe89 39bd 2261 323c cbe8 af3d
00000150: b4f9 b03d 6849 71bc 9a6c d9bc ee30 813d
00000160: c720 d6bd 792b 4dbd d29e bbbb d506 e23c
00000170: 8cb2 513d 31a9 bdbb d1c6 d53d 7e3f c93d
00000180: 7171 ae3d 7535 f53d c372 a93d e871 bbbb
00000190: 32e5 a73d e345 4a3d 982f 17bd 79f6 d63d
000001a0: ffd3 dc3d f8e5 6bba 821d adbc 2ad4 1e3d
000001b0: 0c75 f3bd 4b87 b73d 3377 823d 7250 923d
000001c0: 156e aa3d 9f48 be3c 194a bdbd 2654 503d
000001d0: cb0b e03d 5abe c2bd 6f91 b03c a649 3a3d
000001e0: 756c 863d 7e9c 3f3d 76c2 0ebd 86c1 0abc
000001f0: d101 1ebd 00b1 a3bc 7bc7 103e 0dc6 f1bd
00000200: c8ac c3bd 3ef5 8cbd cb07 3c3d 961a edbd
00000210: ae7c 2abc 14c0 00bd 33ce fcbd c0d9 f6bc
00000220: bbfd b63b cc47 f9bc 032b a83d 55d5 bf3d
00000230: 25a8 353d 04bb 98bc 45cf f4bd 7413 3cbd
00000240: e722 c63d 9d8a 01bd d50d d03d f13e 683c
00000250: a835 dd3c 0bf5 2abd efc6 803d c6a0 09bd
00000260: e620 0f3d 1550 32bd 9599 633d e1eb e0bd
00000270: 66cb 073c f377 d7bc 35ed ca3d ade8 573c
00000280: a560 3a3d 1b6c 893d 8a07 653c 5665 603d
00000290: e904 763c f22c cbba f465 cfbc 99dc 72bd
000002a0: c002 d2bd 1c61 e1bd c5aa d73d ad7e 57bd
000002b0: 6935 ed3d 0d30 e33d a966 97bc 6ff7 a73d
000002c0: 5103 90bd fac9 aa3c b7e5 893d a543 72bd
000002d0: 4fb0 d0bd 98eb 803d 1c27 e23c d69a be3d
000002e0: 4c92 8f3d 4e6a a2bd be7e df3d ddf9 e8bd
000002f0: 0358 9cbd dd52 c7bd a683 f53d b8bd d1bc
00000300: 6bae d0bc af77 f7bd 8767 e73d a1f9 33bd
00000310: 6e61 b13b 6dc8 d03d 141c cabd bf09 8e3c
00000320: 5562 ef3d c715 103e 14ef 9cbd fa47 ee3d
00000330: c395 a73c f38c 7b3c 8c57 893c 18b4 703c
00000340: 69e9 a43d 1a3c 0ebc c046 0b3e 1c8e 5c3d
00000350: 2d76 eebd 1f47 133e 8ba7 96bd 2a47 bcbd
00000360: e8c3 043e 8f1c eb3d f243 17bd a24a ba3d
00000370: 0034 b83d 5989 023e d255 ea3d 77d3 a838
00000380: 2698 263d 05ae aebd a56b 0ebd 8d98 e43c
00000390: e9f9 2b3d e9e2 463d b7b9 bcbd 67ed a83b
000003a0: d7be d33d a2df 893c b867 683d 71b4 b83d
000003b0: f1f0 c63d 34c3 c4bd a053 783d 3e36 40bd
000003c0: 0bde af3d 6bd9 99bd a5db 863d cfd0 bebd
000003d0: 80ac b53d 9e07 123e 05b6 9fbd baed 28bd
000003e0: ed99 2e3d 57cb ec3d cc58 6a3d 8445 c53c
000003f0: b364 9dbd 178d 65bd 2606 013d 176e 93bd
-0.04382326 0.090000734 -0.104547985 0.11914427 0.09494267 0.041751478 -0.07878836 0.15474607
0.0035130642 -0.10898566 0.049966883 -0.03125494 0.014006276 0.0936934 0.0750136 -0.029670931
0.14307307 -0.024296828 0.059783436 0.01909781 0.060828283 0.056115463 -0.059737034 -0.010813711
0.05315806 -0.0363472 -0.033098903 0.13747312 0.13774693 -0.0047064414 0.08087048 -0.10062168
-0.05129189 -0.04025727 -0.018494304 0.057774406 -0.11916234 0.029642014 0.07486684 -0.05132566
-0.05614002 -0.0067589777 0.12856804 -0.090768665 -0.056411467 -0.02654789 -0.023579322 0.03876332
0.11983742 0.0031712716 -0.10137074 0.07443352 -0.043171275 0.08864512 -0.07726464 0.09022232
0.013117017 -0.086076155 0.11029769 -0.051451284 -0.052423064 -0.08546141 0.08092279 -0.016410343
0.04102948 0.09575412 0.061702125 0.05956522 0.08512 -0.10664046 -0.06461053 -0.13284677
0.06265969 -0.045618635 0.080631204 0.027730452 -0.10450798 -0.025460944 0.113272585 -0.05512261
0.09945766 -0.045297615 0.010887416 0.085893236 0.08641377 -0.014726974 -0.026541043 0.06308161
-0.104554705 -0.050090287 -0.00572572 0.027591148 0.051195666 -0.0057879915 0.10438312 0.09826563
0.08517731 0.11973087 0.08273842 -0.005720366 0.081980124 0.049383055 -0.036910623 0.1049623
0.107826225 -0.00089988066 -0.021132234 0.038776554 -0.11887559 0.08961352 0.06370392 0.0714425
0.08321778 0.023227988 -0.09242649 0.0508615 0.10939749 -0.09508963 0.021553723 0.045480393
0.06563655 0.046780102 -0.03485342 -0.008468991 -0.03857595 -0.019981861 0.14138596 -0.11805353
-0.0955444 -0.06882714 0.04590587 -0.115773365 -0.0104057025 -0.03143318 -0.12344017 -0.030133128
0.0055844462 -0.030429743 0.08211329 0.09366862 0.04434981 -0.018643863 -0.11953596 -0.04591699
0.09674626 -0.031626333 0.10158888 0.014175163 0.027003124 -0.041737597 0.062879436 -0.03360059
0.034943484 -0.043533403 0.05556639 -0.1098249 0.00828824 -0.026302313 0.09908525 0.013178033
0.045502324 0.067100726 0.013978848 0.05478414 0.015015819 -0.0015501066 -0.02531717 -0.05929241
-0.10254431 -0.1100485 0.105306186 -0.05261104 0.11582453 0.11093149 -0.01848157 0.08201491
-0.070318826 0.020848263 0.06733268 -0.059146542 -0.10189878 0.06294936 0.02760654 0.09306876
0.07010326 -0.07930432 0.10912846 -0.11375783 -0.076339744 -0.09732602 0.119880006 -0.02560316
-0.025473794 -0.12083375 0.11299043 -0.043939237 0.005413226 0.10194478 -0.09868637 0.017338632
0.11688677 0.14070807 -0.07662788 0.11634822 0.020457154 0.015353429 0.016765378 0.014691375
0.08052332 -0.0086813215 0.13601208 0.053846464 -0.11643634 0.143826 -0.07356175 -0.09193261
0.12965357 0.114800565 -0.036930032 0.09096266 0.08994293 0.12747706 0.1144215 8.050253e-05
0.040672444 -0.08529285 -0.034770627 0.027904773 0.04198638 0.048556242 -0.0921511 0.0051552537
0.10339134 0.01683027 0.05673954 0.090187915 0.09713925 -0.096075445 0.060626626 -0.04692673
0.08587273 -0.07512172 0.065848626 -0.09317171 0.088707924 0.14260718 -0.07798389 -0.04124234
0.042627264 0.115622215 0.05721359 0.024081 -0.076852225 -0.056042757 0.031500004 -0.07198732

model/conv1d_2/conv1d_bias f4 [64]
00000000: 434b 12bd 0f70 d6bb b0c9 58bc 880c f33c
00000010: ee67 a53d ce79 34bc 1417 3bbc db43 a03c
00000020: 094a b4bc e7d9 073d 48c4 a5ba 9033 28bd
00000030: e402 04bd 66e3 043d 6b10 b23a fd9e babc
00000040: 9742 7dbc ab34 3cbc 18c5 82bc aee5 863c
00000050: 9093 243d 66fc 483b 1c48 203d aaf0 903a
00000060: ef52 b5ba d44f 43bd 1afb 23bc 0720 7bbc
00000070: 750b acbc f80c ed3c 9113 fe3b 95bb 483d
00000080: 8869 443c dc8f f43b 4398 e83c 987c 2abd
00000090: f125 a2bc 894f adbc 73fd 423b 1e26 0ab9
000000a0: d383 193c c28c a03c 36d3 b53c a6f5 3fbc
000000b0: 6d1a ba3c 16d2 59bc 8e5f 5ebc 6c59 8b3d
000000c0: f451 463c e9a1 46bc 10cd 7f3c a604 e93b
000000d0: 1843 17bd ae05 3c3c 8fe4 f339 1327 bbbc
000000e0: 0f59 45bc fefe d63c 54cf 04bd 18ee d73c
000000f0: f3bc b8bc f716 363c 0c51 a83b 53d1 a0bb
-0.035716306 -0.00654412 -0.01323168 0.029669061 0.08076464 -0.011015369 -0.0114190765 0.019563606
-0.022007959 0.033166792 -0.0012646997 -0.0410648 -0.03222932 0.032443427 0.0013585215 -0.02278089
-0.015457771 -0.011487166 -0.015963122 0.016466942 0.04017979 0.003066802 0.03913127 0.0011058052
-0.001383392 -0.047683552 -0.010008598 -0.01532746 -0.021001557 0.028936848 0.0077537973 0.049007017
0.011988051 0.0074634384 0.028392917 -0.041622728 -0.019793482 -0.02115609 0.0029753118 -0.00013174905
0.009369808 0.019598369 0.02219544 -0.011716282 0.022717679 -0.013294717 -0.013572587 0.06804165
0.0121045 -0.012123563 0.015612856 0.00711115 -0.03692922 0.0114759635 0.0004651886 -0.02284578
-0.012045159 0.026244637 -0.032424286 0.02635865 -0.022551036 0.011113874 0.0051366147 -0.004907766

model/dense/MatMul/ReadVariableOp/transpose f4 [64, 2176]
00000000: aaa9 9fbc 200f df3a 649e cfbc 4f64 b9bc
00000010: e05c 0f3d 65c5 38bc f191 9cbb 07c3 ce3c
00000020: 6e45 d3bc 3642 223d 1de3 213d 3e1e 00bd
00000030: cd8f 12bd d01f d8bc e297 f43b 3180 3dbc
00000040: 764d a23c a234 ffbc dbda 0f3d 406b 82bd
00000050: 4548 59bd 1e14 9b3a 6e9d 473d 7443 00bd
00000060: 6626 493d ca09 e0bc fb44 0fbd 7ea6 233d
00000070: fb5c 8bbd 7837 ec3c bdaf 3c3d a95e e63b
00000080: 25ee ec39 42b3 85bc 62a3 3c3d 15bf 9fbc
00000090: d647 f4bc dd11 05bd a3c4 d7bc 7d65 633b
000000a0: 541b 76bd dc4b 9c3c b01c 9a3c 5a12 09bd
000000b0: 823a 9f3c 737c 71bd 8dd6 f2b9 aa13 9a3c
000000c0: 9265 043d 9412 babc 1807 29bd a600 a13d
000000d0: ae79 733b 0d49 fbbb 5ced 5fbd 5f70 b1bc
000000e0: 6838 70bc f5a8 13bc ddf9 c73c 6b29 2cbd
000000f0: 979b 5c3d ed86 cc3c 1a99 8ebc 0378 07bc
00000100: ab4c cabb 5d25 88bb dc74 473c 0caf 56bc
00000110: 82cb 0f3b 790e 7fbb fb16 41bc f7ec 2abc
00000120: 1ee3 cd3c 887b 053d d419 e73b 7270 383c
00000130: f272 d43c 7fe9 39bc 2973 483d de2b f3bc
00000140: 7443 87bc 82c2 693d 3f5e afbd 0e1e 4d3d
00000150: b1e1 fe3b 9e20 133c 0b10 443d b098 d2bc
00000160: 255e f6bb f5a5 a13b cef1 e1bc 4f25 eb3c
00000170: 80b5 07bd 8931 42bd d321 9f3d 0bd3 fbbc
00000180: bad1 bd3b 7770 213c 3c11 9fbc c0e7 acbc
00000190: 1a2b 18bd d2c3 833a f906 6abc d179 053d
000001a0: b9ac f7bc 4c33 c83c 11cc ebbb 5215 78bc
000001b0: 044e 853c 3854 ae3c e517 3dbc 1432 393b
000001c0: 047d 7cbc 43f1 933c 3e19 42bd 69f1 2dbd
000001d0: 4e6b 1f3d 2637 a03c 9dc8 5a3d 2b85 ab3d
000001e0: a289 4e3b 5fd3 4cbd 5831 b2bc 6246 22bc
000001f0: ab4b 023d deda 2a3d 6971 243b b0cc 0d3c
00000200: 055b 92bc 7c8f 70bd ba95 adbc b067 b2bc
00000210: c4b6 0abc f68c 90bd f7ef 253c b84d 483c
00000220: 81d9 79bc 452a 39bd 5cfa 603d 1979 cd3c
00000230: 0ade 40bd a4da 84bc 623c b03c acf2 983d
00000240: 1022 d03c 1295 c7bc 7d2b cebc 4310 8f3c
00000250: 4d35 0f3c e3cd 033c d385 fe3a 68f2 13bd
00000260: 041c 1bbc 448e 8d3a 71e8 0cbd 6952 043d
00000270: 9102 edbc 9177 ccbc 7370 06bd 7cb8 833b
00000280: ce1e 9d3c f994 fe3c 012d bb3c a20f ef3c
00000290: 267c 043d 4c3d ae3c a25a fc3b 87df 8b3b
000002a0: 2aa1 193d 0030 dfbc b83c 0dbd c51d 70bc
000002b0: 3c85 dd3c c75a 433d e434 b6bc 7bc7 9f3c
000002c0: cdd2 7838 8ff8 a1bc 31b6 5f3c a040 70b9
000002d0: 1bf1 37bd 064c 1ebc 2646 ae3a b008 e6bb
000002e0: 1a7e 86bc 1955 61bd 55ef e7bb a823 6abd
000002f0: 426a 443d 3e28 19bd 3e00 883d 391b f33b
00000300: 20c3 9b3d 6ab4 d5bc 56f8 04bc 33c6 393c
00000310: 7897 60bb a783 0dbd 02f2 4a3b a007 7ebc
00000320: 9ce8 cdbc 291b aa3c 27a0 04bd 4fba 89bd
00000330: 89aa 8fbc a6d5 343d d0ab edbc d1ca 56bd
00000340: 8e45 133d f5ac b23c ec8e 523d fe27 9dbd
00000350: 190f c5bc 77bc 3f3d 4135 813d d250 18bd
00000360: 9b56 acbb 6279 0d3c fdbb 6ebc 9435 e9bc
00000370: 12f7 2bbc fd42 31bd 826a a73c 0c26 bf3b
00000380: 13d7 85bd c23a ad3c eb86 7d3c c449 81bc
00000390: 409c f63c aca3 173d 07f7 103c 7a53 703d
000003a0: d652 56bd 51ab 84bd a9ce 823c 4452 06bc
000003b0: 31d4 593d 06c7 8abc 5c92 fe3c f178 2dbd
000003c0: b5a3 9abd 4fb4 4f3d 1227 d43d 4b5e 43bd
000003d0: 59cb 4c3d 0874 44bd 6413 0cbd d29a d93c
000003e0: 982a 9fba 972c be3c 499b 18bd 29e4 88bc
000003f0: 0381 f73c 7f7a 1437 7bd4 1ebc 7e8c 1fbd
-0.019490082 0.0017018057 -0.025344081 -0.022630839 0.035000682 -0.011277531 -0.0047781398 0.02523948
-0.025789943 0.039613925 0.039523233 -0.03127884 -0.03578167 -0.026382357 0.007464395 -0.011566208
0.019812327 -0.031153027 0.035120826 -0.063681126 -0.053047437 0.0011831557 0.04873412 -0.03131433
0.049108885 -0.027348418 -0.034977894 0.0399537 -0.06804844 0.028835043 0.046066035 0.0070303273
0.0004519086 -0.016320828 0.04605425 -0.019500295 -0.02981941 -0.03248774 -0.02633888 0.0034697943
-0.060084656 0.019079141 0.018812507 -0.033464767 0.019437078 -0.058956575 -0.0004631769 0.018808205
0.032323427 -0.022713937 -0.04126653 0.07861452 0.0037151384 -0.0076686204 -0.054669723 -0.021660028
-0.014661886 -0.00901245 0.024411136 -0.042031687 0.05385932 0.024966681 -0.017406989 -0.008268359
-0.0061736903 -0.0041548447 0.012173858 -0.013103258 0.0021941368 -0.0038918538 -0.011785264 -0.010432473
0.025132712 0.03258851 0.0070526395 0.011257278 0.025933716 -0.011347174 0.04893795 -0.029684003
-0.016511656 0.057070263 -0.08562898 0.05007749 0.0077783694 0.0089799445 0.047866862 -0.025707573
-0.007518547 0.0049331137 -0.027581122 0.028704314 -0.033132076 -0.04741052 0.07770123 -0.030740282
0.0057928236 0.009853474 -0.019417398 -0.0211066 -0.03715048 0.0010052866 -0.014283889 0.032586876
-0.030233728 0.024438523 -0.0071959575 -0.015141802 0.016272552 0.021280393 -0.011541341 0.0028258609
-0.015410665 0.018059378 -0.047387354 -0.042466555 0.038920693 0.019557547 0.053413976 0.08375009
0.003151514 -0.050006267 -0.021752045 -0.009904476 0.031810444 0.041712634 0.0025092012 0.008654758
-0.017865667 -0.058730587 -0.02118956 -0.021777958 -0.008466426 -0.07058136 0.010128013 0.012225561
-0.015249611 -0.045206327 0.05492626 0.025082158 -0.047086753 -0.016217537 0.021513168 0.07468161
0.025406867 -0.024363074 -0.025167221 0.017463809 0.008740735 0.008044693 0.0019418545 -0.03611985
-0.009467129 0.0010799845 -0.03440136 0.032305155 -0.028931888 -0.024959357 -0.032822084 0.004019795
0.019179728 0.031076895 0.022848608 0.029182259 0.03234496 0.021269463 0.007701234 0.00426859
0.037507214 -0.027244568 -0.034481734 -0.014655535 0.02704107 0.047693994 -0.022242017 0.0195043
5.932413e-05 -0.019771842 0.013654278 -0.00022912258 -0.04490767 -0.00966168 0.0013296052 -0.0070200786
-0.016417552 -0.055012796 -0.007078091 -0.05716291 0.047952898 -0.037391894 0.06640671 0.0074190167
0.076055765 -0.026087005 -0.0081158485 0.011338758 -0.003426997 -0.03454938 0.0030967002 -0.015504748
-0.02513533 0.020764904 -0.032379296 -0.06724989 -0.017537372 0.044149064 -0.02901259 -0.052439515
0.035955004 0.021810988 0.051405832 -0.076736435 -0.02405505 0.046810593 0.063089855 -0.03718645
-0.0052593476 0.008634897 -0.014571187 -0.02846793 -0.010495918 -0.043276776 0.02043653 0.005833393
-0.06535163 0.021146182 0.0154740615 -0.015782245 0.030103803 0.037021324 0.008847958 0.05867336
-0.052325092 -0.064779885 0.015967684 -0.008198325 0.053180877 -0.016940605 0.031075649 -0.042351667
-0.07550756 0.050709065 0.103590146 -0.047697347 0.049998615 -0.04796222 -0.03419818 0.026563082
-0.0012143431 0.023214621 -0.037257466 -0.016710358 0.030212885 8.850008e-06 -0.009694214 -0.038952343

model/dense/MatMul_bias f4 [64]
00000000: 2dcd 2d3c db66 d03b c5bc 313b 4554 3dbb
00000010: 5b57 3e3c 4d8a 943b 91cd 223c 5672 a93b
00000020: 6cbe 9cba 0e2e b1bb 5c47 aa3b e961 5e3b
00000030: 11e1 803c db59 1b3d 2520 b33c 82e9 543d
00000040: 4a59 713c 9f31 01bc 3194 ac3c cae3 d1bb
00000050: f52f 293c c924 b43b 8bb6 6f3b 89de b039
00000060: 5148 0b3b 74bb c6bb c51f 743c 4560 d03b
00000070: 3430 7d3a 82e7 293c ad60 27bb 71e7 a03c
00000080: 3a6f 003d c8d4 f03a 0ba6 603b 1a65 213c
00000090: b76d a63b 3aee 393c 4c77 bc3c d6be 243b
000000a0: 9762 ffbb 4227 bcba edad e7bb 7dd0 bcbc
000000b0: d628 fdbb 3fd5 e7bb dfb7 cabb e204 8abc
000000c0: 1ee0 91bc f2b2 213c 1c4e 35bb acaa c83c
000000d0: 6926 1bbc 1057 8c3b f85a 6d3c 4328 113d
000000e0: afb7 4c3c 414e 9ebb a853 7039 0e11 8f3b
000000f0: 3daf 363c a098 823c 5b73 ab3b ea45 00bc
0.010608 0.0063599176 0.0027120572 -0.002888934 0.011617507 0.0045330883 0.009936706 0.0051711006
-0.0011958606 -0.0054071015 0.005196495 0.003393287 0.01573232 0.03792749 0.021865914 0.051980503
0.014730761 -0.007885366 0.021066757 -0.0064053284 0.010326375 0.005497549 0.003657731 0.00033735138
0.002125282 -0.0060648266 0.014900153 0.0063591325 0.0009658367 0.010370137 -0.00255398 0.01964161
0.031356074 0.0018373961 0.0034278657 0.009850765 0.005078997 0.011348302 0.023006104 0.002513816
-0.0077937352 -0.0014354961 -0.007070294 -0.023048634 -0.0077258153 -0.0070749815 -0.00618647 -0.016848031
-0.017807063 0.009869324 -0.0027664965 0.024495445 -0.009469607 0.0042828396 0.014487021 0.035438787
0.012494965 -0.004831106 0.00022919348 0.0043660467 0.0111501785 0.015941918 0.0052322573 -0.007829169

model/dense_1/MatMul/ReadVariableOp/transpose f4 [7, 64]
00000000: b455 2f3e b707 92be 4c43 443e 79e0 93bc
00000010: ceae 593e cf5b 07be ccd9 2b3d 0ea3 063e
00000020: 30a8 293e 7b5e 9cbe 47c4 54be ba60 86be
00000030: b656 833e 329b 0a3d 2098 183d 9bda 073e
00000040: b409 9ebb 8e8e 0fbe 00b7 183e 7642 323d
00000050: 685a e7be 7b38 ddbd de55 773e 3f97 7bbc
00000060: 6efa 4e3d bf15 96be 4d4b ddbd 7a06 b4bc
00000070: ecc0 173d 4f8d 063e fb65 2c3e ac5d 143e
00000080: 1cda 1abe d66a 26be 0407 61be c687 753e
00000090: ce6a 1fbe c7c0 d4bd 4330 513e 90e4 5c3e
000000a0: 15fd 82be eed3 6cbd 52e6 3ebd d10d 0e3e
000000b0: 8236 32bc ee97 91bd 2e88 04be 4fec 09be
000000c0: a601 4c3c d5ce 79bc 0e6d 6f3e de2e aebd
000000d0: 3506 3e3e 1df1 8cbe 5422 01bd c5cd 2fbd
000000e0: faa3 963d 4272 edbd e861 5e3d fa10 913d
000000f0: 80bf 263e 8f93 d43d 3f73 8dbe 4451 97be
00000100: ecd8 ccbe cdcc a0be fc18 03be 7a21 a1bd
00000110: 2183 053e 4a31 1fbe 6a19 f63d 97b8 053e
00000120: a8ae bfbc b37b 2c3e c9be 6dbe a697 90be
00000130: f163 d53d a48a be3d b44a 973e 5e57 34be
00000140: 08a2 6a3e 5471 f73c 29c4 103d 4d0d e4bd
00000150: d016 193e 7162 c93d 3591 87be 88ef 99bc
00000160: 67ac b93d c801 653e d83c 7bbd 2bef a8bd
00000170: be70 e53d a735 6cbc 78e8 6cbe 7490 223e
00000180: 2421 743e 3d03 fdbd 5be5 01be 02c1 99be
00000190: 72ba d2bc 2962 88be 626b b73d 9afa 2abe
000001a0: e4bc 1e3e b11c ee3d cc5b 78be 2581 67be
000001b0: 2ead 45be 8534 093e e7f6 7d3e 314d d0bd
000001c0: 92a3 abbe 94dd a7be 685d 3c3e 8f60 cdbe
000001d0: 3d88 d9bd 6621 493e 6102 88be 0995 123e
000001e0: e635 ab3d 0073 70be 8791 a3bd eafc 373d
000001f0: d829 163e ba63 493d b857 5ebd 7b48 8ebe
00000200: 2be3 73bd f05a 42be cd16 d8bd 6591 73be
00000210: 9797 c03d 7411 84be 6907 2a3c 78ec 74bd
00000220: 9614 18bb 4eff adbd 87e4 82bd f7b2 46be
00000230: fe3e 893d 7dc2 c83d d5ae 423e 29e2 703e
00000240: 34d7 9dbd 9087 95be 460b bf3d d2da 0dbe
00000250: 250a 9d3d 2016 1c3d e065 3abd 1c96 8d3b
00000260: 3f0a 14be 335b 803e 6077 cb3d cca2 a8bc
00000270: 9fe0 763d 8412 083d 46b5 d7bd e105 c8bd
00000280: 0858 9cbc 1873 31be 63ec 01be e61a be3c
00000290: 6634 89be db5a f7bc 00dc 153e 13e3 743e
000002a0: ea5e b5be d570 6e3e c98a ce3d 6397 4fbe
000002b0: 48aa 05be 67ff 433e 3252 333e 55f4 06be
000002c0: 732a abbe ff62 953a 7f9a b63d ec13 8dbb
000002d0: 2746 86be e3b6 63be eb93 b43d f721 673e
000002e0: 8b44 653e 18b6 8f3d cc58 44be 0abb 49be
000002f0: b1ad 05be 0768 513e 3232 f7bd ea15 95be
00000300: 2066 d2bd b37f 1ebe db60 3cbe ad1a 7abc
00000310: 3985 f73d 3796 493e 9ff1 283c a9df 9cbe
00000320: 4ddf 92be 5d1d 70be 815c aa3c ec8c b53d
00000330: 6797 e93d 1b64 953e 2de1 5c3e 435b 183d
00000340: f336 803e 9593 0dbd d96d 703e a0aa 7abd
00000350: 0928 773d 5a12 a1be d7a7 35be 0b30 3abe
00000360: 1c4b ab3d 6a41 213e c8d3 553e bdb8 eabd
00000370: d1ad 59bd 6d5e a4be f80d 283e b081 48be
00000380: 5612 50bd 22a3 88be 37c5 583e 27c7 343e
00000390: f219 213e 7ef0 5bbe 9c53 6c3e 1766 92be
000003a0: 9233 a4bd f328 313e e6dc 30be 2362 9fbd
000003b0: 64cf 7ebb 1d90 903e edbb e5bd 3cc5 fbbd
000003c0: 06d7 04be 4525 04bf b60e 873e 916e 25be
000003d0: db06 97be b99f 8ebe cd6b 0e3e 0090 72bb
000003e0: 3697 bcbd 866a 33be 1a01 4c3e 1371 de3d
000003f0: 4ffc 5d3e d5ed a23d 2892 66bd 62ab 85be
0.17122537 -0.2852151 0.19166297 -0.018051373 0.21258089 -0.13218616 0.041955754 0.13148138
0.16568065 -0.30540833 -0.20777999 -0.26245672 0.25652093 0.033839412 0.037254453 0.13266985
-0.004822934 -0.14019224 0.14913559 0.043520413 -0.45186162 -0.108017884 0.2415385 -0.015355884
0.050531797 -0.29313466 -0.10805378 -0.021975745 0.03704922 0.13139842 0.16835777 0.14488858
-0.15122265 -0.16251692 -0.21975332 0.23977575 -0.15568087 -0.10388332 0.20428567 0.21571565
-0.2558371 -0.0578193 -0.04660637 0.13872458 -0.0108772535 -0.071090564 -0.12942573 -0.13469051
0.012451565 -0.0152470665 0.23381445 -0.08505033 0.18557055 -0.27527705 -0.03152688 -0.042920846
0.07355495 -0.115940586 0.05429259 0.07083316 0.16283989 0.10379707 -0.27626988 -0.29554188
-0.40009248 -0.3140625 -0.128025 -0.07867713 0.13038303 -0.15546146 0.12016566 0.13058697
-0.023398712 0.16844063 -0.2321731 -0.282407 0.10419453 0.09303787 0.2954918 -0.17611453
0.22913373 0.030205406 0.035343323 -0.111353494 0.14950109 0.09833229 -0.26477972 -0.018790975
0.09066086 0.2236396 -0.061337322 -0.08248743 0.112031445 -0.014417089 -0.23135555 0.15875417
0.23840767 -0.12354133 -0.12685148 -0.30030066 -0.02572367 -0.2663739 0.089560285 -0.1669716
0.15501744 0.11626566 -0.24253768 -0.22607858 -0.19304344 0.13398941 0.24801217 -0.10170973
-0.33523232 -0.32786238 0.18395007 -0.4011273 -0.106216885 0.19641647 -0.26564315 0.14314665
0.0835989 -0.23481369 -0.079867415 0.044918932 0.146644 0.049167372 -0.054282874 -0.27789673
-0.059542816 -0.18980002 -0.10551224 -0.23785932 0.094039135 -0.25794566 0.010377743 -0.059795827
-0.002320563 -0.08495961 -0.063912444 -0.19404207 0.06701468 0.09802721 0.19012006 0.23523773
-0.07707062 -0.29204988 0.09328322 -0.13853005 0.076679505 0.038107038 -0.04550731 0.004320873
-0.14457034 0.2506958 0.09934878 -0.02058544 0.06027281 0.033220783 -0.10532622 -0.09766746
-0.019084945 -0.17329061 -0.1268783 0.023206186 -0.2679779 -0.03019469 0.14634705 0.23914747
-0.35423976 0.2328523 0.10085065 -0.20272593 -0.13053238 0.19140397 0.17511824 -0.13179143
-0.33430824 0.0011397301 0.089161865 -0.0043053534 -0.26225397 -0.22237734 0.088172756 0.2257155
0.22389428 0.070171535 -0.19174498 -0.19700256 -0.1305454 0.2044984 -0.12070121 -0.29118282
-0.10273385 -0.15478401 -0.18396322 -0.015265149 0.12085957 0.19686209 0.010311513 -0.3063939
-0.2868599 -0.23448701 0.020796062 0.08864769 0.11405831 0.29177937 0.21570273 0.03719641
0.25041923 -0.034564573 0.23479404 -0.061197877 0.060340915 -0.31459314 -0.17739807 -0.1818239
0.08363935 0.1574761 0.2088157 -0.11461017 -0.05314428 -0.3210329 0.16411579 -0.19580722
-0.050798737 -0.2668696 0.21168981 0.17654096 0.15732554 -0.21478459 0.2307877 -0.28593513
-0.08017649 0.17300777 -0.17271766 -0.0778239 -0.0038880939 0.2823495 -0.112174846 -0.12293479
-0.1297265 -0.5161937 0.2637841 -0.16155459 -0.29497418 -0.27856234 0.1390831 -0.00370121
-0.09208529 -0.17521104 0.19922295 0.10861411 0.2167828 0.07955519 -0.05629173 -0.26107317

model/dense_1/MatMul_bias f4 [7]
00000000: 4160 7a3d 15b0 9dbd fde6 5b3d aa2a 27bd
00000010: daa1 d7bc 9c4a bb3d 80b5 74bd
0.06112695 -0.076996006 0.053687084 -0.040812172 -0.026322294 0.0914509 -0.059743404

model/dire/MatMul/ReadVariableOp/transpose f4 [7, 7]
00000000: 6a83 b0bf 8632 72bf 629c 46be 4ab9 0c3f
00000010: d584 cb3e f2e8 953f d913 a4bf a9c1 14bf
00000020: 1852 62bf 8e32 b63f c5d3 a5bf 85a3 9bbf
00000030: 1042 04bf 0c3f ad3e d628 91bd e3d1 25bf
00000040: a80b d0bf 1ee2 81bf 958b 8c3f 5c4d 16bf
00000050: e217 943f c7a4 843f 58ae 593f 907a d4be
00000060: 9c64 3f3f aa89 293f addf 46bf 2db0 113f
00000070: bbaf 993f ea45 95bf 30a0 9bbf 5655 a33f
00000080: d88b 72bf e77f 5ebf 9a9b a1be 13b6 963f
00000090: 5a55 28bf 06a4 87be d893 653d b94a 163e
000000a0: 9b0b 5a3f 9fba 503f 1483 7f3f a916 963f
000000b0: 67d5 5cbf 2a62 babf a885 b3bf 92f2 7c3f
000000c0: e686 b4bf
-1.3790104 -0.9460834 -0.19395593 0.5497023 0.3974978 1.1711714 -1.2818557 -0.58108
-0.88406515 1.4234178 -1.2955252 -1.2159277 -0.51663303 0.33837163 -0.07087867 -0.64773387
-1.6253557 -1.014713 1.0980097 -0.5871179 1.1569788 1.0362786 0.8503165 -0.41499758
0.7476289 0.66225684 -0.7768505 0.5690945 1.2006754 -1.1661961 -1.215826 1.2760417
-0.94744635 -0.86913913 -0.31564027 1.1774315 -0.65755236 -0.26492327 0.056049198 0.14676942
0.8517396 0.8153476 0.99809384 1.1725665 -0.86263126 -1.4561207 -1.4025164 0.9880763
-1.4103668

model/dire/MatMul_bias f4 [7]
00000000: 0be2 113f 1e9d ee3e 10e5 eebe e522 d7be
00000010: 8a13 01bf 01d2 2abf e455 b03e
0.5698554 0.46604246 -0.46659136 -0.4201881 -0.5042044 -0.6672669 0.3444053
