app/src/main/assets/tap7cls_pixel4.tflite (tflite, 660748 bytes, 24 tensors)

batch_normalization/batchnorm/mul f4 [32]
000000 cb ca fa 41 90 03 e9 41 db 5f ec 41 5c f5 fb 41
       31.34902 29.12674 29.546804 31.494804
000010 4c 32 fa 41 de 8b f8 41 be 85 f6 41 6a 35 ee 41
       31.274559 31.068295 30.815304 29.776081
000020 83 97 f8 41 8a 8d f6 41 d0 70 e7 41 15 c0 ed 41
       31.07398 30.81911 28.930084 29.71879
000030 7b de f8 41 7d 22 fb 41 26 b7 ef 41 e9 44 f8 41
       31.108633 31.39184 29.964428 31.033648
000040 e4 25 fa 41 3a 81 fe 41 1b 53 f9 41 0e d9 f5 41
       31.268501 31.813099 31.165579 30.730984
000050 43 d8 ed 41 2d 33 e7 41 7c c2 fd 41 ec 85 e2 41
       29.730597 28.899988 31.719963 28.315392
000060 c7 e0 fa 41 c2 cb ef 41 10 3f ff 41 62 31 fa 41
       31.359755 29.974491 31.905792 31.274113
000070 a1 6e e5 41 f0 08 e5 41 aa d3 f6 41 45 8b e9 41
       28.679018 28.629364 30.853352 29.193003

batch_normalization/batchnorm/sub f4 [32]
000000 e3 b9 e7 bd 2e b7 94 bc 16 18 62 bd d2 f4 65 bd
       -0.11314752 -0.018153753 -0.05519875 -0.056141682
000010 39 17 e5 bc 75 04 a1 bd c3 f3 27 bd d7 70 a8 bd
       -0.027965175 -0.07862178 -0.041003954 -0.082246475
000020 1a 1b 61 be 4a 69 ac bd a2 33 09 bd ba 37 08 be
       -0.21982995 -0.0841852 -0.033496507 -0.13302508
000030 16 af 81 bd 24 ad 0c be f6 14 02 bd 39 a0 03 be
       -0.06332223 -0.13737923 -0.03175827 -0.12854089
000040 9a fb 75 bd 55 46 a4 bd fe 0a 35 bd 1e 36 4b bd
       -0.0600544 -0.08021227 -0.044199936 -0.049612157
000050 f3 18 ed bd 59 eb 84 bd e4 c9 2a be e0 d9 ec bd
       -0.11577024 -0.064902015 -0.16678578 -0.11564994
000060 83 a6 ef bd 66 e5 87 bd fa fc f6 bc d2 37 8e bd
       -0.117016815 -0.06635551 -0.030149926 -0.06944241
000070 d5 28 53 be 6b 72 8d bd d6 6d e5 bc c8 a1 5e bd
       -0.20621045 -0.06906589 -0.028006475 -0.054353505

batch_normalization_1/batchnorm/mul f4 [64]
000000 b0 d6 9f 40 bb 46 99 41 93 0d 8b 41 2e 7b a6 40
       4.994957 19.159536 17.381628 5.2025366
000010 89 d4 93 41 fd 8a 59 40 6a a6 d3 40 b3 48 c1 40
       18.478777 3.3991082 6.614064 6.0401244
000020 37 46 d7 40 65 ff 93 40 29 78 c2 41 09 d1 50 40
       6.727321 4.624926 24.308672 3.2627585
000030 02 b9 4e 40 e0 ac 1e 41 ef 09 a9 41 2d 3d a4 40
       3.230042 9.917206 21.12985 5.1324677
000040 cd 42 9c 40 51 82 4d 40 26 7f 0a 41 4d 9b 80 40
       4.8831544 3.211079 8.656042 4.0189576
000050 d6 47 a6 40 f5 88 01 41 d0 da 0d 40 00 e7 97 40
       5.196269 8.095937 2.2164803 4.7469482
000060 f1 08 40 40 aa 37 5c 41 1c 66 0f 40 b9 af 6e 40
       3.0005457 13.76359 2.2406073 3.7294753
000070 f5 2f 21 40 4e 66 3f 40 bc c4 2c 41 65 08 7e 40
       2.518552 2.9906192 10.798031 3.9692624
000080 d5 1e c8 40 b6 fa a3 40 e1 29 b3 41 f7 9a 79 40
       6.2537637 5.1243544 22.395449 3.9000833
000090 96 e3 66 40 24 6a 68 40 49 75 23 41 7c 2d 60 40
       3.6076407 3.6314783 10.216134 3.5027761
0000a0 ea ba c2 40 40 bd e9 40 ed 2c 8d 41 9b 31 5f 40
       6.0853167 7.304352 17.646936 3.4874027
0000b0 70 63 e4 3f b2 43 1a 41 94 c8 5e 41 42 26 49 41
       1.7842846 9.641527 13.923969 12.57184
0000c0 7a 07 52 40 43 1c 8a 40 1e 10 43 41 a9 c7 85 41
       3.2817063 4.31595 12.191435 16.72249
0000d0 53 95 94 41 6d 9b 13 41 27 fa d6 40 99 d6 85 40
       18.572912 9.225446 6.718036 4.182446
0000e0 67 79 56 41 1d 60 78 41 8d 3c 7a 40 89 ec 1d 40
       13.404639 15.523465 3.9099457 2.467562
0000f0 c7 3f 78 40 46 d4 32 40 01 c5 b8 40 e0 74 38 40
       3.8788927 2.7942061 5.7740483 2.8821335

batch_normalization_1/batchnorm/sub f4 [64]
000000 40 3d 28 bf 49 2b 45 bf 75 61 bc bf 98 e0 a7 be
       -0.6571846 -0.7701917 -1.4717242 -0.3278854
000010 8b a4 be bf 09 68 73 be be a7 67 be c9 ce 72 be
       -1.4893965 -0.23770155 -0.22622582 -0.23711695
000020 8c ec 67 bf 4d e2 5b be f6 e1 87 bf c2 e4 3c be
       -0.90595317 -0.21473046 -1.0615833 -0.18446639
000030 ee b7 6f be da 80 6f bf 0d 37 f1 bf a8 9a 8e be
       -0.23410007 -0.93555987 -1.8844925 -0.27852368
000040 65 68 9e be a3 ef 95 be 11 07 42 bf fa 2f c6 be
       -0.30939022 -0.2928439 -0.7579203 -0.38708478
000050 88 9f 82 be ec 5c 82 bf b5 83 8b be 28 4a 95 be
       -0.25512338 -1.0184608 -0.27248922 -0.2915814
000060 43 b3 95 be 52 2d 32 bf 46 b4 6b be 20 99 61 be
       -0.29238328 -0.69600403 -0.23017988 -0.22031069
000070 49 51 7b be 10 21 40 be 93 cd d2 be 7d c9 a5 be
       -0.24542727 -0.18762612 -0.41172466 -0.32380286
000080 05 ae 11 bf 73 30 cd be 5d c6 05 c0 d1 02 e6 be
       -0.5690616 -0.40076026 -2.0902321 -0.44924024
000090 0a 8e 9d be fb bd 8f be ab e8 50 bf b6 bf 7d be
       -0.3077243 -0.2807463 -0.81605023 -0.24780163
0000a0 73 5c bf be 81 0d ee be a5 9a 9e bf e6 3b a2 be
       -0.3737522 -0.46494678 -1.2390944 -0.31686324
0000b0 46 79 6e be 71 30 b5 be 02 89 dd bf 07 ad 2b bf
       -0.2328845 -0.3538852 -1.7307436 -0.67060894
0000c0 1d 9f 63 be 7d c6 8f be a1 ae da bf 6b e7 b3 bf
       -0.22228666 -0.28081122 -1.7084543 -1.4054998
0000d0 a3 84 b4 bf f8 b7 90 be 93 aa f4 be d0 11 9b be
       -1.4102978 -0.28265357 -0.47786388 -0.30287027
0000e0 bf 69 84 bf bd cd 0c c0 36 90 2d be 3e c7 9d be
       -1.0344771 -2.2000573 -0.16949543 -0.30816072
0000f0 9e 48 88 be 9c d2 28 be 91 2f 02 bf e5 1d 98 be
       -0.26617903 -0.16486591 -0.5085383 -0.29710308

batch_normalization_2/batchnorm/mul f4 [64]
000000 0f 25 90 3f 94 ec 8f 3f 26 44 a7 3f f7 35 1f 3f
       1.1261309 1.1244073 1.3067672 0.6219172
000010 40 fa 46 3f b9 c1 da 3f 84 f1 90 3f e8 c0 ff 3f
       0.777256 1.709037 1.1323705 1.9980745
000020 d2 a4 00 40 bd 59 4f 3f f7 90 2a 3f 40 3f e2 3e
       2.0100598 0.80996305 0.6662745 0.4418888
000030 56 eb 58 3f 5b a8 fe 3f a9 83 8e 3f 3c 7c d9 3f
       0.84734094 1.9895128 1.113393 1.6991038
000040 f3 bd 33 3f 20 a2 ce 3f 8f 5a 93 3f 5b e0 d5 3f
       0.70211715 1.6143227 1.1512011 1.6709093
000050 1c 90 7a 3f 92 a0 bd 3f c9 f8 21 40 13 14 08 3f
       0.97876143 1.4814627 2.5308096 0.5315563
000060 c1 e0 a3 3f ce d7 b7 3f bb 67 a0 3f 40 12 67 3f
       1.2802964 1.4362733 1.2531656 0.9026222
000070 0e ea 09 40 9b cc b6 3f 37 03 1a 40 90 f2 61 3f
       2.1549106 1.4281191 2.4064462 0.88260746
000080 9f c5 17 40 01 91 c2 3f 26 46 07 3f e1 c8 25 40
       2.3714368 1.5200502 0.52841413 2.5903857
000090 c8 bc e1 3e ed 93 4d 3f 7a dd fe 3f 94 ca 94 3f
       0.4408934 0.8030384 1.9911339 1.1624322
0000a0 68 4b f0 3f 4e 79 d7 3f e6 d3 07 3f fe a7 c8 3f
       1.8773012 1.6833894 0.53057706 1.5676267
0000b0 b4 7a 8c 3f b8 f4 ab 3f 0c 67 a5 3f 54 fc c2 3f
       1.0974946 1.3434057 1.2922072 1.5233254
0000c0 86 02 49 3f 50 cc 20 3f 27 cf 96 3f 08 7d 9c 3f
       0.78519475 0.62811756 1.1781968 1.2225657
0000d0 7b c8 6d 3f 8d 1a 8b 3f 23 f9 39 40 9d c6 49 3f
       0.92884034 1.0867478 2.905831 0.78818685
0000e0 c3 4c 3f 3f 8f fe 53 3f 2f 53 a3 3f 8d 04 cb 3f
       0.74726504 0.828103 1.2759761 1.5860764
0000f0 e3 a7 5d 40 3f c0 c2 3f db 14 37 3f 71 2a 0f 40
       3.463372 1.5214919 0.715162 2.2369654

batch_normalization_2/batchnorm/sub f4 [64]
000000 f1 b6 ea be 70 59 10 bf 48 2f df be ba 65 a2 be
       -0.45842698 -0.5638647 -0.4359076 -0.31718236
000010 5e d7 df be c7 3b 06 bf ec a7 cd be 5d 70 2b bf
       -0.43719 -0.52434963 -0.40167177 -0.6696833
000020 3d b5 67 bf ef 97 b8 be 9d b3 a4 be 57 ed b8 be
       -0.9051092 -0.36053416 -0.32168284 -0.36118576
000030 2f b1 e2 be 27 7f ec be 45 77 ea be f1 66 29 bf
       -0.44275805 -0.4619076 -0.4579412 -0.661727
000040 b3 af b3 be 7f 44 55 bf ec 2b 12 bf b1 6e 0f bf
       -0.35094985 -0.8330764 -0.5709827 -0.56028277
000050 1a 25 06 bf 7f c7 28 bf 1b 76 8f bf e4 66 c4 be
       -0.5240036 -0.65929407 -1.1207918 -0.3835975
000060 07 69 46 bf d7 82 dd be d2 62 08 bf 1e c3 ee be
       -0.7750401 -0.43263885 -0.5327579 -0.46633238
000070 14 4b 54 bf 75 01 14 bf b4 5d d6 bf ee bc d2 be
       -0.8292706 -0.57814723 -1.6747346 -0.41159767
000080 28 bc 70 bf e5 73 4b bf 04 1d a0 be 75 b3 66 bf
       -0.94037104 -0.79473716 -0.31272137 -0.9011758
000090 23 dc ae be 71 b1 d6 be 9f d4 53 bf 08 c8 04 bf
       -0.34152326 -0.41932252 -0.8274631 -0.51867723
0000a0 26 3e 81 bf 67 d0 57 bf 19 ae a8 be 38 69 25 bf
       -1.0097091 -0.8430237 -0.32945326 -0.64613676
0000b0 6a 6b 01 bf e6 e0 1e bf 24 04 ff be 2c b3 2c bf
       -0.50554526 -0.6206192 -0.49807847 -0.67460895
0000c0 ef 59 bf be e1 53 cc be 35 23 09 bf 18 55 c1 be
       -0.373733 -0.39907745 -0.53569347 -0.37760234
0000d0 a8 e4 bd be de 93 c4 be 65 4d bd bf 6f 3c e2 be
       -0.37088513 -0.38394064 -1.4789244 -0.44186732
0000e0 ce 19 d7 be f4 12 e8 be cd cf 16 bf ea d5 43 bf
       -0.42011875 -0.4532696 -0.5891083 -0.7649828
0000f0 bf f9 d3 bf 92 fd 34 bf 71 1a 98 be 3c 7b 99 bf
       -1.6560591 -0.7069942 -0.29707673 -1.1990733

batch_normalization_3/batchnorm/mul f4 [64]
000000 5d f5 85 3f 32 c5 80 40 f5 e8 56 3f 90 f6 ad 41
       1.0465504 4.0240717 0.83949214 21.745392
000010 03 6d fa 41 20 83 72 40 a8 1c e9 3f bb b8 85 3f
       31.303228 3.7892532 1.821187 1.0447
000020 bd 42 d9 3f c5 2f 02 3f 96 f1 0a 40 d0 dd b4 3f
       1.6973492 0.5085414 2.1709952 1.4130192
000030 09 68 6a 3f 18 19 54 40 b0 66 28 3f 15 9e dd 3f
       0.91564995 3.3140316 0.6578169 1.7313868
000040 7b 5c 18 3f 7d 32 f5 3e 2f ad 66 3f 28 97 5d 3f
       0.59516114 0.47890082 0.9010801 0.8655877
000050 0e 15 09 41 8e 35 0b 40 99 27 d1 40 4f 4f 94 3f
       8.56764 2.1751437 6.5360837 1.1586703
000060 93 be fc 40 4d d2 b4 41 50 b1 ea 3e 00 35 32 3f
       7.8982635 22.602686 0.45838404 0.6961212
000070 b0 87 fc 41 d3 9f 24 40 9b 2c 6b 3f 4c 16 8d 3f
       31.566254 2.572255 0.9186494 1.102243
000080 4f 57 bc 3e 56 d1 41 3f 9b 94 86 3f c8 ab bd 3f
       0.3678536 0.75710046 1.0514101 1.4818048
000090 e7 dc d6 40 a5 cd fb 41 0c 0d 47 40 fc df e9 40
       6.7144656 31.475412 3.1101713 7.308592
0000a0 b0 0a 85 41 ac 56 9b 3f f4 df 5e 40 11 69 6d 3f
       16.630219 1.2135825 3.482419 0.92738444
0000b0 ec 5e 3e 40 c9 24 19 40 17 0a 89 3f cd 2b fb 41
       2.9745436 2.3928702 1.0706204 31.396387
0000c0 fa f2 fc 40 42 f0 28 3f 8b ea 2c 3f 72 22 07 40
       7.90466 0.65991604 0.67545384 2.1114774
0000d0 fd f1 7c 40 09 d5 6c 3f 62 03 ce 3f 9f ae 2b 3f
       3.9522698 0.92512566 1.6094782 0.67063326
0000e0 b4 ec b7 3f 77 ec 71 41 ef 20 86 3f 4b 94 28 41
       1.4369111 15.120231 1.04788 10.536204
0000f0 a6 35 79 3f 78 23 a9 40 04 eb ac 3f c4 8d b5 3f
       0.97347486 5.2855797 1.3509221 1.4183888

batch_normalization_3/batchnorm/sub f4 [64]
000000 74 c5 67 bf 0c d5 40 be e1 58 d5 bf 5f ad 7b bd
       -0.90535665 -0.18831271 -1.6667749 -0.061444636
000010 c5 0f cb 3d 6a 76 bb be f8 15 e5 be f0 e7 95 bf
       0.09915117 -0.3661378 -0.44743323 -1.1711407
000020 b5 09 64 bf ac 5a 7c bf 26 27 a1 be b8 13 2e bf
       -0.8907731 -0.98575854 -0.3147518 -0.6799884
000030 93 aa b9 bf f8 55 01 bf 62 d5 59 bf be 5e 5b bf
       -1.450518 -0.505218 -0.8509122 -0.8569144
000040 f1 f4 9c bf e0 0d 50 bf bf ff 88 bf 97 c4 68 bf
       -1.226225 -0.8127117 -1.0703048 -0.9092497
000050 a2 3d 56 be 18 3b c2 be ef 36 68 be b8 e3 05 bf
       -0.20921949 -0.3793571 -0.22677206 -0.52300596
000060 ff 8e ed bd f4 2a 3e 3d 41 a8 5b bf a3 49 da bf
       -0.1159954 0.046427682 -0.8580361 -1.7053722
000070 27 69 75 be a1 a3 1c bf f3 c6 ae bf ff 44 69 bf
       -0.23965894 -0.6118718 -1.3654464 -0.91120905
000080 e0 c5 86 bf 01 e9 33 bf 54 9d 4f bf 7f 81 41 bf
       -1.0529137 -0.7027741 -0.8109944 -0.7558822
000090 27 a3 64 be d6 03 65 3e 85 2c 0d bf 50 19 90 be
       -0.22327863 0.22364745 -0.55146056 -0.28144312
0000a0 bc 32 2e bd 20 fc 8d bf 24 45 04 bf b7 84 62 bf
       -0.042528853 -1.1092567 -0.51668 -0.88483757
0000b0 ff 91 bf be da dc dc be b8 ee 1a bf f6 77 5c 3e
       -0.37416074 -0.43137246 -0.60520506 0.21530136
0000c0 32 61 1a bf 5a 43 37 bf 86 09 5a bf 58 88 a3 be
       -0.6030456 -0.71587145 -0.8517078 -0.3193996
0000d0 fb b3 04 bf 56 14 3f bf e4 ac df be 59 55 19 bf
       -0.5183713 -0.74640405 -0.43686593 -0.59895855
0000e0 bb 38 53 bf 95 88 2c be 12 d6 4b bf a2 66 43 be
       -0.8250844 -0.16848977 -0.7962352 -0.1908212
0000f0 70 13 5b bf 27 fe e1 be 7f 42 db be e7 c9 10 bf
       -0.85576534 -0.44139215 -0.4282417 -0.5655808

batch_normalization_4/batchnorm/mul f4 [7]
000000 df 1f 8d 40 5d 47 83 40 fc 56 3a 40 9a 8e b3 40
       4.4101405 4.1024613 2.911559 5.6111574
000010 e1 c3 6c 40 db 25 42 40 94 e4 88 40
       3.6994555 3.0335605 4.2779026

batch_normalization_4/batchnorm/sub f4 [7]
000000 20 01 9f bf 50 90 d3 bf 42 00 fc bf f9 7b dd bf
       -1.2422218 -1.6528416 -1.9687579 -1.7303458
000010 4d b3 8b c0 cc 37 08 c0 cc b9 d1 bf
       -4.3656373 -2.1284056 -1.6384826

conv1d/conv1d/ExpandDims_1 f4 [1, 1, 3, 32]
000000 99 c0 79 be ee b7 c3 ba 97 96 82 3d 67 1f bd 3d
       -0.24389876 -0.0014932135 0.06376379 0.09234505
000010 65 a2 48 be 8c e9 d6 3d 4a 98 bd bd 4d fc 27 3e
       -0.19593199 0.10493764 -0.092575625 0.16404839
000020 ed 92 2d bd 41 67 15 be 57 a1 0d be 3a 7b 5b 3e
       -0.042376447 -0.1459017 -0.13831078 0.21433726
000030 9d fe 36 3e 23 e2 67 3e 42 63 47 be 8a 4d 8d 3d
       0.17870565 0.22644858 -0.19471458 0.06899555
000040 54 b6 07 be 1b f2 ca bd 9e d1 a1 3d b9 0e a5 3d
       -0.13253146 -0.09909459 0.079013094 0.08059449
000050 1c f5 26 bd 2d 7f 74 be a3 ed 4e bd dd 24 6e 3e
       -0.0407611 -0.23876639 -0.050519597 0.2325625
000060 2f 54 d4 3d 14 e8 ca 3d 3d c7 1b bd 90 b2 cc 3d
       0.10367619 0.09907547 -0.038031805 0.099949956
000070 4e 2b 72 be 11 49 52 be 8a df c2 3c dc 45 1b be
       -0.23649332 -0.20535685 0.023788232 -0.15163368
000080 d7 a7 8b be 19 43 0e be f6 81 6a be 70 fc 17 3e
       -0.2727649 -0.13892783 -0.22901139 0.14842391
000090 6e fd 84 3a 29 9e c9 3c 42 af 29 be 64 2d 1f bd
       0.0010146329 0.02461155 -0.16570762 -0.038861647
0000a0 7c a5 5f be 95 8f 7b be 81 83 63 3e 92 8b 48 3e
       -0.21840471 -0.24566491 0.22218134 0.19584492
0000b0 5e 74 80 3e 6f 00 70 3e e5 35 51 bc 1e 03 42 3c
       0.2508878 0.23437665 -0.012769197 0.0118415635
0000c0 18 bf d6 3d 0c 4f 07 be ea 9c 00 3e 85 97 f4 3c
       0.10485667 -0.13213748 0.12559858 0.029857406
0000d0 09 a5 ae bd 0d 16 4a be 49 b1 bc 3b 38 5e c9 bd
       -0.08527572 -0.19734974 0.0057584387 -0.09832424
0000e0 fa b2 59 3e 64 f6 1d be 3c 83 00 3e 28 4a c8 bd
       0.2125968 -0.15426022 0.12550062 -0.09779769
0000f0 24 06 60 be 3b 80 1f 3e 28 de 2d 3c 09 c7 7e bc
       -0.21877342 0.1557626 0.010612048 -0.015550383
000100 a4 15 59 bd 74 a2 65 3e 67 7d 06 3e 64 95 b8 3d
       -0.052999154 0.22425252 0.13133775 0.09012869
000110 fa 33 5c bb 64 8a 8f 3e 19 6c c3 3b fe 51 20 3e
       -0.0033600316 0.2803527 0.005963814 0.15656278
000120 b2 20 c6 3b ef 68 57 be 11 53 a5 bd 43 d0 c3 bd
       0.006046378 -0.21036123 -0.08072484 -0.09561207
000130 76 a6 af 3d 4f a8 f0 3d a7 e8 27 3e b8 af fb 3d
       0.08576672 0.11750852 0.16397344 0.12289375
000140 8f 44 36 be 03 11 6b be 9d a2 b6 3d 51 47 db bd
       -0.1779959 -0.22955708 0.08917735 -0.10706962
000150 6a 25 59 3e e2 c5 02 3e 5a 31 e2 3d 97 4a 4d be
       0.21205679 0.12770799 0.11044569 -0.20047985
000160 f8 d2 5e 3e ee c3 1a be d5 d1 dd 3d 1b 90 84 bc
       0.21760166 -0.15113804 0.10831038 -0.016181996
000170 56 8c 4f 3e f7 c0 c3 3d 22 5a 5f 3e 15 b0 46 3e
       0.20268378 0.095582895 0.21811727 0.19403107

conv1d/conv1d_bias f4 [32]
000000 30 0e ff 39 b0 75 80 ba 86 b8 c1 ba 8c 69 42 3a
       0.0004864796 -0.0009800699 -0.0014779724 0.00074162404
000010 60 bc 49 bb 43 31 3e 39 06 b8 5a ba 8c 35 f9 39
       -0.0030782446 0.00018138163 -0.00083434617 0.00047532876
000020 ce 41 99 3b 5b 03 14 b9 c1 2d b5 ba 41 62 83 3a
       0.004677034 -0.0001411563 -0.001382284 0.0010023789
000030 d4 41 9c 39 8e 4d c7 3a 3b f2 4e bb a2 5e 49 3b
       0.00029803684 0.0015205608 -0.0031577486 0.0030726572
000040 d2 29 ac ba f9 0c a0 39 c6 58 06 3a 98 c9 aa ba
       -0.0013135022 0.00030527244 0.00051249226 -0.001303005
000050 7d 56 cb 3a 59 73 02 bb eb be 5a 3b a9 5e 9c 39
       0.0015513446 -0.0019905178 0.0033377956 0.00029825166
000060 01 10 7e 3a b7 c5 8c ba ea b4 bb ba 0a 87 64 3a
       0.0009691716 -0.0010740076 -0.0014320884 0.0008717632
000070 37 6a 7a 3b ba c0 c2 ba ef 34 c4 ba 97 6f 81 ba
       0.0038210282 -0.0014858462 -0.0014969389 -0.0009875175

conv1d_1/conv1d/ExpandDims_1 f4 [64, 1, 3, 32]
000000 20 09 08 3d d0 d5 c8 bd f1 ed 87 bd 5e eb a5 bd
       0.033211827 -0.098064065 -0.066371806 -0.08101533
000010 05 ea 75 bd 1e d0 5d bd 10 84 81 3d 5d 1f da bd
       -0.06003763 -0.054153554 0.06324017 -0.10650513
000020 6b 8e c9 bd a9 8e 81 bb 24 0c 07 bd 4f 39 fc bd
       -0.09841617 -0.003953774 -0.032970563 -0.12315618
000030 e1 7b 3b 3d e4 06 95 bd 0f c0 15 3e cb 03 39 be
       0.045772437 -0.07276705 0.14624046 -0.18067853
000040 93 46 02 3d a3 62 ce bb 25 2e 09 be db b4 ba bd
       0.031805586 -0.0062983795 -0.13396509 -0.09116527
000050 b3 68 07 be d3 28 8c bc 18 eb e4 bd 2f bd c7 3d
       -0.13223533 -0.01710931 -0.11177653 0.09752881
000060 2d f9 84 3d 0e 71 b5 bd 6f f2 fe bd 2b e9 27 3d
       0.06492839 -0.08859454 -0.12448584 0.04099385
000070 8c a2 ff bd 3e df 0d bd ee 28 48 3d ab e4 c8 3d
       -0.12482175 -0.03463673 0.04886716 0.0980924
000080 22 01 e8 3d 5d c8 b4 3d 2a 7b 80 3d dd e7 a0 bd
       0.11328341 0.08827279 0.06273492 -0.078567244
000090 d3 65 09 be 63 91 29 be ba c4 09 3e 33 e9 72 3d
       -0.13417749 -0.16559367 0.13453951 0.059304427
0000a0 3f 56 db bc 49 ae 1d 3d de 43 d1 3c f7 f2 e2 3d
       -0.026774524 0.03849629 0.025545057 0.11081498
0000b0 9b b4 ee 3d e5 ae c2 bc 83 be a4 3d b8 16 74 3d
       0.116555415 -0.023765037 0.0804415 0.05959198
0000c0 04 c6 30 3d 7a a3 92 3d 64 13 cf 3b 19 bc 52 3d
       0.043157592 0.07160087 0.00631945 0.051448915
0000d0 6a 1c 12 be 10 b2 ca 3d 7f 91 80 bd ef 0d 26 bd
       -0.14268652 0.09897244 -0.06277751 -0.04054063
0000e0 ad 25 66 3d fe 67 01 3d 7a 9c b1 3d 3a ec a2 bd
       0.056188274 0.031593315 0.08672424 -0.07955213
0000f0 a9 74 fb 3d 77 00 a1 bd c9 da cf bc fd 60 9e 3d
       0.122781105 -0.07861417 -0.02537288 0.07733343
000100 1e 3d ba bd 97 41 b0 3d 23 41 cd 3d 1a 7d 5d 3d
       -0.090936884 0.0860626 0.100221895 0.054074384
000110 3e 8b c3 bd 87 6c a2 bc 4e 17 69 3d 85 80 ee bc
       -0.09548043 -0.01982714 0.05690699 -0.029114017
000120 2e d2 11 be f6 30 c7 bd 87 1f 02 3e 44 58 a2 bc
       -0.14240333 -0.097261354 0.12707339 -0.019817479
000130 a0 ea 16 bd f3 0a 6e bd 78 b9 2c bd 57 84 1c bd
       -0.03684485 -0.05811591 -0.042169064 -0.038212147
000140 77 07 26 bd fd b8 02 3e 82 ec 02 3d ed f8 7d 3d
       -0.040534463 0.1276588 0.031963833 0.062004972
000150 fa a8 9b 3d 8f 28 b2 bb d5 fb 31 3d 5d ac c3 bd
       0.07600589 -0.005436964 0.043453056 -0.0955436
000160 71 2a 35 3d 88 f0 e0 bc d8 7e 09 be 10 a6 c9 bc
       0.04422993 -0.027458444 -0.13427293 -0.024615318
000170 25 03 1c 3d 35 d8 e8 3d 1c ff 0e 3d e6 a3 8f 3d
       0.038088936 0.11369363 0.03491126 0.07013683
000180 1b ed 20 bd ec 56 81 3c d9 46 90 bd 76 cd f1 3d
       -0.03928862 0.015788518 -0.07044763 0.11806767
000190 5d af 08 be 3d 24 4a 3d 5d 6e 13 be 6a 98 fe 3c
       -0.13348146 0.049350966 -0.14397569 0.031078536
0001a0 d9 2c 94 bc 53 5b 87 3d 40 2c 9f bd 37 e6 e7 3c
       -0.018087791 0.066092156 -0.07772112 0.028308017
0001b0 1a 18 16 bd e0 3e b8 bc fa 92 3c 3d 09 4c f4 bd
       -0.03664408 -0.022490919 0.046038605 -0.11928565
0001c0 8d 94 08 bd 28 cd d5 3d 1e 30 0a be f6 42 2c bd
       -0.033344794 0.10439521 -0.13494918 -0.042056046
0001d0 50 09 22 bd 95 7c d2 3d 7c a9 87 3d b7 1d 1e 3e
       -0.039559662 0.102776684 0.066241235 0.15441023
0001e0 49 e4 c9 3d bc f1 0c 3d c8 76 87 bc b7 ad d6 bd
       0.09857995 0.034410223 -0.016536132 -0.10482352
0001f0 0a 6a 08 be 10 d0 5a bd 10 4f 35 bd 4b dc e0 3b
       -0.133217 -0.05342108 -0.044264853 0.0068621985
000200 ae a0 f8 bd 8f c1 02 be 9c 30 33 be d9 c5 dc bc
       -0.12140022 -0.12769149 -0.17499012 -0.02694981
000210 17 5f 0c 3e 9e 9b 43 3c 93 d1 84 3d e7 4a 82 3d
       0.13708149 0.0119389575 0.064852856 0.06361943
000220 79 28 de 3c f3 79 ef bd d0 f3 dc 3b 58 dc e4 3d
       0.027118908 -0.11693182 0.006742932 0.1117484
000230 fa 56 d5 3d 5f 04 82 bc 48 ad 0e be 4f a4 99 3c
       0.1041698 -0.015871225 -0.13933289 0.018755106
000240 eb 52 08 3c 67 1a 09 be 21 20 00 3d c3 23 84 3d
       0.00832055 -0.13388978 0.03128064 0.064521335
000250 3a 7b 8e bd d3 19 05 3e 1f 6a 81 3c 28 c8 8f 3d
       -0.06957097 0.12998132 0.015797673 0.07020599
000260 1b 6e f9 3d cd a8 ad bd a1 c1 b0 bd 24 f6 b6 bc
       0.12179204 -0.08479462 -0.08630682 -0.022334166
000270 d4 b6 06 be 52 d1 10 be 1a d7 57 bd 9a 62 d8 bd
       -0.13155681 -0.1414235 -0.05269537 -0.10565682
000280 cb 70 32 be af 7c f0 3c 04 c3 74 3c 2e 3f a5 3d
       -0.1742584 0.029356329 0.0149390735 0.08068691
000290 83 2d 0f bd 0e fa cf 3b 4d 58 a2 bd 9e cf d9 3d
       -0.034955513 0.0063469475 -0.07926998 0.10635303
0002a0 ae 2c 8a 3a 6e b1 b6 3d 75 31 47 3d 2e 21 c8 3d
       0.001054188 0.08920561 0.04863115 0.097719535
0002b0 ca ef 81 bd 00 34 5b 3d df a5 94 3d 6c 14 bf 3c
       -0.06344564 0.053516388 0.072582 0.023325168
0002c0 8d 93 b2 bc 9c ea 06 be 13 52 c9 3d b5 e8 e3 bd
       -0.021798873 -0.13175434 0.098301075 -0.1112837
0002d0 27 9e d6 bd 33 7f 07 be 22 79 dd 3d 1a 8b b4 3c
       -0.10479384 -0.13232116 0.1081412 0.022038985
0002e0 35 67 29 3d dc ea ae bd 40 0b ec bd b9 d6 5a 3b
       0.04135819 -0.085408896 -0.11525583 0.0033392145
0002f0 be 17 9b bc 15 7c dc 3d 83 78 a9 bd 57 de 1e 3d
       -0.01893222 0.10765854 -0.08274939 0.03878626
000300 11 7e ff bc 58 97 f3 3c c2 d6 02 be 33 f1 7a 3d
       -0.031188043 0.029735252 -0.12777236 0.06126518
000310 29 d8 27 bd bd 5b f2 bd ef 19 a0 3d 32 72 c0 bd
       -0.04097763 -0.11833904 0.078174464 -0.09396781
000320 cf 14 72 bd 77 8f 0a 3c 5d b6 e0 bd 74 9d 5d bc
       -0.059101876 0.008457056 -0.10972283 -0.013526309
000330 0f 21 10 be 5f ca 0f be 7d 9a 97 bd 19 55 2d 3d
       -0.14075111 -0.14042042 -0.07402513 0.042317484
000340 3e 8b 03 be 5f 6d ac bd 51 71 05 3d 0f e5 a9 bd
       -0.12846085 -0.084192984 0.03257877 -0.082956426
000350 fc bd c4 3d a6 38 73 3d 0f d1 30 bd 95 a8 2b 3d
       0.09606549 0.059380196 -0.043168124 0.04190882
000360 fb 42 b7 bc ae 0e a2 3d f5 c1 02 be 19 5b f4 bc
       -0.022370806 0.07912956 -0.12769301 -0.029828595
000370 03 bf 2a bd b2 03 ba bd 75 cd 1b bd bb 76 a2 3d
       -0.04168607 -0.09082736 -0.038037736 0.07932802
000380 2b 2e d9 bc f4 72 82 bd d7 76 3b be a4 30 21 bd
       -0.026511272 -0.06369582 -0.18307053 -0.039353028
000390 3d e0 d7 bd 2c c5 00 3e df 53 3a bd 5d ef 38 bc
       -0.10540817 0.12575215 -0.045490142 -0.011287537
0003a0 ea 02 f6 3d ca f4 86 bc c2 5b 53 bd aa fa b0 bd
       0.120122746 -0.016474146 -0.05160118 -0.086415604
0003b0 ad 5a 05 be 4c 9e 0e 3e 85 40 51 bc 75 7d 4e bd
       -0.13022871 0.13927573 -0.01277173 -0.050412614
0003c0 c6 10 c6 bd 37 81 9b bd 52 34 f0 3d 19 3e 13 3e
       -0.09671168 -0.07593005 0.11728729 0.14379157
0003d0 0f 61 d7 bc 56 93 1f bc 1c 36 26 3c f0 7b a8 bc
       -0.026291398 -0.0097397175 0.010144737 -0.02056691
0003e0 f0 c3 31 bb 8a a1 a0 3c 44 f0 05 be e2 ed 21 be
       -0.0027124844 0.019608278 -0.13079935 -0.15813401
0003f0 ea 0f 91 3d e5 45 0e bd a8 3a f0 3d 62 0a 1c be
       0.070831135 -0.034734625 0.11729938 -0.15238336

conv1d_1/conv1d_bias f4 [64]
000000 dd f1 56 3d 8b fa 6d bb b2 87 a5 b8 79 bb 51 3b
       0.052476753 -0.0036312665 -7.893088e-05 0.0032002612
000010 4f ab aa bb 7c 26 b8 3c 4b 3a 64 bc 0e ac d5 bc
       -0.00520841 0.022479288 -0.013929914 -0.026083019
000020 06 f2 24 3d 4b e1 87 bc 93 bb 98 bb 8c 91 b8 bc
       0.040269874 -0.01658692 -0.0046610325 -0.02253034
000030 b0 65 aa 3c cf 4a a9 3c 06 16 5b 3c 69 09 1d ba
       0.020800442 0.020665554 0.01337195 -0.0005990477
000040 94 4c 96 3c 6d cd 74 3c 52 d9 0d ba 9a c1 fe 3c
       0.018347062 0.014941555 -0.00054111064 0.031098176
000050 10 fb 24 bc 04 c2 3e 3b bb de b6 3c 12 9d 19 bc
       -0.010069624 0.0029107342 0.022323003 -0.009375827
000060 cc 14 38 3c df d0 57 bc 83 71 e1 bc 84 e2 e9 bb
       0.011235427 -0.013172357 -0.027519947 -0.0071375985
000070 7c bc 8c bc a0 79 3e 3c 63 88 ca bc 0c aa f4 3c
       -0.01717972 0.011625677 -0.024723237 0.02986624
000080 28 13 3b 3c 3c a0 c9 3c 4a b4 7b 3c 51 49 4e 3c
       0.011418141 0.024612539 0.0153628085 0.012590722
000090 42 99 d8 3c 59 00 68 3c 43 f2 69 3b e1 66 73 bb
       0.026440267 0.014160239 0.0035697378 -0.0037140178
0000a0 5c f0 8b 3c 86 36 96 bc 80 67 95 bb 02 d8 98 3c
       0.017082386 -0.018336546 -0.0045594573 0.018657688
0000b0 a9 1a 4a 3c f1 72 4d bc 25 ba 20 3d ba df 0e bd
       0.012335458 -0.012539611 0.03924002 -0.03488133
0000c0 ae be 42 bc 48 d5 bb ba f3 5e 0e 3d 0c 8c 53 3c
       -0.011886282 -0.001433053 0.03475852 0.012911808
0000d0 1d 40 3d bc 18 11 8a bb 70 11 ff 3c 72 01 9c 3c
       -0.01155093 -0.0042134635 0.031136245 0.019043658
0000e0 4f bd 16 bc 60 fd f0 3c d8 09 da bb 93 a4 2b 3d
       -0.009200408 0.029417694 -0.0066540055 0.041904997
0000f0 36 8c db bb 79 c1 99 bb d6 49 9a 3b 22 64 25 3c
       -0.006700064 -0.004692253 0.004708509 0.010094674

conv1d_2/conv1d/ExpandDims_1 f4 [64, 1, 3, 64]
000000 ca ce 81 3d e6 0a 08 3e 1b ec a8 bb ea 33 a2 3d
       0.0633827 0.13285407 -0.005155099 0.07920058
000010 c1 4d 46 3c c5 9c 50 bd 21 a2 8a bd f2 3b 6e bc
       0.012103499 -0.050930757 -0.06769205 -0.014540659
000020 1f ac 4a bd b3 42 bf 3c 8f 30 64 bd 67 87 9c bd
       -0.049480554 0.023347234 -0.05571037 -0.076430134
000030 88 2b 3a 3c 7d 22 02 bc e0 23 21 bd 26 b6 f0 bb
       0.011362918 -0.007942793 -0.039340854 -0.0073459325
000040 dd 99 c4 3d 13 bf aa 3d c1 62 72 3d 1b f6 d4 bd
       0.095996596 0.08337226 0.05917621 -0.103985034
000050 4f 1d 78 3d c6 b7 b1 bd 88 b6 77 3d dc 42 e9 3c
       0.060574826 -0.0867763 0.06047681 0.028474264
000060 83 13 ab bd 46 3e 46 3d 68 02 99 3c 5c 3a 14 bd
       -0.08353331 0.048399232 0.018677905 -0.03618847
000070 6b c2 a3 bd c2 b2 25 3d 6b 36 2e bd 16 00 cd 3d
       -0.07996067 0.04045368 -0.042532366 0.10009782
000080 5b 9f 4d 3c b6 70 9a 3c 9c 13 a7 bd 8f e4 d5 bc
       0.0125502 0.018852573 -0.08158037 -0.026109962
000090 1a a8 ea bd 14 d6 ee bc 7d 7e 02 3d ef aa 74 3d
       -0.11457844 -0.029154815 0.03185891 0.059733327
0000a0 7a 40 95 3d 4d 9b 1c be f0 32 35 3d 11 d6 d9 3d
       0.072876886 -0.15293618 0.04423803 0.10636533
0000b0 84 8e 0a 3b 3b 79 99 3c 20 7e 46 3d e2 37 1b bd
       0.0021142075 0.018734565 0.048460126 -0.03789509
0000c0 51 b3 ee 3b 83 a4 7f 3d 63 56 89 3d ba c0 cf 3c
       0.00728456 0.06241275 0.0670593 0.025360454
0000d0 79 1f 4c bc d2 ca ae bd 4d 5d 14 bd fc ca 5b bc
       -0.012458676 -0.08534779 -0.03622179 -0.013415094
0000e0 bd b1 2f 3e 60 4e 7f 3c 16 fc 8e bb af 03 12 bc
       0.17157646 0.015582651 -0.004363547 -0.008912011
0000f0 3c 09 82 3a 41 d1 1c 3e eb 12 05 3e 89 e3 fb 3d
       0.0009920965 0.15314199 0.12995498 0.12299258
000100 21 8a 96 3c a9 76 aa 3b 5e 1e 03 3d 27 c8 fb 3d
       0.018376412 0.0052021337 0.032011382 0.122940354
000110 d2 01 18 3e 60 f3 fe bd 65 e1 d1 bd 2d 50 91 bd
       0.14844444 -0.12448764 -0.10248069 -0.070953704
000120 05 68 db bd 7c f8 83 3d d9 98 94 bc 72 be be bd
       -0.107131995 0.06443879 -0.01813929 -0.09313668
000130 da b1 cf 3d c2 de 09 3e af bc 83 3d 75 da 8c bd
       0.10141344 0.13463882 0.06432473 -0.06877605
000140 fc 82 b1 3c 47 7f 6b 3d 71 d7 aa bd fa 12 a8 3c
       0.021668904 0.057494428 -0.083418734 0.020516861
000150 a0 ed 9a bd 63 2d 73 bd d5 16 fd 3d db 10 e1 3d
       -0.075648546 -0.059369456 0.123578705 0.10989543
000160 67 21 7c 3d 90 ed 32 3d 36 d6 b7 3d 3a b9 04 3e
       0.061555292 0.04368359 0.08976404 0.12961283
000170 be ea bd bd 05 58 2d bc 5a 8c e6 3d 3a 6e 5a 3d
       -0.09273289 -0.0105800675 0.11257239 0.053327776
000180 25 8e b7 bd 5b d4 2a bb ba 21 28 3d 34 b7 93 bc
       -0.08962659 -0.0026066515 0.04104779 -0.018031694
000190 22 8e ca bd c6 a8 98 bd be 46 69 bb c0 7f 85 3d
       -0.09890391 -0.07454066 -0.0035595144 0.06518507
0001a0 60 da f0 3c 46 e8 72 bc 23 ae 4d 3d 9b 0b d8 3d
       0.029401004 -0.014825886 0.050214898 0.105490886
0001b0 5c 9b 8b bc 1f 8f 98 bd 41 f7 65 3c 82 4e a7 3d
       -0.017041855 -0.07449173 0.014036001 0.08169271
0001c0 63 09 af bd c3 78 16 bd 6c 22 44 ba 8b 42 ce 3d
       -0.08546712 -0.03673626 -0.0007481936 0.10071286
0001d0 11 c8 b6 bd f7 40 93 3c 78 53 48 bc dc 5f ed bd
       -0.089248784 0.017975314 -0.012226932 -0.11590549
0001e0 09 5f b9 bd 4b d4 d0 bc c5 ac 4e bd 71 aa 81 bd
       -0.0905133 -0.025491854 -0.050457735 -0.06331337
0001f0 2f 25 b5 3c de 84 ad bd 1a de 30 3d d8 10 c1 3d
       0.022112457 -0.08472608 0.043180563 0.09427041
000200 f5 a5 51 bd 50 f8 8e 3d 6b b6 40 3d f0 2e 4a bd
       -0.05118366 0.069809556 0.047048967 -0.04936117
000210 36 76 f5 3d 1a af 3c 3d 20 33 be 3d c2 e5 5d 3d
       0.119854376 0.046065427 0.09287095 0.054174192
000220 75 f5 7e ba c5 15 83 bd 6b ae ce 3c 6d c6 f1 bd
       -0.0009725907 -0.064006366 0.025229653 -0.11805425
000230 c9 2a 95 bd 50 ef 90 bd 6a 4f 86 bd 9b 3e 8d 3d
       -0.07283551 -0.07076895 -0.06558116 0.06896707
000240 24 27 d2 3a 60 72 44 bd b1 98 3a bd bc 57 3a bc
       0.0016033393 -0.04796064 -0.045555774 -0.011373457
000250 41 aa ab bd aa d2 b6 3c a5 3e d6 bc a9 c2 43 bc
       -0.08382083 0.02231725 -0.026152918 -0.011948266
000260 bd af e1 bd 4a 07 99 bd dc f9 4d 3d c5 f3 70 bc
       -0.110198475 -0.074720934 0.050287113 -0.014706557
000270 37 f2 90 3d aa 3b 03 3c a4 c2 81 bd 75 63 33 3d
       0.07077449 0.0080098305 -0.06335953 0.04379602
000280 e3 aa 18 3c 70 00 01 bc 59 da 05 bd 4d 79 bd bd
       0.009318086 -0.007873639 -0.032678936 -0.09251652
000290 af 5a 81 bd 8e c8 65 bd 1d 0d 8d 3d 9a 5f d8 3d
       -0.06316125 -0.056099467 0.06887267 0.105651096
0002a0 a0 b6 7e bd a3 e0 83 3d 3a 2e 33 3d 05 bf 43 3d
       -0.062185884 0.064393304 0.043745257 0.047789592
0002b0 cc 09 86 3c 6c 69 d5 3d 63 2e 1e be 6d ff 05 3e
       0.016362093 0.10420498 -0.15447383 0.13085718
0002c0 c9 6d 73 3d 7a a6 50 3c 10 be c6 3b 56 91 d4 3d
       0.05943087 0.012735004 0.0060651377 0.10379283
0002d0 47 e0 df 3c e4 60 8f 3d a9 1b 9e bd b7 76 0b 3d
       0.027328623 0.07000902 -0.077201195 0.034048762
0002e0 2d 7c 8d bd 75 97 0c bc 94 4c 1e bd 8b 74 4b 3d
       -0.0690845 -0.008581032 -0.03864725 0.04967169
0002f0 36 3f 86 bd cb f7 cd 3d 99 5e a3 bd 43 75 c2 bc
       -0.06555025 0.100570284 -0.079770274 -0.023737555
000300 bb 7b 77 bd b8 a0 17 3e ed 2c cd 3c 0d 8f d7 3c
       -0.060420733 0.14807403 0.025045836 0.02631333
000310 1f 9a a5 3d 2f e7 49 3d fb e7 8c 3d 97 cf 43 3d
       0.08086037 0.04929274 0.06880184 0.047805395
000320 ab a2 c2 bd f1 e9 00 3e cf d4 e4 3a 25 db 18 bd
       -0.09503683 0.12589242 0.0017458441 -0.037318368
000330 ae f1 f2 3d 1a d2 a0 bd b5 57 0d 3e da 22 c0 3d
       0.11862503 -0.07852574 0.13802989 0.093816474
000340 05 99 5f 3d c8 48 eb bd 0b 06 2a bd 9a 03 5e 3d
       0.05458929 -0.11488491 -0.04150967 0.054202653
000350 ac e8 d1 3d 04 41 81 bd 83 9a 02 bd 28 63 71 3d
       0.10249457 -0.06311229 -0.031885635 0.058932453
000360 fe 4e e8 bb ec 9d 65 3d 64 05 d1 bd 8f 3e a9 bd
       -0.0070894947 0.05605881 -0.10206106 -0.08263885
000370 f8 f2 03 be ee 5b f0 bb 7c 2a 5c 3d 7b 0f d0 3c
       -0.12885654 -0.0073351776 0.053751454 0.025398007
000380 13 28 e2 bd 8b bc 02 bd 6b 74 9f bd 91 cf b6 bc
       -0.110428 -0.03191809 -0.07785877 -0.022315772
000390 42 3a e5 3c a8 61 9a bd 20 f4 92 3c 3a 40 88 3c
       0.027981881 -0.07538158 0.017938673 0.016632188
0003a0 07 15 10 3e 7b 88 4f bc 49 d1 7f ba c6 93 3e 3b
       0.14070521 -0.012666817 -0.0009758664 0.002907978
0003b0 9b 45 bd bd 44 61 2a bd 85 5c b9 bc bf 7f 9d bd
       -0.09241792 -0.041596666 -0.022627125 -0.07690381
0003c0 b3 47 a6 3d e8 f8 89 bd 6c 79 c7 bd e3 d9 b7 bc
       0.08119144 -0.06736928 -0.09739956 -0.022442764
0003d0 a3 67 8a 3d b8 da 81 bd f9 ca 2a bd 7f 29 4b bd
       0.067580484 -0.063405454 -0.041697476 -0.04960012
0003e0 29 a9 66 bd af e9 04 be fb 7a e1 3d ee 2f 70 bc
       -0.056313667 -0.12979768 0.11009785 -0.014659865
0003f0 7b 32 96 bd 9a 00 91 bc 1e 4a 2a bd 6d d0 b1 3c
       -0.07333847 -0.017700482 -0.04157459 0.02170583

conv1d_2/conv1d_bias f4 [64]
000000 0b cc 39 3d d2 54 5c 3d 12 a7 24 bc 50 41 87 bb
       0.045360606 0.05379183 -0.010049598 -0.004127659
000010 d2 1e ba ba 4f d7 15 bc be 1a 9a bb 9a 6a 40 bd
       -0.0014199859 -0.009145572 -0.004702895 -0.046976663
000020 89 b5 7d bd d3 a8 e8 3a fa a1 79 3c 41 41 f8 bc
       -0.061940704 0.0017750509 0.015236372 -0.030304553
000030 54 34 3d 3d 7c 03 69 bd 40 f4 67 3c af 43 7e bc
       0.046192482 -0.05688809 0.014157355 -0.015519067
000040 25 0c 23 bd 91 59 de 3b c4 e4 e4 bc b9 0c b9 bc
       -0.039806504 0.0067855795 -0.027941115 -0.022589074
000050 72 a1 31 3d f6 36 ca 3c 90 d8 06 3d cb 66 b3 3c
       0.043366857 0.02468441 0.032921374 0.021899601
000060 76 86 4c 3d 8f 66 08 3d 3f 5d f2 3b 50 27 3b bb
       0.04993292 0.033300932 0.0073963697 -0.0028557368
000070 84 69 65 3c 56 da 1a 3b 2d 5d ab bb 7f fc 0c 3d
       0.014002208 0.0023628674 -0.0052296133 0.034420487
000080 5e 12 ea bc 8f 3b b8 3c a5 b6 dd 3c 57 3c 87 bc
       -0.028573211 0.022489337 0.02706463 -0.016508264
000090 4f 23 9c bd 3c 62 e9 bc 8a 8f 3f 3d ab 0f 34 bc
       -0.07623922 -0.028489225 0.04676775 -0.010990064
0000a0 eb 31 78 3b e0 1b b4 3b 4d 32 8a 3b 8f 8b 03 bc
       0.003787155 0.005496487 0.004217422 -0.008028879
0000b0 7a 2f 70 bc c6 b3 5b 3d bc 0e 6d 3c 40 36 9d 3c
       -0.014659757 0.053638242 0.014468845 0.019190907
0000c0 ce 5b 8c 3c 53 63 72 3c 08 8c 87 bd d0 31 e2 bc
       0.01713362 0.014794189 -0.06618506 -0.027611643
0000d0 d3 21 41 3b 7a 59 41 ba e2 51 13 bc 75 16 1b 3c
       0.0029469624 -0.0007375699 -0.00899169 0.009465803
0000e0 89 d3 9f 3c 02 02 8a 3c 9a 10 54 3d 2f 0c 4e bc
       0.019510048 0.01684666 0.051773645 -0.012576147
0000f0 07 17 44 bd 2d 1e 53 bb f3 db 94 3c 2e 95 25 3c
       -0.047873523 -0.003221403 0.018171286 0.010106368

dense/MatMul_bias f4 [64]
000000 30 5b 07 3c 1a 7d 3c 3c a8 a2 95 3c 23 4c 29 3b
       0.008261487 0.011504436 0.018266037 0.0025832735
000010 40 cc a8 bb 03 70 28 3c 89 ea d2 bb 41 6a 25 3c
       -0.0051513016 0.010280612 -0.00643665 0.010096134
000020 43 db 00 3d 1c d1 25 bc 50 92 0f 3c 33 77 19 bc
       0.031459104 -0.010120656 0.008762911 -0.009366798
000030 8d fb 08 3c e9 d1 c8 3b e5 f1 0a 3c 5b 0d f3 38
       0.008360756 0.006128539 0.008480524 0.000115896306
000040 88 0e e6 bc 1e a6 ba bb 14 1d e7 3b 60 d9 a1 3c
       -0.0280831 -0.0056960722 0.007053027 0.019756973
000050 bb 7c 94 bb 5d 26 bd bb 44 a5 53 3c 6f 2b 0a 3c
       -0.0045314706 -0.0057723955 0.01291782 0.008433207
000060 94 25 dc 3a 8e 07 00 3c 34 b8 0e bc 0f df a8 bc
       0.0016795867 0.007814301 -0.00871091 -0.020614175
000070 c7 84 2a bb 3f 1c 62 bb 06 70 e5 3c 90 0d b0 3c
       -0.0026019083 -0.00345017 0.028007519 0.021490842
000080 3d 7a a2 3c aa 85 a1 bb c8 b2 a6 bb cc 83 27 3c
       0.019833678 -0.004929264 -0.0050872304 0.010224294
000090 96 83 b9 3b 4a 80 f3 bb ff 1a 84 3b b6 0d e7 b9
       0.005661438 -0.0074310647 0.0040315385 -0.0004406997
0000a0 a5 52 ee 3a 94 11 0e 3c 07 11 00 3c 36 7c 01 3d
       0.0018182589 0.008671183 0.00781656 0.031612597
0000b0 9e 79 44 3c 00 68 3c 3b 8c 53 0e 3b a0 f3 f6 bb
       0.011991886 0.0028748512 0.0021717278 -0.0075363666
0000c0 0c ba 6a 3b 0f e5 7f 3c 9e fb c3 3b 1a 79 0e 3c
       0.003581646 0.015618577 0.005980923 0.008695865
0000d0 63 a4 53 ba ce 8a db 3c d3 2c c6 bc ea 56 a3 3b
       -0.0008073507 0.026799586 -0.024191296 0.004984726
0000e0 1e b7 0d 3c 3e e7 6f bb 91 5a f7 3c be e7 4f bc
       0.008649616 -0.0036606337 0.030194553 -0.012689529
0000f0 bc 65 d5 bb d2 56 00 3a 00 d1 ad 3b 63 2d 2b 3c
       -0.006512372 0.000489575 0.0053044558 0.010447833

dense/kernel/transpose f4 [64, 2176]
000000 20 db e3 3c f1 7e ab 3d 69 af 31 3c aa 05 03 3d
       0.027814448 0.083738215 0.010845044 0.031987824
000010 5a c4 51 3d 3b e2 74 3b c9 92 03 3c d0 e0 54 bb
       0.051212646 0.003736629 0.008030602 -0.0032482632
000020 51 7d 7b 3c 37 95 bd 3c ce 4e 85 3c 1a 6d 2a 3d
       0.015349702 0.02314244 0.016272929 0.041607954
000030 bc 9d f8 bc 7e 63 4c 3d b8 70 2a bd 0f 9e 85 bc
       -0.030348651 0.04989957 -0.041611403 -0.01631072
000040 8e 28 d5 3b ef 68 8c bb 4a bf 47 3c cc 72 e7 3b
       0.0065050786 -0.00428497 0.012191603 0.0070632454
000050 d9 4e 30 bd 65 0c af 3c d9 7f e4 bd 1c cb 28 3d
       -0.043043945 0.021368215 -0.111571975 0.041209325
000060 70 e3 cb bb 4d 78 e0 bc 19 4e 29 3c e7 37 08 bd
       -0.006222181 -0.027401114 0.010333561 -0.033256438
000070 b1 58 ef 3c 03 77 1c 3d d2 bc 9e 3a 8d a1 46 bc
       0.029217096 0.038199436 0.0012110716 -0.012123478
000080 c7 66 9b 3c d9 d8 83 3d 90 ed b8 3c 55 32 ac bc
       0.018969906 0.06437845 0.022574216 -0.021020094
000090 d3 ac 3b bc 17 d8 89 3b 0c 49 09 bc fe 9b e9 bc
       -0.011454779 0.004206668 -0.008379232 -0.028516766
0000a0 e8 68 0e 3d 28 ae b2 3d 43 7b b5 3c f7 85 20 bc
       0.034768015 0.08724624 0.022153502 -0.009797565
0000b0 19 04 af bb 5f ed af 3c 06 f8 13 ba ef 66 ba 3b
       -0.0053410647 0.021475492 -0.00056445634 0.00568854
0000c0 08 26 f1 bb af 9b cb bb 5b 70 d7 bb 9a 6a af 3b
       -0.00735927 -0.0062136273 -0.006574673 0.005353284
0000d0 44 b4 bd 3b 26 5e 91 bc 58 a1 7a 3c d2 34 08 3d
       0.0057893116 -0.017745089 0.015297256 0.0332535
0000e0 dd c7 f1 3a 04 25 05 3d 4d 10 84 bb ac d7 02 3d
       0.0018446405 0.032506004 -0.0040302635 0.031943962
0000f0 93 86 cc bc c1 f7 c8 3c 18 d0 27 3c e0 06 ae bc
       -0.024966514 0.0245322 0.0102424845 -0.021243513
000100 a8 df 36 3d 21 aa 04 3d 18 e1 96 bc 96 e8 36 bd
       0.04464689 0.03238881 -0.01841788 -0.044655405
000110 1b f6 fb 3a 8e 3b 8f 3d 23 80 00 3d cd 0d e0 3c
       0.0019223125 0.06993781 0.0313722 0.02735033
000120 79 14 fa bb 1c 92 9a bc bd 91 49 ba 73 fb c5 3c
       -0.007631835 -0.018868499 -0.0007689258 0.024167752
000130 78 0d d3 bc f9 08 37 bd 5e 09 82 bd 5b 09 d5 bb
       -0.025763258 -0.04468629 -0.06349443 -0.0065013594
000140 1e 3e d0 bc e2 e7 2c 3d 60 5f 09 bc ad 88 4b 3c
       -0.025420245 0.04221333 -0.008384556 0.012422723
000150 10 79 ae bb f3 09 2c bb 97 aa ab 3c 23 6e 85 bc
       -0.0053244904 -0.0026251047 0.020955367 -0.016287869
000160 44 47 8e bc 3f 51 8e bc d0 73 9a 3b 79 84 8e 3c
       -0.017367966 -0.017372726 0.004713513 0.017397152
000170 65 12 0a 3c 9e b8 8d 3b 34 43 52 3d 4e 17 1e bd
       0.008427237 0.0043249866 0.05133362 -0.038596444
000180 44 c6 5e bd e2 e6 15 bd 91 39 2d 3d 53 a0 1b 3d
       -0.0543883 -0.03659714 0.042291228 0.037994694
000190 ab 6b 4d 3c bd 46 bc 3c f8 08 27 3d 98 52 50 bd
       0.012537877 0.02298295 0.040780038 -0.050860018
0001a0 82 ac 4c 3b 03 3e cb bc bd a7 13 bc f9 11 f2 bc
       0.0031230752 -0.024809843 -0.00901216 -0.029549586
0001b0 0d 64 6a bd 3d eb 5e 3b ab c0 31 bc 7e e3 0f 3d
       -0.057224322 0.0034014725 -0.010849158 0.035129063
0001c0 28 74 3a bb 09 11 31 3d ea d9 4d bc 2c d2 9c 3d
       -0.0028450582 0.043229137 -0.012564162 0.076572746
0001d0 b9 37 38 3d 1c 5d 2f ba cf 25 1a 3d 08 62 26 bd
       0.044975016 -0.00066895946 0.037633713 -0.040620834
0001e0 5e b1 31 3d f2 8c 9d 3d 1e 87 b5 bc e4 b1 9d bc
       0.04338204 0.07692899 -0.022159155 -0.019249864
0001f0 02 6a 9c 3c dc d2 df 3c 52 0a ae bb 64 96 90 3c
       0.019093517 0.027322225 -0.005311289 0.017649837
000200 ee 58 94 bc f5 c5 20 bc 45 24 88 bd 34 3e c7 3c
       -0.018108811 -0.009812822 -0.06647543 0.024321653
000210 ca bb 63 3c e5 e6 04 ba 3c 45 a5 3a 4c fb b1 3c
       0.013899753 -0.00050698064 0.0012609134 0.021726273
000220 c1 7c e8 bc 82 28 c0 3c 78 51 1e bd c8 a0 85 ba
       -0.0283798 0.023456816 -0.038651913 -0.0010195011
000230 8b fc a7 3c c0 6a 59 bd df 4a 5b 3d 12 49 07 bd
       0.020506164 -0.05308032 0.0535382 -0.03302867
000240 c0 33 0e 3c cf 0d 94 bd 45 bd 22 bd f6 27 59 3c
       0.00867933 -0.07229196 -0.039731283 0.013254156
000250 0c 56 89 bb d3 7b 2d bd 9a 26 93 bd c0 c0 46 bb
       -0.004191166 -0.042354416 -0.07185097 -0.003032729
000260 3f 78 cf 3a f2 0e 76 bc c2 4a 2f bc bd cd 4a 3c
       0.0015828683 -0.015018212 -0.010698976 0.012378153
000270 4b 6a 83 3b fd 2b fb bc e5 ae d4 bc 54 01 d0 bb
       0.004010474 -0.030660624 -0.025962302 -0.0063478146
000280 18 86 68 bc 95 ca 03 3d a1 2d 56 bd 9e 24 27 bc
       -0.014192127 0.03217562 -0.05228961 -0.010201601
000290 2f 3c 07 bc 1b cc 05 bd c8 e3 5d bc dd 7a 2b 3d
       -0.008254095 -0.032665353 -0.013543077 0.04186522
0002a0 5c e4 b0 3c 90 22 cc bc f4 9b 0f 3d 9b 9e da 3c
       0.021593265 -0.024918824 0.035060838 0.026686957
0002b0 f3 d5 dd 3c b7 44 18 3d 38 ef 8a bc 3c 6b a2 bc
       0.027079558 0.037174907 -0.016959772 -0.019826524
0002c0 fd 8e 89 3c 5d 50 82 3c c4 84 8b bb 09 4d f4 3b
       0.016791815 0.01590746 -0.0042577703 0.0074554724
0002d0 31 4e 8a 3d cc aa b6 3c 91 e8 fd bc e6 8d 89 3c
       0.06753195 0.02229824 -0.030994685 0.016791295
0002e0 eb 73 7d 3b 8f 83 b5 3c 9d 93 03 3d e1 b7 72 bc
       0.0038673829 0.022157459 0.032123197 -0.014814348
0002f0 4e 81 f5 3c cf bf ef 3c af ec 93 3c f5 e0 c5 3b
       0.029968884 0.029266266 0.018057195 0.00603878
000300 b3 ba 51 bd 7a 53 bc 3a e3 15 49 bd 89 2e bd 3b
       -0.05120344 0.001436814 -0.04909314 0.0057733697
000310 25 64 02 3c 32 ec ca 3b e3 47 80 3b e5 62 c4 bc
       0.007958447 0.0061927075 0.0039148196 -0.023972938
000320 17 14 29 3d af 7a 83 3d bd 82 58 3d d1 8f 0e 3b
       0.041278925 0.064198844 0.052859057 0.0021753202
000330 25 85 cb bc 0b df 15 bd 17 c8 b2 3c b0 99 13 3c
       -0.024843762 -0.036589663 0.021823926 0.00900881
000340 25 34 41 3c d5 3f 2b bc 8f 5b 44 bd 5f af 26 3d
       0.011792217 -0.01045223 -0.04793888 0.04069459
000350 84 d0 6a 3d 45 74 a7 bc 51 14 ac bd 1c 10 d7 3c
       0.057327762 -0.020441184 -0.084023125 0.026252799
000360 29 aa 14 bd 0f 10 55 3d f6 31 3b 3d 0f 6f c3 bd
       -0.03629509 0.052017268 0.045701943 -0.09542667
000370 71 a1 e3 bc 90 16 e9 3b 17 db fd bc 66 e2 00 bb
       -0.027786942 0.0071132854 -0.03098826 -0.0019666194
000380 42 cb 43 bd f2 23 09 bc 41 78 33 bd 7c a3 12 bd
       -0.047801264 -0.008370386 -0.043815855 -0.035800442
000390 5f 1d 2c 3c 07 57 b9 bc 1c 9e 95 bc 29 31 3c bd
       0.0105050495 -0.022624506 -0.018263869 -0.04594532
0003a0 cb 0e 75 bd a8 dc 8f 3c 96 8a 19 bd fb 5e 54 3d
       -0.05982856 0.017561272 -0.03748568 0.051848393
0003b0 9b 44 ec 3a 38 b3 5a bd 69 74 0f bd 39 ee 65 3d
       0.0018025817 -0.053393573 -0.035023127 0.05613539
0003c0 4e 9c e1 3c a3 a8 de bc de 51 ee 3c 1d e8 2e 3b
       0.027540352 -0.027180022 0.029091772 0.0026688643
0003d0 38 7e 11 3d f6 72 8d 3c e6 64 28 bc 4c 3e f7 3c
       0.035520762 0.017266732 -0.010277962 0.030181073
0003e0 f7 d1 7a 3d f8 5b 7e bd c9 c3 f2 bc 46 81 2b 3c
       0.061235394 -0.062099427 -0.029634373 0.010467833
0003f0 9d 8f 27 3c 88 3e 20 bc 89 e5 0e 3d d5 6c 55 3a
       0.010227111 -0.009780534 0.03488687 0.00081415224

dense_1/MatMul_bias f4 [7]
000000 71 ed 99 bd 09 c5 1e bd d6 c9 46 3c 2f ea 9a bd
       -0.075159915 -0.038762126 0.012133082 -0.07564198
000010 39 9d 8d 3e d0 08 31 3e e7 0a 41 bd
       0.27659014 0.17288518 -0.047129538

dense_1/kernel/transpose f4 [7, 64]
000000 06 26 95 3d cb 27 b7 3d 27 d7 28 3e 3a 1c c7 bd
       0.07282643 0.08943137 0.16488324 -0.09722181
000010 2f d3 28 3e be 49 58 3d 46 4a a8 bd 05 be 08 3e
       0.1648681 0.0528047 -0.082172915 0.13353737
000020 49 19 14 be 06 3c 92 be a1 e0 0b bd dc d7 81 be
       -0.1446277 -0.2856142 -0.03414977 -0.2536
000030 9e ad 93 3c 2a aa ab be 9a 1f ab bd 0e 81 9e be
       0.018027123 -0.33528262 -0.08355637 -0.30957836
000040 23 28 3b be 78 dd 43 3e b5 59 28 3c 82 40 60 3d
       -0.1827703 0.19127452 0.010275294 0.05474902
000050 68 5f e9 3c a9 71 d1 be e0 83 5b 3e 2d 5b c4 bd
       0.028487876 -0.40907028 0.21437025 -0.09587703
000060 2a ef 0d be ff b9 e1 bc b3 73 82 be b3 ea ce 3d
       -0.13860765 -0.02755451 -0.25478896 0.10103359
000070 f7 df 88 3e d3 e4 58 bd 8b 2c 59 3e 5c 5e 36 3e
       0.26733372 -0.0529526 0.21208398 0.17809433
000080 8e bf 0b 3d e4 21 5a be 10 09 32 bd cc 35 56 3d
       0.034118228 -0.21301991 -0.043465674 0.0522974
000090 c7 ea 27 3e b0 34 ac bc 55 3a 00 be 11 37 da 3b
       0.16398154 -0.021021217 -0.12522252 0.0066593965
0000a0 1f 35 3c be f5 07 73 3d 6f 8a 4e 3c 7c e0 86 3e
       -0.18379639 0.05933376 0.012606247 0.26343143
0000b0 31 7e 0a 3d fc 46 14 3e 71 36 24 3e 5d b6 cc be
       0.03381175 0.14480203 0.16036393 -0.39982882
0000c0 c4 d0 d0 bc e4 75 84 3e c2 37 6c 3e 42 0b 23 3e
       -0.025490172 0.25871193 0.23068145 0.15922263
0000d0 47 e0 e1 bd bf 9e ee bd 2c 76 09 3e 20 6e 04 be
       -0.11029106 -0.11651372 0.13423985 -0.12932634
0000e0 72 ee e7 3d b4 56 1f be 3a 9a ed 3c 28 45 47 be
       0.11324777 -0.15560418 0.029004205 -0.19459975
0000f0 b6 bc 7b be fd 04 4b be a0 21 88 be 93 23 e3 bc
       -0.24583706 -0.19826122 -0.26588154 -0.027726924
000100 95 92 00 be 72 8e 0b be 4e 94 4c 3e 4c 8b a0 bc
       -0.12555917 -0.13628557 0.19978449 -0.019597672
000110 6e 3c e9 bd 55 97 03 bf 23 df 4e 3e 0d 13 2c bd
       -0.11388479 -0.5140279 0.20202307 -0.042010356
000120 37 34 e7 bd b9 cc 4d be 34 b9 be bd d8 c8 5b 3c
       -0.11289256 -0.20097627 -0.093126684 0.013414584
000130 e4 11 97 3e 0b 3f 84 3c c5 b4 45 3e 33 91 02 bd
       0.29505837 0.016143342 0.1930724 -0.031876754
000140 d8 33 81 be aa 98 8a 3e 20 c6 9f bd 02 24 30 be
       -0.25234866 0.27069598 -0.07801461 -0.17201236
000150 0e 3d 0b bf f3 10 6c 3c cc 07 93 bb b4 79 5c 3d
       -0.5439004 0.014408338 -0.0044870134 0.053827003
000160 5d 07 83 be 69 45 64 bd e9 21 33 be 4e a5 ce 3c
       -0.25591555 -0.055730257 -0.17493404 0.025225308
000170 2b 0c 5f bd c3 f7 78 be 65 d2 b8 bd 01 38 fd 3c
       -0.054454964 -0.24313264 -0.090245046 0.030910494
000180 5f f7 88 3e 2d ee 4c be f3 74 a3 3d fd 3a 45 be
       0.2675123 -0.20012732 0.07981291 -0.19260783
000190 d8 1b b5 bd 77 5f ee 3c b3 84 be bd de 0a 06 bf
       -0.088432014 0.029098256 -0.09302654 -0.5236033
0001a0 1d f8 2d bd 9e cd be 3d 74 9d 4a 3d e6 9c 05 be
       -0.042472947 0.09316562 0.049466565 -0.13048133
0001b0 66 19 8e bc 4c b0 c0 be 90 f6 71 be 7a 0e b7 bd
       -0.017346095 -0.37634504 -0.23629212 -0.08938308
0001c0 5d 49 83 3b 90 7f 34 bd 25 3e 58 3e 7b 8e 2b be
       0.0040065483 -0.044066966 0.21117456 -0.1675357
0001d0 50 33 ae be 76 e5 19 3e 66 dd 03 3b fa df 8c 3e
       -0.34023523 0.15028939 0.0020120977 0.2751463
0001e0 7e a3 82 be a1 b5 87 be 8a a1 fa 3d a7 3b 65 3d
       -0.2551536 -0.2650576 0.122378424 0.055965092
0001f0 49 d8 ba bd a3 5a b6 bc 8e e6 1e be 11 c3 0f 3d
       -0.09123284 -0.022260016 -0.15517637 0.03509814
000200 db 32 92 bd 88 a9 de bc f2 b0 aa bd 74 fe 4f 3d
       -0.07138606 -0.027180448 -0.08334531 0.050779775
000210 1e b4 4a 3d 24 a5 a6 be 0a 22 8f bc 57 34 95 bd
       0.04948818 -0.32547867 -0.017472286 -0.07285374
000220 48 5a ec bd 41 bc 2e bd 88 ec c3 3c c5 b0 10 be
       -0.11540657 -0.04266 0.023916498 -0.14129932
000230 a2 bd 36 bd 5b 66 bf 3d 69 50 11 be a7 9b 96 bc
       -0.04461444 0.09345695 -0.1419083 -0.018384768
000240 94 8b 36 be 32 db 2e bb 3c 86 15 3e 31 3c 8a 3e
       -0.17826682 -0.0026680944 0.14601988 0.26999047
000250 a5 92 a6 bc 1d e1 56 3e d4 20 9d 3e 59 ad 93 3e
       -0.020333597 0.20984311 0.30689108 0.2884319
000260 28 cf b8 3d d6 15 13 3e 99 dc 8b bd d5 68 2f bd
       0.09023887 0.14363798 -0.06829185 -0.042824585
000270 12 15 b2 3d 01 b9 88 be 9b 9d 79 be 2b 4f 50 be
       0.08695425 -0.26703647 -0.24376528 -0.203427
000280 f0 db f3 bd 57 cc 1d be 09 e7 17 be 89 fb b8 bd
       -0.11907184 -0.1540998 -0.14834227 -0.090323515
000290 64 42 0c 3e 5f ae 2a be 63 fc 94 bd 97 f7 5c bd
       0.13697201 -0.1666808 -0.072747014 -0.053947058
0002a0 61 b7 c4 3d 8c de d3 bd 1a 04 f8 3c 23 0f 8f 3e
       0.09605289 -0.10345182 0.030275393 0.27941236
0002b0 43 73 fa be cd ad bf be e8 4c 81 3e 8d 63 30 bd
       -0.48916063 -0.37437287 0.25253987 -0.04306369
0002c0 6e a7 37 3c c0 47 05 be d1 f5 ac 3d 97 a7 80 bd
       0.011209352 -0.13015652 0.08445323 -0.06281965
0002d0 5c c2 5e be 1e 8d 69 be bd 32 be bd 18 eb 2d 3e
       -0.2175383 -0.22807738 -0.09287021 0.16984212
0002e0 52 c0 da 3d e8 53 2b 3d bb b1 06 bd e6 4b c0 bd
       0.106812134 0.041828066 -0.03288434 -0.093894765
0002f0 6d e4 4f be bf 06 36 3d 17 79 68 3e d0 5d a9 be
       -0.20301981 0.044440027 0.22702442 -0.33079386
000300 74 8a 29 bd 66 08 0f 3d d8 4a 0a 3e 52 47 30 be
       -0.041391805 0.03492012 0.13505113 -0.17214707
000310 78 45 30 bd fa ff bb be a7 a2 0e bd 88 29 ea 3d
       -0.043035 -0.36718732 -0.034823086 0.11433703
000320 11 6e 3a 3e 4f 48 93 be 53 be 40 be d7 f6 46 3e
       0.1820605 -0.28766105 -0.18822603 0.194301
000330 df e0 4a bc d8 00 d7 be 50 68 63 3e f6 d2 f5 bc
       -0.012382715 -0.4199283 0.22207761 -0.03000782
000340 56 07 18 be b1 e6 8e be 68 4b 89 3e 49 03 2b 3e
       -0.14846548 -0.2791038 0.26815343 0.16700472
000350 96 83 44 be da 7a 84 bd 95 96 35 bc b2 19 e3 3d
       -0.19190821 -0.064687446 -0.011083265 0.11088885
000360 f9 8e d0 3c 5b e0 4f bd e3 d0 51 be e2 3f 4c bd
       0.0254588 -0.05075107 -0.2048984 -0.04986561
000370 da 72 85 3d ab d5 2a 3e c8 a0 c5 bb 62 b0 24 3e
       0.06516047 0.1668307 -0.0060311295 0.1608291
000380 db c0 44 3e ea 56 1d bc c2 8a fa bd c7 25 7e 3d
       0.19214194 -0.009603241 -0.12233497 0.062047746
000390 95 dd 74 be 97 25 8b bd 4e 54 07 bf e3 de d0 be
       -0.23912652 -0.06794279 -0.52863014 -0.4079505
0003a0 af f3 6c be b0 4a 12 be 0b 47 5c 3e f0 07 4d 3e
       -0.23139833 -0.14286304 0.21511476 0.20022559
0003b0 86 b7 81 3d 4e 12 cc be 55 76 40 be 4d 6c 11 3d
       0.063338324 -0.39857715 -0.1879514 0.035503674
0003c0 c5 3d 90 bb 0e 7e 2b 3e 57 fe 0e be 93 3c d4 be
       -0.0044018948 0.16747305 -0.1396421 -0.41452464
0003d0 d5 30 7d 3e 10 68 2f 3e fb ca 7d be c0 1a aa bd
       0.24725659 0.1712954 -0.24784462 -0.083058834
0003e0 11 40 65 bd cd 32 66 3d 27 02 8b 3e c9 a6 a4 3d
       -0.0559693 0.05620079 0.2715008 0.08039624
0003f0 dd 16 2b 3d 7d d3 2b 3e 82 5d 24 3e d7 e2 fa 3d
       0.04176985 0.16779895 0.16051295 0.122502975

dire/MatMul_bias f4 [7]
000000 26 dc d6 3e dd 9b f5 3e cf 63 68 be 27 f6 02 bf
       0.41964835 0.47970477 -0.22694324 -0.5115685
000010 10 00 f9 be be 37 f7 be 49 0c 9c 3e
       -0.4863286 -0.48284715 0.30478123
