columbus/src/main/assets/columbus/12/tap7cls_coral.tflite (tflite, 11880 bytes, 12 tensors)

conv1/Conv2D_bias f4 [32]
0.16052482 -0.003479477 0.03857398 -0.00468291 0.07420713 -0.0015841799 -0.0005182416 0.12624109
7.131633e-05 -0.0030526642 0.042225778 0.02813465 -0.0024045678 0.03290887 0.032268062 -0.0005953996
0.0027220063 0.051645268 0.0023684765 0.057758167 0.083022796 0.052543655 -6.320444e-05 0.022398606
0.0019058664 0.060295817 0.0402063 0.048234202 0.026127284 -0.001753007 0.019150632 0.032424208
00000000: 9e60 243e f007 64bb c0ff 1d3d 1973 99bb
00000010: e8f9 973d 42a4 cfba 9bda 07ba 5845 013e
00000020: aa8f 9538 350f 48bb f0f4 2c3d a37a e63c
00000030: f495 1dbb 74cb 063d 842b 043d 9714 1cba
00000040: b063 323b fd89 533d 7138 1b3b d493 6c3d
00000050: db07 aa3d 0438 573d a08c 84b8 487d b73c
00000060: 44ce f93a bff8 763d 5caf 243d 3a91 453d
00000070: e308 d63c 27c5 e5ba c9e1 9c3c 3fcf 043d

conv1/kernel f4 [32, 3, 1, 1]
3.6328928 0.92708904 0.38605 -2.669829 2.774848 -0.088742904 2.7764323 -2.5883236
-0.46370593 -0.13268219 -2.3224661 2.0062313 -3.1115618 -2.1916032 -1.0128101 3.9378867
-0.95347714 0.0076963217 0.1636136 -3.2935808 -1.8059028 1.2494384 1.4175147 0.9956431
-1.9835196 1.2658255 4.043423 -0.019110521 -0.0031856762 -2.8233938 -5.7132626 -0.36411315
-0.1792087 2.976857 -1.4174031 -0.70203745 1.668282 -2.9681911 1.6485188 4.8504047
-0.45886722 1.6668555 1.9757838 -2.1763616 -5.939871 -1.7312132 -2.3420124 -2.3586397
-3.1255493 -2.6533072 0.1547678 -1.0271993 -3.1231773 -2.811637 4.325091 -1.2827607
3.8171918 -1.2679932 -1.9549335 -2.9294963 -3.5492616 -0.7129502 -0.2346053 0.023183895
0.035183284 -3.5850217 0.35462093 -2.2817214 2.4588094 2.090596 2.2252853 -3.2671375
2.1947577 2.8130372 2.8004405 -0.5627977 4.5838146 3.9668796 -0.123354554 0.25196102
0.24069583 1.113521 1.775738 2.975241 4.4553103 4.453982 0.661766 -1.4880201
3.3413174 -2.355046 -4.0841956 -3.581443 -2.330525 5.2598953 1.4052997 -1.1750292
00000000: 5181 6840 b555 6d3f 58a8 c53e 7ade 2ac0
00000010: 1c97 3140 d7be b5bd 11b1 3140 18a7 25c0
00000020: dd6a edbe d7dd 07be 49a3 14c0 1866 0040
00000030: d423 47c0 3a43 0cc0 c3a3 81bf 5606 7c40
00000040: 1417 74bf 6d31 fc3b 538a 273e 07ca 52c0
00000050: d327 e7bf 99ed 9f3f 1f71 b53f 77e2 7e3f
00000060: f8e3 fdbf 9206 a23f b963 8140 ab8d 9cbc
00000070: c7c6 50bb 7cb2 34c0 0cd3 b6c0 0a6d babe
00000080: 7c82 37be d384 3e40 776d b5bf bab8 33bf
00000090: 448a d53f d8f6 3dc0 aa02 d33f 8436 9b40
000000a0: a5f0 eabe 855b d53f 7ce6 fc3f 8249 0bc0
000000b0: 6c13 bec0 6598 ddbf 88e3 15c0 f4f3 16c0
000000c0: 0009 48c0 c9cf 29c0 737b 1e3e 447b 83bf
000000d0: 23e2 47c0 dcf1 33c0 2567 8a40 8131 a4bf
000000e0: df4c 7440 9a4d a2bf 433b fabf de7c 3bc0
000000f0: 1a27 63c0 e883 36bf 5f3c 70be 27ec bd3c
00000100: 591c 103d ff70 65c0 e090 b53e b907 12c0
00000110: 225d 1d40 53cc 0540 136b 0e40 c818 51c0
00000120: e976 0c40 cd08 3440 6b3a 3340 8313 10bf
00000130: 9cae 9240 5be1 7d40 50a1 fcbd 0901 813e
00000140: f878 763e db87 8e3f 624b e33f 596a 3e40
00000150: e791 8e40 0587 8e40 7f69 293f 7177 bebf
00000160: 25d8 5540 13b9 16c0 bbb1 82c0 5d36 65c0
00000170: 5227 15c0 1051 a840 dce0 b33f 5b67 96bf

conv2/Conv2D_bias f4 [32]
0.07338325 -0.08078847 -0.0067667896 0.22654039 0.22280975 -0.03958545 -0.21507382 0.03188797
0.0146914525 -0.008747374 0.0775322 0.051839333 0.32464284 0.20220216 0.24644022 -0.047843955
0.1445823 -0.049567927 0.013145676 0.0745434 -0.004639912 0.08964335 0.06760457 0.13787529
-0.011320948 0.02265923 -0.11072371 -0.037660506 -0.04044939 0.016509932 -0.08205887 -0.015114825
00000000: f549 963d 6d74 a5bd f2bb ddbb 34fa 673e
00000010: 3d28 643e 5a24 22bd 503c 5cbe f69c 023d
00000020: 6bb4 703c 2551 0fbc 34c9 9e3d 7b55 543d
00000030: 9637 a63e 150e 4f3e d35a 7c3e 06f8 43bd
00000040: 620d 143e bd07 4bbd f660 573c 36aa 983d
00000050: 670a 98bb ef96 b73d 4474 8a3d 2e2f 0d3e
00000060: 7f7b 39bc d99f b93c 1dc3 e2bd e741 1abd
00000070: 42ae 25bd d63f 873c 7b0e a8bd 2ca4 77bc

conv2/kernel i1 [32, 3, 1, 32] scale=0.045854636 zero_point=0
0.45854634 0.09170927 -0.68781954 -1.6507668 -0.4126917 0.45854634 -1.0546566 0.27512783
0.6419649 -1.6507668 -0.13756391 -0.4126917 -0.32098246 0.87123805 -0.9170927 -2.2010226
-0.4126917 -0.87123805 0.68781954 -0.9170927 -0.09170927 -0.5961103 0.27512783 -0.50440097
1.4673483 0.45854634 0.045854636 0.4126917 0.6419649 0.50440097 -0.73367417 0.13756391
0.4126917 -0.8253834 -0.50440097 -0.09170927 -1.1005113 0.32098246 0.96294737 0.32098246
0.045854636 0.9170927 -0.8253834 -0.27512783 -0.22927317 0.27512783 0.045854636 -0.22927317
-1.6049123 -0.18341854 -0.09170927 -0.22927317 -0.7795288 -0.13756391 0.13756391 -0.22927317
2.4302957 0.68781954 0.0 0.22927317 1.4214936 0.18341854 -0.50440097 0.13756391
-0.045854636 0.22927317 0.45854634 0.27512783 -0.13756391 0.32098246 -0.09170927 0.045854636
0.0 -0.9170927 0.045854636 0.5961103 0.22927317 -0.13756391 0.18341854 -0.13756391
-0.13756391 -0.13756391 -0.13756391 0.18341854 -0.36683708 -0.09170927 -0.13756391 0.45854634
0.32098246 0.09170927 -0.045854636 -0.13756391 -0.045854636 0.22927317 0.09170927 0.32098246
-0.22927317 -0.27512783 0.50440097 -0.18341854 0.09170927 -1.9717493 -1.2380751 -0.22927317
-0.13756391 -0.36683708 0.09170927 0.18341854 0.045854636 -0.045854636 -0.09170927 0.22927317
-1.3756391 -0.13756391 1.1922206 -0.13756391 0.18341854 -0.09170927 0.5961103 0.50440097
0.09170927 0.18341854 -0.045854636 0.09170927 -0.55025566 0.0 -0.5961103 -0.27512783
0.045854636 0.5961103 0.27512783 1.0088019 -0.36683708 -0.18341854 -0.5961103 -0.045854636
0.4126917 -0.22927317 0.0 0.50440097 0.96294737 -0.18341854 0.32098246 -0.18341854
-1.3756391 0.22927317 -0.13756391 0.4126917 -0.18341854 0.45854634 0.96294737 0.09170927
0.4126917 0.18341854 0.13756391 0.50440097 0.32098246 0.8253834 -0.4126917 0.32098246
-0.045854636 1.0546566 0.22927317 0.8253834 0.045854636 0.27512783 0.36683708 0.18341854
0.27512783 0.13756391 0.13756391 -0.09170927 0.9170927 -0.18341854 0.45854634 -0.55025566
0.045854636 -0.09170927 -0.045854636 0.0 0.0 0.50440097 0.50440097 0.13756391
0.5961103 -0.045854636 0.0 0.18341854 0.4126917 0.18341854 -0.045854636 0.45854634
-0.045854636 0.68781954 -0.045854636 0.45854634 0.045854636 0.18341854 0.13756391 0.045854636
-0.045854636 0.22927317 0.0 0.0 -0.32098246 -0.27512783 0.18341854 1.0088019
0.73367417 0.32098246 0.045854636 0.13756391 -0.13756391 -0.32098246 -0.27512783 0.13756391
-0.22927317 -0.09170927 0.0 -0.09170927 -0.18341854 0.045854636 0.8253834 0.09170927
-0.22927317 0.36683708 -0.09170927 0.96294737 0.13756391 -0.045854636 0.13756391 -0.32098246
-0.27512783 0.5961103 0.36683708 -0.36683708 -0.36683708 -0.13756391 0.13756391 1.7883308
1.3297844 0.32098246 0.32098246 0.32098246 0.0 -0.045854636 0.18341854 -0.045854636
-0.5961103 0.13756391 0.0 -0.32098246 -0.09170927 -0.36683708 0.4126917 -0.22927317
00000000: 0a02 f1dc f70a e906 0edc fdf7 f913 ecd0
00000010: f7ed 0fec fef3 06f5 200a 0109 0e0b f003
00000020: 09ee f5fe e807 1507 0114 eefa fb06 01fb
00000030: ddfc fefb effd 03fb 350f 0005 1f04 f503
00000040: ff05 0a06 fd07 fe01 00ec 010d 05fd 04fd
00000050: fdfd fd04 f8fe fd0a 0702 fffd ff05 0207
00000060: fbfa 0bfc 02d5 e5fb fdf8 0204 01ff fe05
00000070: e2fd 1afd 04fe 0d0b 0204 ff02 f400 f3fa
00000080: 010d 0616 f8fc f3ff 09fb 000b 15fc 07fc
00000090: e205 fd09 fc0a 1502 0904 030b 0712 f707
000000a0: ff17 0512 0106 0804 0603 03fe 14fc 0af4
000000b0: 01fe ff00 000b 0b03 0dff 0004 0904 ff0a
000000c0: ff0f ff0a 0104 0301 ff05 0000 f9fa 0416
000000d0: 1007 0103 fdf9 fa03 fbfe 00fe fc01 1202
000000e0: fb08 fe15 03ff 03f9 fa0d 08f8 f8fd 0327
000000f0: 1d07 0707 00ff 04ff f303 00f9 fef8 09fb

conv3/Conv2D_bias f4 [16]
-0.067505166 0.08320794 0.075030036 -0.13937807 0.114458725 0.04002484 0.3822214 -0.07517601
0.0044237077 -0.008075398 0.1324679 0.16600166 0.027694762 0.09413487 0.075537056 -0.0354209
00000000: 2640 8abd ed68 aa3d 59a9 993d 20b9 0ebe
00000010: 5669 ea3d 16f1 233d 86b2 c33e e1f5 99bd
00000020: c0f4 903b ad4e 04bc aaa5 073e 57fc 293e
00000030: 20e0 e23c c8c9 c03d 2cb3 9a3d 8115 11bd

conv3/kernel i1 [16, 3, 1, 32] scale=0.053661425 zero_point=0
-0.7512599 -0.37562996 -0.32196856 -0.4292914 0.37562996 -0.10732285 -0.053661425 0.4292914
-0.8585828 0.32196856 -0.48295283 -0.48295283 0.37562996 -0.10732285 0.16098428 0.59027565
-0.2146457 0.9122442 0.6439371 0.7512599 -0.2146457 0.4292914 0.10732285 0.59027565
0.37562996 -0.26830712 0.37562996 -0.2146457 0.16098428 0.0 0.53661424 -0.16098428
-0.48295283 -0.32196856 -0.53661424 -0.26830712 0.26830712 -0.37562996 -0.053661425 1.5025198
0.10732285 -0.16098428 0.053661425 0.053661425 0.053661425 -0.26830712 -0.053661425 1.4488585
-0.4292914 -0.2146457 0.2146457 1.2878742 0.37562996 0.4292914 -0.26830712 0.8585828
0.32196856 0.32196856 1.1805513 0.32196856 0.16098428 0.053661425 1.1805513 0.2146457
0.48295283 -0.59027565 -0.48295283 0.10732285 0.053661425 0.0 -0.053661425 0.10732285
0.053661425 0.0 -0.16098428 -1.2342128 -0.2146457 -0.10732285 0.26830712 0.4292914
-0.10732285 -0.2146457 -0.10732285 0.16098428 -0.2146457 0.16098428 0.16098428 0.53661424
0.32196856 -0.10732285 0.4292914 0.37562996 0.16098428 0.16098428 0.59027565 -0.37562996
-1.6098428 -0.10732285 1.2878742 0.48295283 -0.053661425 0.37562996 1.019567 -0.2146457
-0.16098428 -0.32196856 -0.16098428 0.053661425 0.16098428 -0.10732285 -0.053661425 -0.48295283
-0.10732285 0.7512599 0.32196856 0.37562996 0.16098428 0.32196856 0.10732285 -0.37562996
0.2146457 0.053661425 0.32196856 -5.527127 -1.5025198 -0.8049214 -0.53661424 0.32196856
-3.273347 -0.26830712 0.32196856 0.32196856 0.0 -1.6635041 -0.32196856 -0.53661424
-0.6439371 -0.10732285 0.16098428 0.59027565 -0.10732285 0.26830712 0.26830712 -0.53661424
0.053661425 0.10732285 0.16098428 -0.4292914 -0.6975985 0.37562996 0.10732285 -0.4292914
-0.053661425 -0.10732285 0.32196856 -6.815001 -0.8049214 -0.8049214 -0.10732285 0.48295283
-2.8440554 0.26830712 0.59027565 0.37562996 0.2146457 -2.5220869 0.53661424 0.16098428
-0.8049214 -0.053661425 0.32196856 -0.053661425 -0.10732285 0.0 0.16098428 -0.6975985
0.2146457 0.10732285 0.053661425 -1.7171656 -1.2342128 0.48295283 -0.2146457 -0.59027565
-0.26830712 0.37562996 -0.32196856 -5.688111 0.32196856 -0.37562996 -1.2878742 -0.6975985
0.48295283 0.16098428 0.16098428 0.053661425 0.0 -0.59027565 -0.16098428 0.53661424
-0.32196856 0.053661425 0.32196856 2.5757484 -0.053661425 -0.32196856 -0.053661425 -0.32196856
-0.16098428 -0.2146457 0.2146457 0.6439371 -0.16098428 0.26830712 0.0 -0.2146457
0.10732285 0.53661424 0.26830712 -0.32196856 0.0 0.37562996 -0.16098428 -0.2146457
0.10732285 0.37562996 0.2146457 -0.10732285 -0.4292914 0.48295283 -0.10732285 0.32196856
0.8585828 -0.16098428 0.37562996 1.5561813 -0.10732285 0.16098428 0.16098428 0.2146457
0.16098428 0.2146457 -0.37562996 -0.6975985 0.4292914 -0.48295283 0.0 0.10732285
-0.26830712 0.10732285 0.053661425 0.32196856 0.0 0.26830712 -0.10732285 0.6975985
00000000: f2f9 faf8 07fe ff08 f006 f7f7 07fe 030b
00000010: fc11 0c0e fc08 020b 07fb 07fc 0300 0afd
00000020: f7fa f6fb 05f9 ff1c 02fd 0101 01fb ff1b
00000030: f8fc 0418 0708 fb10 0606 1606 0301 1604
00000040: 09f5 f702 0100 ff02 0100 fde9 fcfe 0508
00000050: fefc fe03 fc03 030a 06fe 0807 0303 0bf9
00000060: e2fe 1809 ff07 13fc fdfa fd01 03fe fff7
00000070: fe0e 0607 0306 02f9 0401 0699 e4f1 f606
00000080: c3fb 0606 00e1 faf6 f4fe 030b fe05 05f6
00000090: 0102 03f8 f307 02f8 fffe 0681 f1f1 fe09
000000a0: cb05 0b07 04d1 0a03 f1ff 06ff fe00 03f3
000000b0: 0402 01e0 e909 fcf5 fb07 fa96 06f9 e8f3
000000c0: 0903 0301 00f5 fd0a fa01 0630 fffa fffa
000000d0: fdfc 040c fd05 00fc 020a 05fa 0007 fdfc
000000e0: 0207 04fe f809 fe06 10fd 071d fe03 0304
000000f0: 0304 f9f3 08f7 0002 fb02 0106 0005 fe0d

conv4/Conv2D_bias f4 [24]
0.49855444 0.24424209 0.23192215 -0.10691667 0.22084075 0.11459314 0.04977993 -0.19103514
0.27313963 0.24874856 0.22098376 0.2791892 0.1702961 -0.012386085 -0.36773247 0.40093675
0.26438338 -0.105370395 -0.055735074 -0.16868877 -0.22089301 0.2838732 0.21610104 -0.18001732
00000000: 8742 ff3e 991a 7a3e 007d 6d3e 21f7 dabd
00000010: 1424 623e cfaf ea3d 0ae6 4b3d b79e 43be
00000020: f5d8 8b3e f1b7 7e3e 9149 623e e3f1 8e3e
00000030: 1a62 2e3e 02ef 4abc 6e47 bcbe 9547 cd3e
00000040: 425d 873e 6fcc d7bd 764a 64bd c0bc 2cbe
00000050: c731 62be d457 913e 9749 5d3e 7656 38be

conv4/kernel i1 [24, 3, 1, 16] scale=0.01811154 zero_point=0
-0.3622308 -1.1772501 0.47090003 -0.0905577 -0.01811154 -0.14489232 -0.43467695 -0.74257314
0.10866924 -0.16300386 -0.07244616 0.23545001 0.2716731 0.65201545 0.3622308 0.25356156
-0.47090003 -0.30789617 0.3622308 0.10866924 0.32600772 0.1811154 0.2716731 0.23545001
0.1811154 0.03622308 0.23545001 0.7244616 0.25356156 -0.5433462 0.23545001 0.5795693
-0.28978464 -2.3001657 0.5433462 -0.14489232 -1.340254 -0.1811154 0.85124236 -0.0905577
-0.2716731 0.3984539 0.56145775 0.4890116 1.6662617 1.376477 -0.30789617 -0.23545001
0.38034233 -1.1229155 0.0905577 -0.0905577 0.5795693 -0.74257314 0.4890116 0.14489232
0.14489232 1.0685809 -0.21733847 0.30789617 -0.21733847 -0.74257314 0.0905577 0.0905577
0.25356156 -0.03622308 -0.65201545 0.16300386 -0.23545001 -0.21733847 0.32600772 0.47090003
0.5433462 -0.07244616 0.23545001 0.3622308 0.5795693 0.19922695 -0.56145775 -0.12678078
0.41656542 0.94180006 -0.01811154 -0.01811154 0.03622308 0.34411925 -0.16300386 -0.56145775
-0.19922695 0.0 -0.670127 0.03622308 0.28978464 0.23545001 0.28978464 0.14489232
0.10866924 1.5213693 0.14489232 0.01811154 -0.19922695 0.30789617 0.07244616 -0.1811154
-0.41656542 -0.52523464 0.28978464 -0.38034233 -0.03622308 0.30789617 -0.21733847 0.19922695
0.19922695 -0.21733847 0.07244616 0.25356156 0.3622308 -0.05433462 -0.38034233 -0.6339039
-0.14489232 -0.07244616 -0.34411925 -0.07244616 -0.05433462 -0.14489232 0.4890116 0.0905577
0.19922695 1.4127002 0.1811154 -0.5795693 -0.23545001 0.47090003 -0.10866924 -0.07244616
-0.12678078 0.05433462 0.12678078 0.7063501 -0.2716731 0.1811154 0.6882385 0.38034233
-0.34411925 0.56145775 0.12678078 0.10866924 0.12678078 -0.1811154 0.34411925 0.34411925
0.16300386 0.19922695 -0.10866924 -0.34411925 -0.19922695 0.2716731 -0.6882385 -0.10866924
0.5433462 -0.7244616 0.07244616 -0.2716731 -0.43467695 0.07244616 0.03622308 -0.0905577
-0.0905577 0.23545001 0.10866924 0.05433462 0.5071231 0.3984539 0.25356156 0.01811154
0.16300386 -0.5976808 0.0905577 0.0 0.07244616 0.1811154 -0.05433462 0.0
-0.3984539 -0.10866924 -0.01811154 0.0905577 -0.670127 -0.43467695 -0.38034233 0.0
0.25356156 -0.0905577 -0.1811154 -0.1811154 0.10866924 -0.32600772 0.32600772 -0.01811154
-0.21733847 0.23545001 -0.41656542 -0.2716731 -1.0685809 0.61579233 0.28978464 0.16300386
0.7063501 0.76068467 -0.34411925 0.5433462 0.0905577 -0.23545001 0.3984539 -0.03622308
-0.10866924 -0.03622308 -0.14489232 0.03622308 -1.0504693 -0.32600772 0.32600772 -0.05433462
0.21733847 2.173385 0.41656542 0.56145775 -0.28978464 0.23545001 0.41656542 0.07244616
-0.47090003 0.16300386 -0.21733847 0.12678078 0.3622308 0.23545001 0.12678078 0.0905577
-0.28978464 0.19922695 -0.4527885 -0.3622308 0.10866924 0.6339039 0.4890116 -0.05433462
0.16300386 0.07244616 0.34411925 -0.03622308 -0.9780232 0.12678078 0.25356156 0.16300386
00000000: ecbf 1afb fff8 e8d7 06f7 fc0d 0f24 140e
00000010: e6ef 1406 120a 0f0d 0a02 0d28 0ee2 0d20
00000020: f081 1ef8 b6f6 2ffb f116 1f1b 5c4c eff3
00000030: 15c2 05fb 20d7 1b08 083b f411 f4d7 0505
00000040: 0efe dc09 f3f4 121a 1efc 0d14 200b e1f9
00000050: 1734 ffff 0213 f7e1 f500 db02 100d 1008
00000060: 0654 0801 f511 04f6 e9e3 10eb fe11 f40b
00000070: 0bf4 040e 14fd ebdd f8fc edfc fdf8 1b05
00000080: 0b4e 0ae0 f31a fafc f903 0727 f10a 2615
00000090: ed1f 0706 07f6 1313 090b faed f50f dafa
000000a0: 1ed8 04f1 e804 02fb fb0d 0603 1c16 0e01
000000b0: 09df 0500 040a fd00 eafa ff05 dbe8 eb00
000000c0: 0efb f6f6 06ee 12ff f40d e9f1 c522 1009
000000d0: 272a ed1e 05f3 16fe fafe f802 c6ee 12fd
000000e0: 0c78 171f f00d 1704 e609 f407 140d 0705
000000f0: f00b e7ec 0623 1bfd 0904 13fe ca07 0e09

conv5/Conv2D_bias f4 [16]
0.7960281 -0.12044214 0.0008157721 0.4582553 -0.016054176 0.09399467 0.24062285 -0.10525829
-0.009371193 0.25065675 -0.11735889 -0.076332815 0.25365967 0.10798966 0.19814834 0.16486889
00000000: 7fc8 4b3f 5eaa f6bd 8ad9 553a 70a0 ea3e
00000010: 0c84 83bc 4780 c03d d665 763e a991 d7bd
00000020: a289 19bc 1556 803e dc59 f0bd 6154 9cbd
00000030: aedf 813e af29 dd3d 66e7 4a3e 64d3 283e

conv5/kernel f4 [16, 1, 1, 24]
-1.0810925 0.8140004 -0.057835743 1.9037257 0.3855201 -0.2708104 -0.5276908 0.24737406
0.16432284 -1.8783699 -0.4659806 -0.47551376 -0.9890731 0.5937708 0.99006647 -0.26397952
-1.2713202 0.02476692 0.41879544 -2.478164 0.1337079 0.85641724 0.0266884 0.11839122
0.103065506 -0.186763 0.2710241 -1.4193183 0.068724416 -0.5914619 0.3074751 0.6070269
-0.43988955 -1.3995885 0.047229104 0.03768912 0.6486799 0.31177813 2.103641 0.050909452
-2.269844 -1.5406898 0.68922603 0.2662349 0.21745293 -0.33513212 0.7765116 0.6265277
-0.3333908 -0.37552497 0.22508189 -0.054623287 -0.19355546 -0.36362135 -0.05245228 -0.035839718
-0.2571657 -0.08543604 -0.021243323 0.18558145 -0.21388501 -0.31197062 0.17523234 -0.3910473
-0.32773462 0.06208993 -0.32260182 0.114744425 0.13333333 0.31103796 0.05977722 0.06794729
0.99292094 0.0402464 0.4681193 0.92295057 0.050486404 0.02340838 -0.4703756 -0.3040856
-0.022610435 0.6619868 0.12670921 0.50198394 0.91004235 0.02815586 0.33085844 0.015535339
0.22024317 -1.3000315 -1.1833024 2.3853517 -0.22677973 0.47149938 0.28672916 -0.6495025
0.059356146 -0.40471014 0.37191108 0.22531891 -0.25099027 -0.31545117 -0.23918092 -0.04117716
0.15426914 -0.23828675 -0.17498969 0.20659772 -0.13789973 0.46778482 0.23949718 -0.43103388
0.54179054 0.1665654 -0.27196366 0.7217724 0.4044249 0.97881705 0.5273612 -0.33192074
-0.5084459 0.77209246 -0.6796926 -1.7388517 0.59391594 -0.35872602 0.473002 -0.68799335
0.36808452 1.259861 0.6682386 0.42741385 0.23626457 0.1742784 0.32821655 1.2225225
-1.2035562 -0.5389048 -0.24774152 -1.6644443 -0.96050596 0.49237537 -1.1600964 0.7928047
-0.31827924 0.14030676 0.18721901 0.59504724 0.96357876 -0.9277937 -0.11012167 -0.15772676
0.39547473 0.5127146 0.36697197 0.23071076 -0.62352693 0.59644955 0.07805241 0.1125714
-0.6909693 0.072946586 -1.379006 0.13532767 0.4572934 -0.45772746 -0.72284085 0.17238733
-0.35360882 -0.1823403 0.0683958 -2.3177009 0.35637236 0.64997554 -0.018885635 0.25516623
-0.18127435 0.55109626 -1.6888713 -2.8371701 0.14722978 0.23651765 0.6751662 -0.059999205
-0.32338127 1.5509292 1.8265247 -0.29640874 -0.80961305 0.3687361 -0.19677989 0.6457613
0.05086842 -0.63150537 0.7994598 -1.1184775 -0.11252235 0.26609468 0.43498316 -0.0055576162
0.44959697 -1.740502 0.20424607 -1.2302337 -0.7510304 0.70752037 1.0261828 0.26983926
0.09759527 0.56391966 -0.016746506 2.1345894 0.20327267 0.6135018 0.73580825 -0.3898057
0.06402117 0.8994903 1.0443478 3.085454 0.15514962 0.36671653 -0.1677975 -0.47385865
-0.47273287 1.5696577 0.30123442 0.077182196 -1.4005691 0.082337245 -1.930901 0.87115014
0.4090566 1.4024589 -1.5927368 0.19848324 0.2903443 -0.040244587 -0.37020594 -0.45260647
-0.064134575 0.15239431 -0.0647307 -0.096748516 0.13271515 0.07029589 -0.29486948 0.07677075
-0.007023214 0.008317411 -0.23776312 -0.33029404 -0.2614483 0.3504131 2.9164393 -0.14784642
00000000: 3d61 8abf 5562 503f 2ce5 6cbd 49ad f33f
00000010: e462 c53e a9a7 8abe bf16 07bf a04f 7d3e
00000020: 3f44 283e 6d6e f0bf 0295 eebe 8a76 f3be
00000030: e533 7dbf 5d01 183f ff74 7d3f 5328 87be
00000040: 9fba a2bf ffe3 ca3c 5b6c d63e 3d9a 1ec0
00000050: b9ea 083e 293e 5b3f a2a1 da3c 1977 f23d
00000060: 0214 d33d cd3e 3fbe acc3 8a3e 39ac b5bf
00000070: 63bf 8c3d 0c6a 17bf 606d 9d3e 1d66 1b3f
00000080: 3439 e1be b725 b3bf 4e73 413d e85f 1a3d
00000090: e30f 263f 62a1 9f3e 0ea2 0640 6e86 503d
000000a0: 2045 11c0 5335 c5bf 1e71 303f f14f 883e
000000b0: fbab 5e3e 7096 abbe 77c9 463f 1f64 203f
000000c0: 33b2 aabe cf44 c0be de7b 663e abbc 5fbd
000000d0: 6733 46be 942c babe 34d8 56bd abcc 12bd
000000e0: 39ab 83be 17f9 aebd 7a06 aebc 1009 3e3e
000000f0: ac04 5bbe 9dba 9fbe 1b70 333e 5a37 c8be
00000100: d5cc a7be 0352 7e3d 112c a5be 20ff ea3d
00000110: 8888 083e 5e40 9f3e f5d8 743d f327 8b3d
00000120: 1130 7e3f 69d9 243d 55ad ef3e 7d46 6c3f
00000130: d5ca 4e3d eec2 bf3c 12d5 f0be 1cb1 9bbe
00000140: 8539 b9bc f877 293f 0fc0 013e 0582 003f
00000150: 89f8 683f 1ea7 e63c 4766 a93e ef87 7e3c
00000160: 6d87 613e 6f67 a6bf 7476 97bf 9aa9 1840
00000170: f238 68be 5e68 f13e 2ace 923e cc45 26bf
00000180: 6e1f 733d 2b36 cfbe 216b be3e 00ba 663e
00000190: cc81 80be d182 a1be d8eb 74be 62a9 28bd
000001a0: bbf8 1d3e 7101 74be 7f30 33be 5a8e 533e
000001b0: 9635 0dbe 7e81 ef3e c03e 753e 79b0 dcbe
000001c0: c9b2 0a3f 1f90 2a3e d23e 8bbe 13c6 383f
000001d0: c810 cf3e c193 7a3f 2501 073f 84f1 a9be
000001e0: 8329 02bf daa7 453f 5600 2ebf b192 debf
000001f0: e00a 183f f0aa b7be 512d f23e 5520 30bf
00000200: 9375 bc3e 2043 a13f af11 2b3f fdd5 da3e
00000210: 57ef 713e 0976 323e 000c a83e 9e7b 9c3f
00000220: 210e 9abf aaf5 09bf f4af 7dbe 830c d5bf
00000230: b8e3 75bf a018 fc3e 0a7e 94bf 40f5 4a3f
00000240: 7ff5 a2be 93ac 0f3e 57b6 3f3e 0455 183f
00000250: 19ad 763f e383 6dbf 7887 e1bd 2083 21be
00000260: aa7b ca3e 4441 033f c0e3 bb3e 713f 6c3e
00000270: 769f 1fbf ebb0 183f f1d9 9f3d d68b e63d
00000280: 5de3 30bf 0565 953d 4583 b0bf 5693 0a3e
00000290: 5c22 ea3e 415b eabe 190c 39bf 4e86 303e
000002a0: 370c b5be 6ab7 3abe 1913 8c3d 3655 14c0
000002b0: 7076 b63e cc64 263f 0cb6 9abc 26a5 823e
000002c0: fc9f 39be a514 0d3f ef2c d8bf 3294 35c0
000002d0: 67c3 163e af31 723e b1d7 2c3f bac1 75bd
000002e0: 3b92 a5be d984 c63f 90cb e93f e3c2 97be
000002f0: cd42 4fbf faca bc3e ab80 49be 9d50 253f
00000300: 685b 503d 56aa 21bf 66a9 4c3f 452a 8fbf
00000310: 1e72 e6bd 903d 883e 1db6 de3e aa1c b6bb
00000320: 9331 e63e c5c8 debf e225 513e 4c78 9dbf
00000330: 8743 40bf 0e20 353f f559 833f 5f28 8a3e
00000340: 07e0 c73d 0a5d 103f f82f 89bc 1d9d 0840
00000350: b626 503e 740e 1d3f ee5d 3c3f 9d94 c7be
00000360: 881d 833d ff44 663f 30ad 853f 1478 4540
00000370: 8bdf 1e3e 45c2 bb3e 1cd3 2bbe 9a9d f2be
00000380: 0b0a f2be 8bea c83f 663b 9a3e b311 9e3d
00000390: d945 b3bf 6ea0 a83d c427 f7bf b203 5f3f
000003a0: de6f d13e c683 b33f cdde cbbf 313f 4b3e
000003b0: 02a8 943e 82d7 24bd a28b bdbe 09bc e7be
000003c0: fd58 83bd 410d 1c3e 8791 84bd 1624 c6bd
000003d0: 7be6 073e 4bf7 8f3d 22f9 96be fc39 9d3d
000003e0: fd22 e6bb c045 083c 2d78 73be 4d1c a9be
000003f0: 8ddc 85be 5969 b33e f1a6 3a40 0d65 17be

dire/MatMul_bias f4 [7]
0.027377145 0.20268439 0.35952035 0.2969157 0.09200782 -0.10997225 -0.285785
00000000: 0946 e03c 7f8c 4f3e 0d13 b83e 5605 983e
00000010: 996e bc3d 2239 e1bd 6952 92be

dire/kernel/transpose i1 [7, 176] scale=0.089488916 zero_point=0
0.6264224 -0.80540025 0.089488916 0.0 0.0 -0.089488916 1.6108005 -0.35795566
0.26846674 0.35795566 0.26846674 -0.26846674 -0.35795566 0.7159113 0.4474446 -0.17897783
-0.9843781 -1.073867 0.089488916 0.17897783 -0.8948892 0.0 -0.6264224 0.35795566
-0.26846674 -0.17897783 -0.5369335 0.089488916 0.26846674 0.5369335 0.0 -0.089488916
-1.2528448 -0.80540025 0.089488916 -0.4474446 -1.163356 -0.17897783 0.9843781 -0.17897783
0.26846674 0.17897783 0.0 -0.5369335 0.0 -0.17897783 0.7159113 0.17897783
-0.4474446 -0.80540025 0.0 -0.26846674 -0.6264224 0.4474446 2.6846676 0.4474446
-0.5369335 -0.4474446 -0.8948892 -0.089488916 0.089488916 0.26846674 0.0 -0.089488916
0.6264224 -0.5369335 0.17897783 -0.9843781 2.4162006 0.9843781 -0.4474446 -0.8948892
-0.80540025 0.17897783 0.17897783 0.17897783 -0.17897783 0.0 0.5369335 0.7159113
0.8948892 -1.7897784 -0.089488916 -1.073867 0.6264224 -0.35795566 0.26846674 -0.7159113
0.26846674 -1.163356 -0.5369335 -0.35795566 0.6264224 0.5369335 0.5369335 0.6264224
0.5369335 -0.35795566 -0.17897783 0.26846674 0.6264224 -0.26846674 1.073867 0.0
-0.5369335 0.4474446 0.089488916 -0.4474446 0.26846674 0.0 0.089488916 -0.089488916
0.17897783 0.26846674 0.17897783 0.26846674 0.35795566 0.35795566 -0.089488916 0.089488916
-0.26846674 -0.26846674 -0.5369335 0.089488916 0.089488916 0.26846674 0.4474446 -0.4474446
0.0 -0.17897783 0.089488916 -0.089488916 -0.17897783 0.089488916 0.26846674 0.089488916
-0.4474446 0.17897783 -0.26846674 -0.4474446 0.0 0.4474446 0.17897783 -0.089488916
0.0 -0.26846674 -0.17897783 0.089488916 -0.089488916 0.0 0.80540025 0.17897783
-0.089488916 0.17897783 -0.26846674 0.089488916 0.0 0.26846674 -0.17897783 0.35795566
0.4474446 -0.6264224 0.0 -0.26846674 0.4474446 0.26846674 2.0582452 -0.089488916
-0.26846674 0.35795566 0.17897783 0.6264224 0.17897783 0.4474446 0.4474446 -1.5213115
-0.089488916 -0.17897783 0.0 -0.5369335 0.17897783 0.089488916 0.26846674 -0.089488916
0.089488916 0.089488916 -0.7159113 0.0 0.089488916 0.26846674 0.26846674 -0.35795566
-0.35795566 -0.5369335 0.17897783 -0.26846674 -0.26846674 0.26846674 -0.4474446 -0.17897783
-0.089488916 0.17897783 0.089488916 -0.17897783 0.26846674 0.26846674 -0.17897783 -0.5369335
-0.80540025 -0.7159113 -0.089488916 -0.26846674 -1.8792672 -0.17897783 -0.089488916 0.089488916
0.26846674 0.089488916 -0.089488916 0.089488916 -0.089488916 0.26846674 -0.4474446 0.4474446
-0.26846674 0.0 0.0 -0.089488916 -0.4474446 0.0 -2.4162006 -0.26846674
0.17897783 -0.26846674 -0.35795566 0.0 0.26846674 0.17897783 0.17897783 0.17897783
-0.089488916 0.26846674 0.17897783 0.7159113 -0.35795566 -0.80540025 0.80540025 -0.26846674
0.5369335 0.4474446 -0.17897783 -0.089488916 0.17897783 0.17897783 -0.6264224 -0.089488916
00000000: 07f7 0100 00ff 12fc 0304 03fd fc08 05fe
00000010: f5f4 0102 f600 f904 fdfe fa01 0306 00ff
00000020: f2f7 01fb f3fe 0bfe 0302 00fa 00fe 0802
00000030: fbf7 00fd f905 1e05 fafb f6ff 0103 00ff
00000040: 07fa 02f5 1b0b fbf6 f702 0202 fe00 0608
00000050: 0aec fff4 07fc 03f8 03f3 fafc 0706 0607
00000060: 06fc fe03 07fd 0c00 fa05 01fb 0300 01ff
00000070: 0203 0203 0404 ff01 fdfd fa01 0103 05fb
00000080: 00fe 01ff fe01 0301 fb02 fdfb 0005 02ff
00000090: 00fd fe01 ff00 0902 ff02 fd01 0003 fe04
000000a0: 05f9 00fd 0503 17ff fd04 0207 0205 05ef
000000b0: fffe 00fa 0201 03ff 0101 f800 0103 03fc
000000c0: fcfa 02fd fd03 fbfe ff02 01fe 0303 fefa
000000d0: f7f8 fffd ebfe ff01 0301 ff01 ff03 fb05
000000e0: fd00 00ff fb00 e5fd 02fd fc00 0302 0202
000000f0: ff03 0208 fcf7 09fd 0605 feff 0202 f9ff
