columbus/src/main/assets/columbus/12/tap7cls_flame.tflite (tflite, 11880 bytes, 12 tensors)

conv1/Conv2D_bias f4 [32]
0.014590948 -0.001179592 0.0010289155 -0.0030959172 0.0068643033 0.0024116333 0.0025738443 0.0015197613
-3.3911907e-05 -0.004062154 0.10227385 0.037903704 -0.0151167335 0.11471043 0.0066091814 -0.022782322
-0.0008468966 0.0018477385 0.048591614 0.08561001 -0.0033093193 0.08635183 0.062165014 0.037834115
0.10434694 -3.0676398e-05 0.032860566 0.031186689 0.019613246 0.028502146 0.0019006301 0.10092877
00000000: df0e 6f3c 8a9c 9aba addc 863a dfe4 4abb
00000010: f3ed e03b 7e0c 1e3b f1ad 283b ba32 c73a
00000020: a23c 0eb8 d11b 85bb f474 d13d ea40 1b3d
00000030: 2dac 77bc 4ded ea3d d591 d83b fea1 babc
00000040: 4502 5eba d12f f23a 0008 473d 4d54 af3d
00000050: 2ae1 58bb 3ad9 b03d bea0 7e3d f2f7 1a3d
00000060: d9b3 d53d 88aa 00b8 cd98 063d 3a7b ff3c
00000070: f5ab a03c 557d e93c 901e f93a beb3 ce3d

conv1/kernel f4 [32, 3, 1, 1]
-2.067909 -0.12194351 3.7262812 -2.533299 0.14682208 0.30830297 1.1853485 -2.1733246
1.808454 3.8213623 -0.08814002 1.5072149 0.73488533 2.3264604 1.668818 1.9957029
1.3808367 -0.011151065 -0.29182076 -1.0942384 -2.1248164 -1.5694357 2.6998842 -0.04383206
0.85525167 -2.1681209 -0.36796135 -0.5622575 -1.6793815 -1.2189252 -3.1928813 -0.34719276
-0.43523726 3.6840317 0.46780044 0.20378353 0.28096697 1.4575654 2.799372 -0.31758252
-1.5297159 1.4568924 2.0067728 1.1756966 0.22637574 2.9694748 -0.56739104 -0.50342464
-0.4383731 0.047180843 -2.2364442 0.4354304 -0.03556929 2.2474878 2.8790054 2.295618
1.3405664 -1.7087309 0.12056726 -2.2105772 -2.1451795 -1.4348123 -0.058835223 0.9501556
-0.14312717 -2.2859416 -1.3192205 -2.2186396 -2.666167 -3.3469117 -1.2211355 -0.12965956
1.0569988 0.69468045 0.97072303 1.1554279 1.819838 0.66265774 2.9223127 -2.2027006
-1.2612922 -2.851532 -2.2206695 -0.8765053 -1.4522429 -3.0245285 0.7329696 0.05037798
3.2534692 -2.56697 -1.1384795 -1.8303319 -0.6358942 -0.08572185 -0.09272009 -1.0289134
00000000: 9f58 04c0 85bd f9bd 647b 6e40 9221 22c0
00000010: 8758 163e e3d9 9d3e 80b9 973f c017 0bc0
00000020: 6c7b e73f 3391 7440 c182 b4bd 6bec c03f
00000030: 7221 3c3f bae4 1440 d49b d53f 3173 ff3f
00000040: 42bf b03f f5b2 36bc 8869 95be 0110 8cbf
00000050: fefc 07c0 45e3 c8bf e7ca 2c40 3f89 33bd
00000060: c6f1 5a3f 7ec2 0ac0 6e65 bcbe 1cf0 0fbf
00000070: f9f5 d6bf be05 9cbf 2b58 4cc0 40c3 b1be
00000080: 6bd7 debe 2dc7 6b40 8a83 ef3e a1ac 503e
00000090: e7da 8f3e 8191 ba3f e928 3340 2d9a a2be
000000a0: bbcd c3bf 737b ba3f f76e 0040 3a7d 963f
000000b0: 0bcf 673e e00b 3e40 8a40 11bf 70e0 00bf
000000c0: 7072 e0be b340 413d e721 0fc0 bcf0 de3e
000000d0: 1bb1 11bd d7d6 0f40 a041 3840 68eb 1240
000000e0: ae97 ab3f b2b7 dabf f8eb f63d 197a 0dc0
000000f0: 9f4a 09c0 eea7 b7bf 34fd 70bd 663d 733f
00000100: ee8f 12be de4c 12c0 38dc a8bf 31fe 0dc0
00000110: 7ba2 2ac0 cd33 56c0 2b4e 9cbf 7ac5 04be
00000120: bd4b 873f 94d6 313f 4e81 783f 10e5 933f
00000130: 74f0 e83f f0a3 293f 2c07 3b40 0cf9 0cc0
00000140: 0672 a1bf 807f 36c0 731f 0ec0 a762 60bf
00000150: 18e3 b9bf e091 41c0 e5a3 3b3f 2459 4e3d
00000160: d738 5040 3d49 24c0 b2b9 91bf 5148 eabf
00000170: f6c9 22bf f08e afbd 08e4 bdbd 6fb3 83bf

conv2/Conv2D_bias f4 [32]
0.037311886 0.061509363 -0.046819225 0.051712144 0.09304432 0.006453622 -0.076929934 -0.0013139128
0.012142093 0.10244551 0.13593696 0.07302276 -0.0615987 -0.090220906 0.14560904 0.12930337
-0.048483673 0.01623454 0.095092125 -0.09301537 0.18420233 -0.10707002 -0.16933851 -0.007396074
-0.011066311 -0.025648104 0.006777217 0.19874385 -0.2387029 -0.06205049 -0.06799551 -0.009183802
00000000: 59d4 183d 3ef1 7b3d 84c5 3fbd 1dd0 533d
00000010: 058e be3d e878 d33b 718d 9dbd 9937 acba
00000020: a1ef 463c f4ce d13d 0f33 0b3e f58c 953d
00000030: eb4e 7cbd bdc5 b8bd 891a 153e 1a68 043e
00000040: d196 46bd 4cfe 843c a9bf c23d d87e bebd
00000050: 899f 3c3e 8747 dbbd 1367 2dbe c45a f2bb
00000060: 794f 35bc f91b d2bc 6b13 de3b 8283 4b3e
00000070: 886e 74be a828 7ebd 3b41 8bbd a877 16bc

conv2/kernel i1 [32, 3, 1, 32] scale=0.027254017 zero_point=0
0.13627009 0.13627009 0.21803214 -0.054508034 -0.19077812 0.2997942 0.5995884 0.19077812
0.3270482 0.73585844 -0.2997942 -0.1635241 -0.19077812 -0.3270482 0.10901607 0.8176205
1.553479 -0.6813504 -0.7631125 -0.10901607 0.08176205 0.054508034 -0.13627009 0.13627009
0.0 0.27254018 0.21803214 -0.10901607 0.13627009 0.24528615 0.8993826 0.1635241
0.43606427 0.8448745 0.38155624 0.08176205 -0.6540964 -0.35430223 1.2809387 0.7903665
0.6268424 1.7442571 0.1635241 0.2997942 -0.19077812 0.027254017 -0.1635241 0.24528615
1.553479 -1.580733 -0.27254018 0.027254017 1.635241 -0.21803214 -0.3270482 0.13627009
-0.19077812 -0.70860445 0.43606427 0.10901607 0.4905723 0.57233435 1.662495 -0.21803214
-0.10901607 0.7903665 0.0 0.1635241 -0.87212855 -0.43606427 -0.1635241 0.24528615
-0.8448745 0.2997942 -0.10901607 -0.2997942 0.6268424 0.027254017 -0.73585844 -0.19077812
-0.08176205 -0.5995884 -0.054508034 0.3270482 1.1991768 -0.027254017 -0.1635241 0.3270482
0.35430223 -0.2997942 0.2997942 -0.027254017 0.0 -0.054508034 0.38155624 0.10901607
-0.2997942 0.21803214 0.6813504 0.4633183 0.27254018 0.40881026 0.1635241 -0.08176205
-0.10901607 -0.43606427 -0.054508034 0.027254017 0.27254018 -0.1635241 -0.57233435 -0.57233435
0.5178263 1.1991768 -0.24528615 -0.027254017 -0.13627009 0.13627009 -0.1635241 0.27254018
0.10901607 0.57233435 -0.4633183 0.24528615 -0.027254017 -0.2997942 -0.27254018 0.054508034
0.8176205 0.87212855 1.3081928 0.8993826 1.4172089 0.70860445 -0.24528615 0.8176205
0.054508034 -0.8993826 -0.1635241 0.35430223 0.5995884 0.10901607 1.2536848 0.4633183
-0.4905723 1.2809387 0.3270482 0.0 -0.4633183 0.21803214 -0.5178263 -0.027254017
0.3270482 1.4172089 0.1635241 -0.2997942 -0.35430223 0.4633183 0.13627009 -0.08176205
-0.40881026 -0.13627009 0.2997942 -0.19077812 0.6813504 0.5995884 -0.13627009 -0.3270482
-0.1635241 -0.5995884 -0.054508034 -0.027254017 0.24528615 -0.13627009 1.2809387 1.0901607
0.10901607 -0.19077812 0.27254018 0.08176205 -0.6268424 -0.054508034 -0.24528615 0.21803214
0.0 0.6268424 -0.4905723 0.10901607 -0.19077812 -0.57233435 -0.57233435 0.0
-0.1635241 0.24528615 -0.70860445 0.08176205 -1.0083987 -0.054508034 -0.027254017 -0.027254017
0.9266366 -0.6268424 -0.27254018 -0.24528615 -1.1446687 -0.1635241 -0.054508034 -0.40881026
0.6540964 -0.8993826 0.40881026 0.10901607 -0.19077812 0.21803214 0.0 -0.21803214
-0.27254018 0.054508034 0.40881026 0.027254017 -0.27254018 -0.054508034 0.35430223 0.21803214
0.7631125 -0.40881026 0.027254017 -0.43606427 1.0901607 -0.5995884 -0.1635241 0.73585844
-0.054508034 -0.027254017 0.40881026 -0.027254017 0.2997942 -0.08176205 0.6540964 -0.27254018
0.0 0.5995884 -0.4633183 -0.054508034 0.027254017 -0.054508034 -0.4633183 0.4905723
-0.19077812 0.13627009 -0.13627009 0.10901607 1.7170031 0.3270482 -0.027254017 -0.35430223
00000000: 0505 08fe f90b 1607 0c1b f5fa f9f4 041e
00000010: 39e7 e4fc 0302 fb05 000a 08fc 0509 2106
00000020: 101f 0e03 e8f3 2f1d 1740 060b f901 fa09
00000030: 39c6 f601 3cf8 f405 f9e6 1004 1215 3df8
00000040: fc1d 0006 e0f0 fa09 e10b fcf5 1701 e5f9
00000050: fdea fe0c 2cff fa0c 0df5 0bff 00fe 0e04
00000060: f508 1911 0a0f 06fd fcf0 fe01 0afa ebeb
00000070: 132c f7ff fb05 fa0a 0415 ef09 fff5 f602
00000080: 1e20 3021 341a f71e 02df fa0d 1604 2e11
00000090: ee2f 0c00 ef08 edff 0c34 06f5 f311 05fd
000000a0: f1fb 0bf9 1916 fbf4 faea feff 09fb 2f28
000000b0: 04f9 0a03 e9fe f708 0017 ee04 f9eb eb00
000000c0: fa09 e603 dbfe ffff 22e9 f6f7 d6fa fef1
000000d0: 18df 0f04 f908 00f8 f602 0f01 f6fe 0d08
000000e0: 1cf1 01f0 28ea fa1b feff 0fff 0bfd 18f6
000000f0: 0016 effe 01fe ef12 f905 fb04 3f0c fff3

conv3/Conv2D_bias f4 [16]
0.3021444 0.23447934 -0.038892712 -0.10068772 -0.47589946 0.01124014 -0.0011486746 0.0039145392
0.12634912 0.04393957 -0.026127225 0.07945525 0.11740061 0.0832205 0.09116362 -0.005289298
00000000: acb2 9a3e 5a1b 703e f74d 1fbd 5d35 cebd
00000010: 18a9 f3be 9028 383c 208f 96ba 8945 803b
00000020: aa61 013e fbf9 333d c308 d6bc 6fb9 a23d
00000030: bb6f f03d 826f aa3d feb3 ba3d d951 adbb

conv3/kernel i1 [16, 3, 1, 32] scale=0.064647526 zero_point=0
-0.2585901 0.12929505 1.099008 -0.32323763 0.19394258 0.58182776 0.12929505 -0.58182776
-0.32323763 0.5171802 -0.19394258 0.2585901 0.064647526 -0.19394258 0.19394258 -0.064647526
0.2585901 1.0343604 -0.12929505 -0.064647526 -0.064647526 0.2585901 0.38788515 1.099008
0.45253268 1.228303 -0.2585901 -0.064647526 0.19394258 -0.12929505 0.19394258 0.064647526
0.0 0.2585901 0.90506536 -0.32323763 0.19394258 0.7757703 -0.19394258 0.064647526
-0.71112275 0.32323763 -0.19394258 0.90506536 0.32323763 -0.45253268 0.0 0.064647526
0.2585901 0.12929505 0.32323763 -0.58182776 -0.5171802 0.32323763 -0.5171802 0.7757703
0.12929505 0.84041786 0.12929505 0.5171802 0.38788515 -0.7757703 -0.19394258 0.2585901
0.5171802 0.7757703 0.58182776 0.19394258 0.064647526 0.64647526 -0.38788515 0.12929505
0.0 -0.064647526 0.19394258 -0.12929505 -0.5171802 0.71112275 0.2585901 0.45253268
-0.7757703 0.32323763 0.2585901 0.45253268 -0.12929505 0.064647526 -0.90506536 0.0
-0.2585901 0.45253268 0.45253268 -0.12929505 -0.38788515 -0.5171802 0.12929505 0.064647526
-1.1636555 0.19394258 -0.58182776 0.064647526 0.12929505 0.064647526 -0.5171802 -0.2585901
-0.2585901 -0.32323763 -0.064647526 -0.84041786 0.64647526 0.2585901 0.64647526 0.71112275
-0.64647526 -0.38788515 0.12929505 -0.84041786 0.2585901 -0.064647526 0.2585901 -0.38788515
0.32323763 -0.5171802 0.5171802 0.58182776 -0.32323763 0.58182776 -0.32323763 -0.32323763
0.45253268 0.2585901 -0.45253268 -0.32323763 0.7757703 -0.19394258 -0.58182776 -0.84041786
0.45253268 0.0 0.58182776 -0.19394258 0.45253268 -0.12929505 0.58182776 -0.2585901
-0.38788515 0.2585901 0.12929505 -1.228303 0.38788515 -0.2585901 -0.2585901 -0.064647526
0.32323763 -0.5171802 0.7757703 0.58182776 -0.58182776 -0.38788515 -0.45253268 -0.064647526
-0.2585901 -0.19394258 0.7757703 0.12929505 0.12929505 0.12929505 0.2585901 -0.2585901
-0.38788515 0.32323763 0.58182776 0.32323763 -0.064647526 0.5171802 0.2585901 0.2585901
-0.19394258 -0.38788515 0.2585901 1.099008 0.32323763 -1.228303 0.19394258 0.45253268
0.12929505 0.064647526 -0.5171802 0.64647526 -0.45253268 -0.58182776 0.19394258 0.19394258
-0.84041786 -0.2585901 -0.2585901 -0.5171802 -0.19394258 0.32323763 -0.2585901 0.0
0.0 0.064647526 -0.2585901 0.0 0.32323763 1.099008 0.12929505 0.064647526
-0.32323763 -0.7757703 -0.32323763 -1.099008 0.2585901 0.38788515 0.96971285 0.64647526
-0.064647526 0.96971285 0.71112275 0.12929505 0.32323763 0.32323763 0.0 -0.32323763
0.064647526 0.32323763 -0.38788515 -0.58182776 -0.12929505 0.32323763 -0.19394258 -0.38788515
-0.45253268 -0.38788515 0.19394258 1.099008 0.38788515 -0.32323763 -0.2585901 -0.2585901
-0.2585901 0.0 -0.2585901 -0.71112275 0.38788515 0.45253268 1.0343604 -1.3575981
0.12929505 1.0343604 0.90506536 -0.064647526 0.32323763 -0.45253268 -0.64647526 -0.19394258
00000000: fc02 11fb 0309 02f7 fb08 fd04 01fd 03ff
00000010: 0410 feff ff04 0611 0713 fcff 03fe 0301
00000020: 0004 0efb 030c fd01 f505 fd0e 05f9 0001
00000030: 0402 05f7 f805 f80c 020d 0208 06f4 fd04
00000040: 080c 0903 010a fa02 00ff 03fe f80b 0407
00000050: f405 0407 fe01 f200 fc07 07fe faf8 0201
00000060: ee03 f701 0201 f8fc fcfb fff3 0a04 0a0b
00000070: f6fa 02f3 04ff 04fa 05f8 0809 fb09 fbfb
00000080: 0704 f9fb 0cfd f7f3 0700 09fd 07fe 09fc
00000090: fa04 02ed 06fc fcff 05f8 0c09 f7fa f9ff
000000a0: fcfd 0c02 0202 04fc fa05 0905 ff08 0404
000000b0: fdfa 0411 05ed 0307 0201 f80a f9f7 0303
000000c0: f3fc fcf8 fd05 fc00 0001 fc00 0511 0201
000000d0: fbf4 fbef 0406 0f0a ff0f 0b02 0505 00fb
000000e0: 0105 faf7 fe05 fdfa f9fa 0311 06fb fcfc
000000f0: fc00 fcf5 0607 10eb 0210 0eff 05f9 f6fd

conv4/Conv2D_bias f4 [24]
0.13937436 -0.1377336 0.13647573 0.08055233 -0.44796762 -0.29774886 0.10255278 0.016512427
0.5245915 0.13094138 0.28539 0.28323817 0.12182774 0.10234183 -0.046273127 0.19425793
0.24506873 -0.07394917 0.12502189 0.17581733 -0.18295433 0.36103046 0.19485125 -0.003176603
00000000: 27b8 0e3e 090a 0dbe 4bc0 0b3e 9ff8 a43d
00000010: 035c e5be 8a72 98be 3107 d23d 1245 873c
00000020: a14b 063f 7f15 063e a31e 923e 9804 913e
00000030: d280 f93d 9898 d13d e488 3dbd 8deb 463e
00000040: 4cf3 7a3e aa72 97bd bd05 003e 7509 343e
00000050: 6158 3bbe fcd8 b83e 1687 473e 8e2e 50bb

conv4/kernel i1 [24, 3, 1, 16] scale=0.03716896 zero_point=0
0.22301376 -0.18584481 -1.003562 -0.26018274 0.8548861 0.2973517 0.5947034 -0.37168962
-1.1150688 -0.14867584 -0.33452064 0.0 -0.03716896 -0.18584481 0.14867584 0.5947034
0.07433792 -0.22301376 -0.11150688 -0.26018274 0.5947034 -0.8548861 0.07433792 0.11150688
-0.22301376 0.44602752 0.0 0.33452064 -0.18584481 -0.11150688 -0.37168962 0.22301376
-0.33452064 0.5575344 0.4831965 0.18584481 -0.22301376 0.70621026 0.4831965 -0.18584481
0.8548861 0.70621026 -0.22301376 -0.07433792 -0.44602752 0.07433792 -0.5203655 0.0
0.14867584 -0.22301376 -0.44602752 -0.26018274 -0.63187236 0.22301376 -0.14867584 -0.26018274
0.929224 -0.44602752 0.11150688 -0.03716896 0.6690413 0.0 0.0 -0.2973517
0.03716896 0.11150688 -0.74337924 -0.26018274 0.22301376 -0.26018274 0.11150688 -0.14867584
-0.63187236 -0.11150688 -0.11150688 0.14867584 0.03716896 -0.03716896 0.07433792 0.26018274
0.4831965 0.26018274 0.74337924 0.63187236 -0.2973517 -0.14867584 0.14867584 0.0
0.26018274 0.03716896 0.07433792 0.14867584 -0.2973517 -0.5947034 0.44602752 -0.07433792
0.5947034 -0.11150688 0.0 0.33452064 -0.4831965 -0.03716896 0.37168962 -0.11150688
-0.5575344 0.0 0.26018274 0.33452064 -0.2973517 0.18584481 0.22301376 0.0
-0.18584481 -0.37168962 0.07433792 0.0 0.22301376 -0.37168962 0.0 -0.14867584
-0.14867584 0.03716896 0.70621026 0.11150688 -0.22301376 0.11150688 -0.2973517 -0.2973517
-0.33452064 0.11150688 0.03716896 0.07433792 0.44602752 -0.63187236 0.70621026 0.03716896
-0.37168962 0.70621026 -0.18584481 0.07433792 -0.26018274 0.22301376 -0.14867584 0.22301376
0.07433792 -0.03716896 0.11150688 0.22301376 -0.07433792 0.26018274 0.2973517 -0.11150688
-0.44602752 -0.11150688 0.07433792 0.11150688 0.07433792 0.18584481 0.37168962 0.03716896
0.2973517 0.11150688 -0.03716896 -0.40885857 0.8548861 -0.2973517 0.0 0.26018274
-1.003562 0.03716896 -0.14867584 0.26018274 -0.33452064 0.18584481 0.07433792 -0.07433792
-0.11150688 -0.03716896 0.2973517 -0.11150688 -0.37168962 -0.44602752 0.07433792 0.22301376
0.2973517 0.33452064 -0.2973517 -0.03716896 -0.5575344 0.03716896 0.03716896 -0.70621026
-0.4831965 0.11150688 -0.26018274 0.37168962 0.2973517 0.33452064 -0.11150688 0.07433792
0.5575344 -0.37168962 -0.26018274 -0.33452064 -0.18584481 -0.03716896 0.11150688 -0.14867584
0.0 -0.07433792 -0.03716896 -0.18584481 -0.929224 -0.14867584 -0.37168962 -0.14867584
-0.5203655 -0.03716896 0.5947034 -0.33452064 0.0 -0.22301376 -0.11150688 0.2973517
-0.07433792 0.18584481 -0.03716896 -0.26018274 0.14867584 0.22301376 -0.4831965 0.5575344
0.40885857 -0.22301376 0.2973517 -0.18584481 0.03716896 0.4831965 0.18584481 0.22301376
0.2973517 -0.07433792 -0.44602752 -0.81771713 -0.11150688 -0.70621026 0.81771713 -0.33452064
-0.70621026 -0.11150688 0.5575344 0.03716896 0.40885857 0.11150688 -0.26018274 0.4831965
00000000: 06fb e5f9 1708 10f6 e2fc f700 fffb 0410
00000010: 02fa fdf9 10e9 0203 fa0c 0009 fbfd f606
00000020: f70f 0d05 fa13 0dfb 1713 fafe f402 f200
00000030: 04fa f4f9 ef06 fcf9 19f4 03ff 1200 00f8
00000040: 0103 ecf9 06f9 03fc effd fd04 01ff 0207
00000050: 0d07 1411 f8fc 0400 0701 0204 f8f0 0cfe
00000060: 10fd 0009 f3ff 0afd f100 0709 f805 0600
00000070: fbf6 0200 06f6 00fc fc01 1303 fa03 f8f8
00000080: f703 0102 0cef 1301 f613 fb02 f906 fc06
00000090: 02ff 0306 fe07 08fd f4fd 0203 0205 0a01
000000a0: 0803 fff5 17f8 0007 e501 fc07 f705 02fe
000000b0: fdff 08fd f6f4 0206 0809 f8ff f101 01ed
000000c0: f303 f90a 0809 fd02 0ff6 f9f7 fbff 03fc
000000d0: 00fe fffb e7fc f6fc f2ff 10f7 00fa fd08
000000e0: fe05 fff9 0406 f30f 0bfa 08fb 010d 0506
000000f0: 08fe f4ea fded 16f7 edfd 0f01 0b03 f90d

conv5/Conv2D_bias f4 [16]
0.44190037 0.019289326 0.76766855 -0.25596833 0.20943941 -0.1992882 0.4266129 -0.32433662
0.5138196 -0.0013366832 0.6789715 -0.54119647 -0.02285419 -0.25360945 -0.07415934 -0.42503902
00000000: c440 e23e a604 9e3c ed85 443f 480e 83be
00000010: 4977 563e 3512 4cbe 026d da3e 730f a6be
00000020: ae89 033f a533 afba 14d1 2d3f da8b 0abf
00000030: b638 bbbc 19d9 81be dae0 97bd b79e d9be

conv5/kernel f4 [16, 1, 1, 24]
-0.46352187 -0.0697207 0.29601818 0.6052206 -1.795935 0.17471676 0.11807632 -0.1832007
0.53160524 0.44434676 0.54746974 0.14178139 -0.9143008 -0.5463123 0.3475184 0.6155583
-0.014628616 0.043995637 0.3723577 -1.3779157 1.011639 0.08613973 -1.1093222 -0.26647592
-0.2605121 0.027603539 -0.22750413 -0.7496004 0.35596877 0.36867362 -0.7524114 -0.8020524
0.21731359 -0.15924601 0.3447406 -0.00963192 -0.34707817 -0.14220901 0.66324586 -0.241394
-0.17102967 0.43824357 -1.180734 2.023028 -0.04352541 0.6946125 0.8830845 0.121383205
-0.5622781 -0.25249153 -0.55934125 0.018559417 -0.069388166 -1.6028202 -0.3338099 -0.0802262
-0.26677465 0.2563822 0.35667837 0.9805566 -0.19096467 0.21674949 -0.06448365 -0.4294341
-0.05159551 0.17429888 -0.7802031 -0.6985901 0.5324326 0.32564586 1.0110953 0.11153227
-0.043352034 0.5580263 0.6680116 0.13880949 1.4166117 1.7236948 -0.5622114 -0.2572095
-0.1615084 1.3067912 0.8651961 0.3704848 0.7814564 0.20545997 -0.53265184 0.1146096
-0.040728547 0.28693396 0.03349025 2.0355759 -0.078395076 0.128717 -0.09990018 -0.8415327
-1.2969738 0.4710826 -0.9612748 0.2681283 -1.5161862 -0.059839886 -0.18287392 -0.72818923
0.12593511 -0.30702052 -0.35429892 -0.9344235 0.111776695 0.6617538 0.37529126 0.7063041
-1.129274 -0.5678586 -0.57528 0.7621638 -0.37529147 -0.25946018 -1.008009 -0.3225322
0.16585751 -1.4363552 -0.39001423 -0.45433354 -0.5077445 -0.47183892 0.3134863 -0.7368299
0.12748766 -0.74718046 -0.3639273 0.06876279 0.25784597 0.38174498 -0.0005324262 0.0053600506
0.7720776 0.22195283 -0.89780265 0.7388641 -0.43542826 0.44241744 0.67456913 0.3345071
-0.7660854 -0.037476476 0.8667499 -0.1568036 -0.39194193 0.1053131 -1.1314538 -0.8176703
0.31483233 1.2164012 0.3906135 0.37028125 0.56365454 -0.3452708 -0.24852742 -0.21601743
0.20840916 0.2895382 -0.06816865 1.9885471 -0.41247317 -0.09143631 -1.6046355 0.29665527
0.5666604 0.52668405 0.00849973 -0.10555257 -0.9777843 0.2775035 0.5450072 0.15551116
-0.31554186 -0.17732485 -1.3841189 -1.0193092 0.582958 -0.4043682 0.52444327 0.80198133
-0.29213104 0.041552715 -1.3853072 -0.3150328 0.609192 0.28329954 0.87578887 -0.7576259
0.6944577 -0.18529099 0.09943085 0.16144677 0.09439632 0.3378506 0.48522118 1.2680088
0.31883323 -0.15505448 -0.44956613 0.13510147 -0.9598727 -0.8097699 0.048251536 0.46381757
0.14771299 0.08696249 0.5110838 -1.1588364 -0.10210703 0.5509648 -1.4524144 -0.4537865
0.25687015 -0.009747478 -0.15639149 -0.19430228 0.35144445 -0.2364146 0.1584047 -0.28407273
-0.3713819 -0.32532305 0.013261681 -0.19515051 -0.3484935 -0.14385837 -0.019368624 -0.34499615
-0.21785082 0.19282384 0.12230517 -0.0115244435 -0.16932651 -0.07440087 0.06654742 0.044225987
-1.0099909 0.41476843 -0.8686088 -0.111023866 -2.402809 -1.1269584 -1.2120043 -1.415188
1.0939243 0.49881396 0.47315717 0.36204284 -0.001860196 0.5750427 -0.6285555 0.9499847
00000000: bd52 edbe bac9 8ebd b28f 973e bdef 1a3f
00000010: 33e1 e5bf f3e8 323e ffd1 f13d f798 3bbe
00000020: 4817 083f 6b81 e33e fa26 0c3f 242f 113e
00000030: 9e0f 6abf 1fdb 0bbf efed b13e 3b95 1d3f
00000040: ddac 6fbc c534 343d aba5 be3e 8b5f b0bf
00000050: 637d 813f 076a b03d 45fe 8dbf 886f 88be
00000060: d861 85be d120 e23c d8f6 68be d0e5 3fbf
00000070: 8a41 b63e cac2 bc3e 099e 40bf 4e53 4dbf
00000080: 7487 5e3e 6311 23be d781 b03e 33cf 1dbc
00000090: 3bb4 b1be 3d9f 11be 7bca 293f fd2f 77be
000000a0: 6722 2fbe 7661 e03e 4b22 97bf 4a79 0140
000000b0: b347 32bd 20d2 313f d311 623f c297 f83d
000000c0: 75f1 0fbf 9246 81be fd30 0fbf eb09 983c
000000d0: 621b 8ebd 3629 cdbf 22e9 aabe a24d a4bd
000000e0: b096 88be 8744 833e 8c9e b63e c205 7b3f
000000f0: 3e8c 43be 94f3 5d3e 0110 84bd c9de dbbe
00000100: d055 53bd 687b 323e 64bb 47bf cdd6 32bf
00000110: 814d 083f 0ebb a63e 926b 813f 086b e43d
00000120: e791 31bd d0da 0e3f cf02 2b3f 1324 0e3e
00000130: 8853 b53f 08a2 dc3f 16ed 0fbf f7b0 83be
00000140: 7562 25be ef44 a73f 7e7d 5d3f 2fb0 bd3e
00000150: 870d 483f 1964 523e df5b 08bf 70b8 ea3d
00000160: fad2 26bd 02e9 923e 132d 093d e046 0240
00000170: 998d a0bd 64ce 033e 7798 ccbd b06e 57bf
00000180: 3d03 a6bf bd31 f13e 1b16 76bf 1d48 893e
00000190: 6412 c2bf ab1a 75bd 4d43 3bbe 9c6a 3abf
000001a0: 22f5 003e cb31 9dbe ab66 b5be 6136 6fbf
000001b0: 2eeb e43d b268 293f 2d26 c03e 58d0 343f
000001c0: 0d8c 90bf 2e5f 11bf 8d45 13bf 2b1d 433f
000001d0: 3426 c0be f7d7 84be 7006 81bf f122 a5be
000001e0: 8dd6 293e 7dda b7bf f2af c7be 689e e8be
000001f0: 8bfb 01bf df94 f1be 4781 a03e e2a0 3cbf
00000200: 208c 023e 3847 3fbf ae54 babe 81d3 8c3d
00000210: 6304 843e 1474 c33e 8492 0bba 5da3 af3b
00000220: e1a6 453f 9a47 633e 65d6 65bf 3326 3d3f
00000230: 74f0 debe 8a84 e23e 90b0 2c3f 8444 ab3e
00000240: 2c1e 44bf ef80 19bd 52e3 5d3f 1f91 20be
00000250: 9dac c8be 65ae d73d 7ad3 90bf d752 51bf
00000260: b431 a13e 09b3 9b3f 7efe c73e 8195 bd3e
00000270: aa4b 103f 56c7 b0be f97d 7ebe ac33 5dbe
00000280: 3669 553e 5a3e 943e 019c 8bbd b688 fe3f
00000290: af2f d3be f642 bbbd b264 cdbf 33e3 973e
000002a0: a810 113f c4d4 063f 7442 0b3c f22b d8bd
000002b0: 1250 7abf f014 8e3e 9885 0b3f 513e 1f3e
000002c0: b48e a1be a594 35be cf2a b1bf b978 82bf
000002d0: bc3c 153f 5909 cfbe ea41 063f a64e 4d3f
000002e0: 3392 95be 2e33 2a3d bf51 b1bf fb4b a1be
000002f0: 02f4 1b3f a30c 913e b333 603f c5f3 41bf
00000300: fbc7 313f ecbc 3dbe 67a2 cb3d 4d52 253e
00000310: dc52 c13d c1fa ac3e e96e f83e 1d4e a23f
00000320: 1c3e a33e 9ac6 1ebe 882d e6be 0a58 0a3e
00000330: 38ba 75bf 154d 4fbf 67a3 453d 7f79 ed3e
00000340: 1342 173e 6419 b23d 63d6 023f c054 94bf
00000350: 7e1d d1bd 070c 0d3f b7e8 b9bf b456 e8be
00000360: 7c84 833e e3b3 1fbc 1725 20be 2df7 46be
00000370: 87f0 b33e ab16 72be d734 223e fb71 91be
00000380: c525 bebe be90 a6be 8647 593c 89d5 47be
00000390: bd6d b2be 9c4f 13be f3aa 9ebc 56a3 b0be
000003a0: 4914 5fbe 9d73 453e 227b fa3d 05d1 3cbc
000003b0: ee63 2dbe 7c5f 98bd 044a 883d 4f26 353d
000003c0: 6247 81bf 875c d43e 255d 5ebf 7b60 e3bd
000003d0: 9fc7 19c0 2c40 90bf f522 9bbf e124 b5bf
000003e0: b605 8c3f 8b64 ff3e a841 f23e ae5d b93e
000003f0: d2d1 f3ba 0036 133f 03e9 20bf 3332 733f

dire/MatMul_bias f4 [7]
-0.033107422 0.2041042 1.4156706 -0.08378604 -0.47034663 1.0570496 -0.6133507
00000000: a69b 07bd b100 513e b234 b53f 0498 abbd
00000010: 46d1 f0be 674d 873f 8d04 1dbf

dire/kernel/transpose i1 [7, 176] scale=0.04145651 zero_point=0
0.24873906 -0.20728254 -0.29019555 -0.29019555 -0.7047607 0.29019555 -0.12436953 0.4145651
-0.29019555 0.12436953 0.4560216 -0.66330415 0.04145651 1.1607822 -0.53893465 -0.12436953
-0.04145651 0.04145651 -0.12436953 -0.3731086 0.12436953 0.04145651 -0.4560216 -0.20728254
0.20728254 0.12436953 0.24873906 -0.5803911 0.0 0.4145651 -0.4560216 -0.4560216
-0.6218476 -0.7047607 0.8705867 -0.04145651 -0.12436953 0.08291302 0.5803911 -0.12436953
0.53893465 0.04145651 0.49747813 -0.95349973 -0.16582604 0.6218476 -0.7047607 -0.5803911
0.16582604 0.12436953 -0.3731086 -0.29019555 0.29019555 -0.04145651 0.49747813 -0.16582604
-0.16582604 -0.12436953 0.3731086 0.20728254 -0.04145651 -0.3731086 -0.95349973 0.24873906
0.6218476 0.24873906 -0.29019555 0.04145651 -0.16582604 -0.04145651 0.0 -0.33165208
-0.29019555 0.04145651 0.29019555 0.3731086 -1.4095213 0.99495625 0.24873906 0.12436953
0.08291302 -0.9120432 0.20728254 -0.24873906 0.08291302 -0.16582604 0.4560216 -0.08291302
-0.04145651 0.08291302 0.3731086 -0.04145651 0.16582604 -0.4560216 -0.7462172 0.7047607
0.3731086 0.16582604 -0.29019555 -0.04145651 -0.66330415 -0.04145651 -0.3731086 0.29019555
0.6218476 -0.16582604 -0.24873906 -0.08291302 0.0 1.2022388 0.08291302 -0.24873906
0.08291302 -0.24873906 0.16582604 -0.12436953 -0.29019555 0.24873906 0.29019555 0.08291302
-0.24873906 0.0 -0.08291302 -0.12436953 0.29019555 0.4560216 -0.08291302 -0.08291302
0.29019555 0.04145651 -0.49747813 0.16582604 -0.16582604 0.12436953 0.29019555 0.04145651
0.0 0.0 -0.4560216 0.08291302 -0.08291302 -0.66330415 0.0 -0.08291302
0.08291302 -0.3731086 0.0 -0.20728254 -0.04145651 -0.16582604 0.0 0.0
-0.3731086 0.0 -0.20728254 -0.33165208 -0.12436953 -0.16582604 -0.16582604 0.8291302
0.7047607 0.99495625 -0.29019555 0.24873906 0.9120432 -0.16582604 -1.3680648 -0.6218476
-0.78767365 0.04145651 -0.20728254 -0.7047607 0.0 1.5338908 -0.4145651 -0.8291302
-0.4560216 -1.1193258 0.78767365 0.53893465 0.24873906 0.33165208 -0.04145651 -0.4145651
0.12436953 0.04145651 0.16582604 -0.16582604 -0.24873906 -0.20728254 -0.33165208 0.08291302
0.12436953 -0.29019555 -0.04145651 0.16582604 -0.16582604 -0.33165208 0.04145651 0.0
-0.24873906 0.16582604 0.4560216 -0.08291302 -0.04145651 0.04145651 0.04145651 -0.08291302
-0.5803911 0.08291302 -1.7826298 0.4145651 -0.29019555 0.20728254 -1.1193258 -0.33165208
0.08291302 -0.12436953 0.29019555 -0.7462172 -0.49747813 -0.24873906 0.24873906 0.08291302
0.20728254 0.16582604 1.2022388 0.08291302 -0.49747813 0.66330415 -0.5803911 -0.4560216
0.66330415 -0.16582604 -0.20728254 -0.5803911 0.33165208 -0.66330415 0.66330415 -0.53893465
0.08291302 -0.4145651 -0.78767365 -0.29019555 -0.49747813 0.16582604 1.0778693 -0.12436953
0.7462172 0.04145651 -0.53893465 -0.78767365 0.49747813 -0.4560216 0.08291302 0.08291302
00000000: 06fb f9f9 ef07 fd0a f903 0bf0 011c f3fd
00000010: ff01 fdf7 0301 f5fb 0503 06f2 000a f5f5
00000020: f1ef 15ff fd02 0efd 0d01 0ce9 fc0f eff2
00000030: 0403 f7f9 07ff 0cfc fcfd 0905 fff7 e906
00000040: 0f06 f901 fcff 00f8 f901 0709 de18 0603
00000050: 02ea 05fa 02fc 0bfe ff02 09ff 04f5 ee11
00000060: 0904 f9ff f0ff f707 0ffc fafe 001d 02fa
00000070: 02fa 04fd f906 0702 fa00 fefd 070b fefe
00000080: 0701 f404 fc03 0701 0000 f502 fef0 00fe
00000090: 02f7 00fb fffc 0000 f700 fbf8 fdfc fc14
000000a0: 1118 f906 16fc dff1 ed01 fbef 0025 f6ec
000000b0: f5e5 130d 0608 fff6 0301 04fc fafb f802
000000c0: 03f9 ff04 fcf8 0100 fa04 0bfe ff01 01fe
000000d0: f202 d50a f905 e5f8 02fd 07ee f4fa 0602
000000e0: 0504 1d02 f410 f2f5 10fc fbf2 08f0 10f3
000000f0: 02f6 edf9 f404 1afd 1201 f3ed 0cf5 0202
