columbus/src/main/assets/columbus/12/tap7cls_bramble.tflite (tflite, 13520 bytes, 12 tensors)

functional_3/conv1/BiasAdd/ReadVariableOp/resource f4 [32]
00000000: ae3d b33b 8251 c2bb b00f 8eb9 605e ad3d
00000010: 3bfd d03d d749 cfb8 a6a5 9f3d bc35 0cbb
00000020: 46f0 a7bb a453 113e 357f 0539 1a88 6b3d
00000030: 69f8 7d3c 885e 223d 5d91 7a3d a18a 033e
00000040: 7c8f b1ba 5a5a ad3b 2ebe 9fba 49af 883d
00000050: 3581 513d 9fa2 223c d99b 3f3d f81f c83d
00000060: 66b0 ef3d f9c8 c73d 51ea 1fb9 f130 a4ba
00000070: 71a1 a7ba 7338 693b c77e 3c3e 804b d33d
0.0054699993 -0.0059301266 -0.0002709604 0.08465266 0.1020455 -9.884283e-05 0.07795267 -0.0021394333
-0.0051250784 0.14192063 0.00012731257 0.057502843 0.01550112 0.039640933 0.061173785 0.12845851
-0.001354679 0.0052903118 -0.0012187415 0.06674058 0.051148612 0.009926467 0.046779487 0.097717226
0.11703567 0.09755129 -0.00015250711 -0.0012526793 -0.0012789202 0.0035586625 0.18407737 0.10317135

functional_3/conv2/BiasAdd/ReadVariableOp/resource f4 [32]
00000000: dda3 82bb 1b02 d03c 3591 aebc a295 7d3d
00000010: 45df d63d e18b a53d db9c 91bb 506e e83d
00000020: 77f4 1a3d 45ae e73c 450b 1d3d f1d6 dbbb
00000030: 76ef 1fbd e1ed a6bb 002e 003d 8e50 323d
00000040: 904a c93b a404 91bb 4975 bdbc 9c69 4abb
00000050: 75da 8dba dd43 8c3c bcf0 563e 35d6 2a3d
00000060: a4d0 763d e6fd 0fbd 7ebe 37bc 0450 0b3c
00000070: c67e e3bb 47d1 cf3d 97b6 303c eb15 a83d
-0.003986819 0.025391629 -0.021309474 0.06191028 0.10491804 0.080833204 -0.0044437475 0.113491654
0.037830796 0.02828134 0.038340826 -0.0067089726 -0.039046727 -0.0050942753 0.03129387 0.043533854
0.0061429217 -0.004425602 -0.023127215 -0.0030885702 -0.0010822552 0.017122203 0.2099027 0.04170819
0.06025757 -0.035154246 -0.0112148505 0.008502964 -0.006942603 0.10147338 0.01078572 0.082073055

functional_3/conv3/BiasAdd/ReadVariableOp/resource f4 [16]
00000000: ba4c 993d 1d44 8dbd 093b 973e 17cf 643d
00000010: 44f5 20bd 4d0d c63c 7051 ac3e f35b 533e
00000020: 00bf 0a3e 693d c2bb 63a8 00bd 63a2 8bbd
00000030: 7dbf 8d3a 3942 ba3d fc9c 48bd 5e08 a53b
0.074853376 -0.06897757 0.29537228 0.05586156 -0.039296404 0.024176264 0.33655882 0.20640545
0.13549423 -0.005927731 -0.031410586 -0.06818082 0.0010814514 0.09094662 -0.048977837 0.005036398

functional_3/conv4/BiasAdd/ReadVariableOp/resource f4 [24]
00000000: 2e59 69be 2561 62bd 5000 273e 6fe6 2e3d
00000010: b5a8 b93d 8ddd f13e 717e cc3d efdc 353e
00000020: 634b cb3d 76d8 dd3d 895e 9d3b 2502 583e
00000030: 7c02 18bd 5cb2 573e 642c 3ebd b8b3 f73c
00000040: 429b 953d a251 523d c6ad 4cbc 25e3 2a3e
00000050: a822 06bb cd01 ac3d 4e90 8a3e f9f7 efbd
-0.22787926 -0.055268425 0.16308713 0.042700227 0.090653814 0.47239342 0.09985054 0.1776006
0.09926488 0.10832302 0.0048025292 0.21094568 -0.037111744 0.21064132 -0.046429053 0.030237064
0.07305004 0.051347382 -0.012492603 0.16688211 -0.0020467434 0.08398781 0.2706322 -0.11717219

functional_3/conv5/BiasAdd/ReadVariableOp/resource f4 [16]
00000000: 4edc 3dbe 121d a3bd efaf bb3d 9956 553e
00000010: b0fd babe e094 093e 1e65 36bd 0832 5d3e
00000020: 7979 31bd d93c b9bd b697 013c e4e4 f73c
00000030: c667 d1bd 893d 8a3d 6b0f 9b3e f1f3 043e
-0.18541071 -0.07964529 0.09164416 0.20833816 -0.36521673 0.13435698 -0.044530027 0.21601117
-0.043328736 -0.09044809 0.007909706 0.03026051 -0.10224871 0.06750018 0.302852 0.12983681

functional_3/dire/BiasAdd/ReadVariableOp/resource f4 [7]
00000000: 506b 283e d0d0 b93d d4df fb3d d5ab ffbc
00000010: a7c9 1abd c486 17be dadd 3fbe
0.16447186 0.09073031 0.12298551 -0.031209866 -0.037789967 -0.14797503 -0.18736973

functional_3/dire/MatMul i1 [7, 176] scale=0.01624845 zero_point=0
00000000: 0100 f103 2402 1a01 0df7 03f6 12fe ed09
00000010: 0313 e107 f2ef fb04 cfef e707 0c0b 0708
00000020: 0414 ab03 3509 d40d e5f9 01e7 ea00 f10b
00000030: ed03 06f4 1b0d d311 eceb 081a eaed f40e
00000040: e6fb 2503 ffe4 0011 dced fdf9 0902 f5d4
00000050: f908 02f1 301f 07ff fdc1 fad0 fbf1 2b06
00000060: 04d1 1013 23f7 f0ef 152d 0220 f801 181a
00000070: 02f9 0af2 fb0a f509 f607 f103 f501 0002
00000080: 10f7 1002 02f4 f302 f40f e413 10fd 00f9
00000090: fde0 fe0f e813 f3fd fd05 f6fe ebfb 0af5
000000a0: 2215 ee01 2204 d703 1814 0f0c fe13 ec08
000000b0: f6fb f008 f305 fb04 f4cf ff0a f4fb 0914
000000c0: 0003 f1fe 1506 dffc ebfb fa02 effe f90d
000000d0: 0016 bc04 c5fc d307 fda1 06fe fbf3 0b22
000000e0: ed07 f6fd 1d03 0b03 f7e7 09e0 0412 f000
000000f0: 0806 fa09 d102 e7ec 18d1 e533 10fe f80e
0.01624845 0.0 -0.24372675 0.04874535 0.5849442 0.0324969 0.4224597 0.01624845
0.21122985 -0.14623605 0.04874535 -0.1624845 0.2924721 -0.0324969 -0.30872053 0.14623605
0.04874535 0.30872053 -0.5037019 0.11373915 -0.2274783 -0.27622366 -0.08124225 0.0649938
-0.79617405 -0.27622366 -0.40621126 0.11373915 0.1949814 0.17873295 0.11373915 0.1299876
0.0649938 0.324969 -1.3811182 0.04874535 0.86116785 0.14623605 -0.7149318 0.21122985
-0.43870813 -0.11373915 0.01624845 -0.40621126 -0.3574659 0.0 -0.24372675 0.17873295
-0.30872053 0.04874535 0.0974907 -0.1949814 0.43870813 0.21122985 -0.73118025 0.27622366
-0.324969 -0.34121746 0.1299876 0.4224597 -0.3574659 -0.30872053 -0.1949814 0.2274783
-0.4224597 -0.08124225 0.60119265 0.04874535 -0.01624845 -0.4549566 0.0 0.27622366
-0.5849442 -0.30872053 -0.04874535 -0.11373915 0.14623605 0.0324969 -0.17873295 -0.7149318
-0.11373915 0.1299876 0.0324969 -0.24372675 0.7799256 0.5037019 0.11373915 -0.01624845
-0.04874535 -1.0236523 -0.0974907 -0.7799256 -0.08124225 -0.24372675 0.6986833 0.0974907
0.0649938 -0.7636771 0.2599752 0.30872053 0.5686957 -0.14623605 -0.2599752 -0.27622366
0.34121746 0.73118025 0.0324969 0.5199504 -0.1299876 0.01624845 0.3899628 0.4224597
0.0324969 -0.11373915 0.1624845 -0.2274783 -0.08124225 0.1624845 -0.17873295 0.14623605
-0.1624845 0.11373915 -0.24372675 0.04874535 -0.17873295 0.01624845 0.0 0.0324969
0.2599752 -0.14623605 0.2599752 0.0324969 0.0324969 -0.1949814 -0.21122985 0.0324969
-0.1949814 0.24372675 -0.4549566 0.30872053 0.2599752 -0.04874535 0.0 -0.11373915
-0.04874535 -0.5199504 -0.0324969 0.24372675 -0.3899628 0.30872053 -0.21122985 -0.04874535
-0.04874535 0.08124225 -0.1624845 -0.0324969 -0.34121746 -0.08124225 0.1624845 -0.17873295
0.5524473 0.34121746 -0.2924721 0.01624845 0.5524473 0.0649938 -0.66618645 0.04874535
0.3899628 0.324969 0.24372675 0.1949814 -0.0324969 0.30872053 -0.324969 0.1299876
-0.1624845 -0.08124225 -0.2599752 0.1299876 -0.21122985 0.08124225 -0.08124225 0.0649938
-0.1949814 -0.79617405 -0.01624845 0.1624845 -0.1949814 -0.08124225 0.14623605 0.324969
0.0 0.04874535 -0.24372675 -0.0324969 0.34121746 0.0974907 -0.53619885 -0.0649938
-0.34121746 -0.08124225 -0.0974907 0.0324969 -0.27622366 -0.0324969 -0.11373915 0.21122985
0.0 0.3574659 -1.1048946 0.0649938 -0.9586585 -0.0649938 -0.73118025 0.11373915
-0.04874535 -1.5436027 0.0974907 -0.0324969 -0.08124225 -0.21122985 0.17873295 0.5524473
-0.30872053 0.11373915 -0.1624845 -0.04874535 0.47120506 0.04874535 0.17873295 0.04874535
-0.14623605 -0.40621126 0.14623605 -0.5199504 0.0649938 0.2924721 -0.2599752 0.0
0.1299876 0.0974907 -0.0974907 0.14623605 -0.7636771 0.0324969 -0.40621126 -0.324969
0.3899628 -0.7636771 -0.43870813 0.8286709 0.2599752 -0.0324969 -0.1299876 0.2274783

functional_3/conv1/Conv2D f4 [32, 3, 1, 1]
00000000: b4b9 48c0 e11d ebbc dcc2 dd3c af6a fa3f
00000010: cefb ac3d 2240 05c0 ab32 0540 cc30 4240
00000020: 93d9 ac3b 9382 2240 8140 423f 7d1a dc3e
00000030: 5c76 61be 2fc7 093f 184c c23f 598b 203e
00000040: 7393 4ac0 5925 b2bc 8fe3 19c0 9b64 d4bf
00000050: 60a1 5cbf 40f5 d4bd 2477 21c0 a2d3 3840
00000060: 7614 b33f a6fc 0940 5be1 0740 07b2 e63d
00000070: 2d49 b53f 6212 db3f 9403 5840 686a f93a
00000080: 6219 fe3a e6a0 47c0 9e00 d6be f120 3fbe
00000090: c76f febf 2ca0 ebbf b68d d4bf afb1 33bf
000000a0: f526 e8bf af0b cfbf 35db 693f fe99 33be
000000b0: 4fe6 c83f 6189 8fbf 0cd6 98bf 4b06 9abf
000000c0: c8ea 1d40 1bd0 1cc0 80c4 79bb b563 bfbf
000000d0: adc9 14c0 03e2 0cc0 1238 e4bf ec29 993f
000000e0: 67a8 4040 6538 b23f 28b9 593d ca82 edbd
000000f0: 403b cdbe 8ac4 e0be 3969 e6bf 42f9 5fbf
00000100: 645c 08c0 2e4c 1bc0 0cef a23f 39c4 60bf
00000110: 6e02 32bf 22db 9a3f 9c22 b23f 51d3 513f
00000120: 93bc 8b3f e509 1540 ab74 4f3f 34df b2bf
00000130: 430c 32bf 9b10 a7be 2c3c 283e 4564 23bf
00000140: bbcc 31c0 c9bc b0bf 67d6 3a40 a8e1 fcbf
00000150: 4cc8 bb3f 88b8 d2bf 4419 833f 9c38 dc3f
00000160: 2060 3d3f bb89 2840 8d61 cd3f 46c1 203f
00000170: 7017 393f 113e 1ac0 287d 87bf 274a bcbe
-3.1363344 -0.02870077 0.027070455 1.9563807 0.084464654 -2.0820394 2.0812175 3.0342283
0.0052749603 2.5392196 0.75879675 0.4298896 -0.22017807 0.53819555 1.5179472 0.15678157
-3.1652496 -0.021746324 -2.404514 -1.6593202 -0.8618374 -0.1039834 -2.5228968 2.887917
1.3990619 2.1560454 2.1231296 0.11264425 1.4162956 1.7114985 3.3752184 0.0019028904
0.0019386227 -3.1191955 -0.41797346 -0.1866491 -1.9877862 -1.8408256 -1.6605747 -0.70193
-1.8136889 -1.617544 0.9135011 -0.17539212 1.5695285 -1.12138 -1.1940322 -1.203317
2.467455 -2.4502017 -0.0038111508 -1.4952303 -2.3248093 -2.2012947 -1.7829611 1.1965919
3.0102785 1.392346 0.053155094 -0.11597212 -0.40084267 -0.43899947 -1.8000861 -0.8748971
-2.130639 -2.4265246 1.2729201 -0.8779941 -0.6953496 1.2098124 1.3916812 0.8196307
1.0916923 2.328729 0.81037396 -1.3974366 -0.6954996 -0.32629856 0.16429204 -0.63824874
-2.7781208 -1.3807613 2.919336 -1.9756365 1.4670501 -1.6462564 1.0242085 1.7204776
0.739748 2.6334064 1.6045395 0.6279491 0.7230139 -2.4100382 -1.058507 -0.36775324

functional_3/conv2/Conv2D i1 [32, 3, 1, 32] scale=0.05478543 zero_point=0
00000000: 0409 0e01 0312 0203 22ff 0f01 fd05 fcfd
00000010: 15fc 10fc fefe fe00 0401 070a f802 0203
00000020: fd15 10fd 0211 fd09 1301 14fd fe03 fefc
00000030: 0dee 05ff fefd 0201 0401 0a08 fd03 fefb
00000040: 0108 0706 0008 0101 14ff 0dfe fe00 04fc
00000050: 08f9 0406 fbfc 0302 0301 05fc fe00 0402
00000060: f306 fa02 fff4 f4f5 0203 fdfe ecfa 03ff
00000070: f8f9 f7fe fc02 fafe 03fd 0e03 fe05 05f9
00000080: 0b0b 0504 fe01 0004 fcff 0dff 050e fdfe
00000090: 0006 0000 fd08 fa03 0600 0908 fb00 0201
000000a0: 03ff fefe 0004 0203 f8ff ff01 ff01 fc00
000000b0: 0300 06fd fbf9 0301 0003 00fe fffc 0101
000000c0: 09ec 11ff 000d 05fb 0e01 0607 02fc 0103
000000d0: 0d03 09fd 00fb fd04 0001 e3f5 0004 fc03
000000e0: ea04 0500 03ed f8f5 0a03 eff7 f3ee 02f9
000000f0: f208 f601 fd02 fe00 06fa 06f8 fb0a 03f7
0.21914172 0.49306887 0.766996 0.05478543 0.16435629 0.98613775 0.10957086 0.16435629
1.8627046 -0.05478543 0.82178146 0.05478543 -0.16435629 0.27392715 -0.21914172 -0.16435629
1.1504941 -0.21914172 0.8765669 -0.21914172 -0.10957086 -0.10957086 -0.10957086 0.0
0.21914172 0.05478543 0.383498 0.5478543 -0.43828344 0.10957086 0.10957086 0.16435629
-0.16435629 1.1504941 0.8765669 -0.16435629 0.10957086 0.9313523 -0.16435629 0.49306887
1.0409231 0.05478543 1.0957086 -0.16435629 -0.10957086 0.16435629 -0.10957086 -0.21914172
0.7122106 -0.98613775 0.27392715 -0.05478543 -0.10957086 -0.16435629 0.10957086 0.05478543
0.21914172 0.05478543 0.5478543 0.43828344 -0.16435629 0.16435629 -0.10957086 -0.27392715
0.05478543 0.43828344 0.383498 0.32871258 0.0 0.43828344 0.05478543 0.05478543
1.0957086 -0.05478543 0.7122106 -0.10957086 -0.10957086 0.0 0.21914172 -0.21914172
0.43828344 -0.383498 0.21914172 0.32871258 -0.27392715 -0.21914172 0.16435629 0.10957086
0.16435629 0.05478543 0.27392715 -0.21914172 -0.10957086 0.0 0.21914172 0.10957086
-0.7122106 0.32871258 -0.32871258 0.10957086 -0.05478543 -0.65742517 -0.65742517 -0.60263973
0.10957086 0.16435629 -0.16435629 -0.10957086 -1.0957086 -0.32871258 0.16435629 -0.05478543
-0.43828344 -0.383498 -0.49306887 -0.10957086 -0.21914172 0.10957086 -0.32871258 -0.10957086
0.16435629 -0.16435629 0.766996 0.16435629 -0.10957086 0.27392715 0.27392715 -0.383498
0.60263973 0.60263973 0.27392715 0.21914172 -0.10957086 0.05478543 0.0 0.21914172
-0.21914172 -0.05478543 0.7122106 -0.05478543 0.27392715 0.766996 -0.16435629 -0.10957086
0.0 0.32871258 0.0 0.0 -0.16435629 0.43828344 -0.32871258 0.16435629
0.32871258 0.0 0.49306887 0.43828344 -0.27392715 0.0 0.10957086 0.05478543
0.16435629 -0.05478543 -0.10957086 -0.10957086 0.0 0.21914172 0.10957086 0.16435629
-0.43828344 -0.05478543 -0.05478543 0.05478543 -0.05478543 0.05478543 -0.21914172 0.0
0.16435629 0.0 0.32871258 -0.16435629 -0.27392715 -0.383498 0.16435629 0.05478543
0.0 0.16435629 0.0 -0.10957086 -0.05478543 -0.21914172 0.05478543 0.05478543
0.49306887 -1.0957086 0.9313523 -0.05478543 0.0 0.7122106 0.27392715 -0.27392715
0.766996 0.05478543 0.32871258 0.383498 0.10957086 -0.21914172 0.05478543 0.16435629
0.7122106 0.16435629 0.49306887 -0.16435629 0.0 -0.27392715 -0.16435629 0.21914172
0.0 0.05478543 -1.5887775 -0.60263973 0.0 0.21914172 -0.21914172 0.16435629
-1.2052795 0.21914172 0.27392715 0.0 0.16435629 -1.0409231 -0.43828344 -0.60263973
0.5478543 0.16435629 -0.9313523 -0.49306887 -0.7122106 -0.98613775 0.10957086 -0.383498
-0.766996 0.43828344 -0.5478543 0.05478543 -0.16435629 0.10957086 -0.10957086 0.0
0.32871258 -0.32871258 0.32871258 -0.43828344 -0.27392715 0.5478543 0.16435629 -0.49306887

functional_3/conv3/Conv2D i1 [16, 3, 1, 32] scale=0.017685184 zero_point=0
00000000: ed32 17ff ff0f 110b 14eb fae2 e3ee 1bd6
00000010: f3fe 0d03 140a 00fd f8dc 14ed 1e0a 0cf7
00000020: 131f 180a 0a21 08fa 1605 dfe3 ddd0 0cdc
00000030: 0913 1507 1514 0df7 0ee3 14f2 13f2 f9e7
00000040: 0d17 1600 07f3 0303 130c fdf4 f0f6 1df9
00000050: f725 020a 0908 0302 eefe 1408 0005 0e02
00000060: f9f3 d801 06e0 1a08 0406 0708 0c09 e7eb
00000070: 0010 0012 df0b fc06 0806 cd02 e7fa 030b
00000080: 07e8 d6cc f8ea 1a10 e809 ea08 12ea d2c0
00000090: 000d 0f0e e900 03fc 1502 c11c f4fa 1408
000000a0: 05f6 eae0 0af3 1204 0d05 e609 0cdf e3e9
000000b0: fd13 140e f906 080a 1405 e90d f9fe 1805
000000c0: f6a3 c517 01e8 ed22 f820 2146 3065 ea29
000000d0: 08dd efe5 f20f 13f7 0d28 ddfc ff0c fb35
000000e0: 0bd6 001b ff27 e6fd 1906 2213 3024 0936
000000f0: 19dd fddc 0218 3f0b f226 1d13 f7fe 0c02
-0.3360185 0.8842592 0.40675923 -0.017685184 -0.017685184 0.26527777 0.30064812 0.19453703
0.35370368 -0.37138888 -0.10611111 -0.53055555 -0.5128704 -0.31833333 0.47749996 -0.74277776
-0.2299074 -0.03537037 0.2299074 0.053055555 0.35370368 0.17685184 0.0 -0.053055555
-0.14148147 -0.63666666 0.35370368 -0.3360185 0.53055555 0.17685184 0.21222222 -0.15916666
0.3360185 0.5482407 0.42444444 0.17685184 0.17685184 0.5836111 0.14148147 -0.10611111
0.38907406 0.08842592 -0.5836111 -0.5128704 -0.6189814 -0.8488889 0.21222222 -0.63666666
0.15916666 0.3360185 0.37138888 0.12379629 0.37138888 0.35370368 0.2299074 -0.15916666
0.24759258 -0.5128704 0.35370368 -0.24759258 0.3360185 -0.24759258 -0.12379629 -0.4421296
0.2299074 0.40675923 0.38907406 0.0 0.12379629 -0.2299074 0.053055555 0.053055555
0.3360185 0.21222222 -0.053055555 -0.21222222 -0.28296295 -0.17685184 0.5128704 -0.12379629
-0.15916666 0.65435183 0.03537037 0.17685184 0.15916666 0.14148147 0.053055555 0.03537037
-0.31833333 -0.03537037 0.35370368 0.14148147 0.0 0.08842592 0.24759258 0.03537037
-0.12379629 -0.2299074 -0.70740736 0.017685184 0.10611111 -0.5659259 0.4598148 0.14148147
0.07074074 0.10611111 0.12379629 0.14148147 0.21222222 0.15916666 -0.4421296 -0.37138888
0.0 0.28296295 0.0 0.31833333 -0.5836111 0.19453703 -0.07074074 0.10611111
0.14148147 0.10611111 -0.9019444 0.03537037 -0.4421296 -0.10611111 0.053055555 0.19453703
0.12379629 -0.42444444 -0.74277776 -0.9196296 -0.14148147 -0.38907406 0.4598148 0.28296295
-0.42444444 0.15916666 -0.38907406 0.14148147 0.31833333 -0.38907406 -0.81351846 -1.1318518
0.0 0.2299074 0.26527777 0.24759258 -0.40675923 0.0 0.053055555 -0.07074074
0.37138888 0.03537037 -1.1141666 0.49518517 -0.21222222 -0.10611111 0.35370368 0.14148147
0.08842592 -0.17685184 -0.38907406 -0.5659259 0.17685184 -0.2299074 0.31833333 0.07074074
0.2299074 0.08842592 -0.4598148 0.15916666 0.21222222 -0.5836111 -0.5128704 -0.40675923
-0.053055555 0.3360185 0.35370368 0.24759258 -0.12379629 0.10611111 0.14148147 0.17685184
0.35370368 0.08842592 -0.40675923 0.2299074 -0.12379629 -0.03537037 0.42444444 0.08842592
-0.17685184 -1.6447221 -1.0434259 0.40675923 0.017685184 -0.42444444 -0.3360185 0.60129625
-0.14148147 0.5659259 0.5836111 1.2379628 0.8488889 1.7862036 -0.38907406 0.72509253
0.14148147 -0.6189814 -0.30064812 -0.47749996 -0.24759258 0.26527777 0.3360185 -0.15916666
0.2299074 0.70740736 -0.6189814 -0.07074074 -0.017685184 0.21222222 -0.08842592 0.93731475
0.19453703 -0.74277776 0.0 0.47749996 -0.017685184 0.6897222 -0.4598148 -0.053055555
0.4421296 0.10611111 0.60129625 0.3360185 0.8488889 0.63666666 0.15916666 0.9549999
0.4421296 -0.6189814 -0.053055555 -0.63666666 0.03537037 0.42444444 1.1141666 0.19453703
-0.24759258 0.672037 0.5128704 0.3360185 -0.15916666 -0.03537037 0.21222222 0.03537037

functional_3/conv4/Conv2D i1 [24, 3, 1, 16] scale=0.022817045 zero_point=0
00000000: 1af6 f7fc 0318 09f2 f302 02f1 0dfc fb03
00000010: 09fb 0402 221c f4eb 0a12 0510 fa06 d7ee
00000020: 1cae 11fc 1518 f106 0813 0611 f808 f50f
00000030: 0f08 0bfe fd00 fcf3 10f6 fdff 030e 05f9
00000040: 0bf9 01fa 0ef9 fc02 050d 08fe 0efb e0f8
00000050: eaff 04f4 0b02 faf9 f406 f6fe 2503 eaf4
00000060: 13e3 0103 110c 0bff ef10 0dde feee 0801
00000070: 0ae7 0903 09fd 0306 fc1f fb07 03f2 0e0f
00000080: eee9 09f9 f8f6 fe00 fdf9 edfb f60c 0d00
00000090: 02c7 02f8 810e 07f7 02eb f706 17f6 e6f0
000000a0: 0a9e fff0 8914 fe02 ffe9 f700 250e c402
000000b0: 0c0d 08fe 0006 fa0d 04fd fd02 e9f6 fdef
000000c0: ec0f ff02 060a fafc 0df1 08f6 fefc f9fb
000000d0: f5f0 0204 fdf8 0a04 04e4 0cfe 0cf3 01fc
000000e0: 05f5 fe04 0d00 0f03 ef1c 0be5 f8ee 02fa
000000f0: 13fb 15f8 0215 0809 11cd fe0c 0226 f3f0
0.5932432 -0.22817045 -0.20535341 -0.09126818 0.06845114 0.5476091 0.20535341 -0.31943864
-0.2966216 0.04563409 0.04563409 -0.34225568 0.2966216 -0.09126818 -0.11408523 0.06845114
0.20535341 -0.11408523 0.09126818 0.04563409 0.77577955 0.6388773 -0.27380455 -0.47915795
0.22817045 0.41070682 0.11408523 0.36507273 -0.13690227 0.13690227 -0.93549883 -0.41070682
0.6388773 -1.8709977 0.38788977 -0.09126818 0.47915795 0.5476091 -0.34225568 0.13690227
0.18253636 0.43352386 0.13690227 0.38788977 -0.18253636 0.18253636 -0.2509875 0.34225568
0.34225568 0.18253636 0.2509875 -0.04563409 -0.06845114 0.0 -0.09126818 -0.2966216
0.36507273 -0.22817045 -0.06845114 -0.022817045 0.06845114 0.31943864 0.11408523 -0.15971932
0.2509875 -0.15971932 0.022817045 -0.13690227 0.31943864 -0.15971932 -0.09126818 0.04563409
0.11408523 0.2966216 0.18253636 -0.04563409 0.31943864 -0.11408523 -0.73014545 -0.18253636
-0.501975 -0.022817045 0.09126818 -0.27380455 0.2509875 0.04563409 -0.13690227 -0.15971932
-0.27380455 0.13690227 -0.22817045 -0.04563409 0.84423065 0.06845114 -0.501975 -0.27380455
0.43352386 -0.6616943 0.022817045 0.06845114 0.38788977 0.27380455 0.2509875 -0.022817045
-0.38788977 0.36507273 0.2966216 -0.77577955 -0.04563409 -0.41070682 0.18253636 0.022817045
0.22817045 -0.5704261 0.20535341 0.06845114 0.20535341 -0.06845114 0.06845114 0.13690227
-0.09126818 0.70732844 -0.11408523 0.15971932 0.06845114 -0.31943864 0.31943864 0.34225568
-0.41070682 -0.5247921 0.20535341 -0.15971932 -0.18253636 -0.22817045 -0.04563409 0.0
-0.06845114 -0.15971932 -0.43352386 -0.11408523 -0.22817045 0.27380455 0.2966216 0.0
0.04563409 -1.3005716 0.04563409 -0.18253636 -2.8977647 0.31943864 0.15971932 -0.20535341
0.04563409 -0.47915795 -0.20535341 0.13690227 0.5247921 -0.22817045 -0.5932432 -0.36507273
0.22817045 -2.2360704 -0.022817045 -0.36507273 -2.7152283 0.4563409 -0.04563409 0.04563409
-0.022817045 -0.5247921 -0.20535341 0.0 0.84423065 0.31943864 -1.3690227 0.04563409
0.27380455 0.2966216 0.18253636 -0.04563409 0.0 0.13690227 -0.13690227 0.2966216
0.09126818 -0.06845114 -0.06845114 0.04563409 -0.5247921 -0.22817045 -0.06845114 -0.38788977
-0.4563409 0.34225568 -0.022817045 0.04563409 0.13690227 0.22817045 -0.13690227 -0.09126818
0.2966216 -0.34225568 0.18253636 -0.22817045 -0.04563409 -0.09126818 -0.15971932 -0.11408523
-0.2509875 -0.36507273 0.04563409 0.09126818 -0.06845114 -0.18253636 0.22817045 0.09126818
0.09126818 -0.6388773 0.27380455 -0.04563409 0.27380455 -0.2966216 0.022817045 -0.09126818
0.11408523 -0.2509875 -0.04563409 0.09126818 0.2966216 0.0 0.34225568 0.06845114
-0.38788977 0.6388773 0.2509875 -0.61606026 -0.18253636 -0.41070682 0.04563409 -0.13690227
0.43352386 -0.11408523 0.47915795 -0.18253636 0.04563409 0.47915795 0.18253636 0.20535341
0.38788977 -1.1636693 -0.04563409 0.27380455 0.04563409 0.8670477 -0.2966216 -0.36507273

functional_3/conv5/Conv2D f4 [16, 1, 1, 24]
00000000: dc17 8dbe c45a 38be cb64 6b3f ae91 343f
00000010: 8322 b7bf aced dd3e 8ac9 303e 8433 553e
00000020: d6c4 d83e 00b8 92be 793a 993d 2ad4 7fbe
00000030: 10b9 e93e a62a c83d 1fc4 133f 82cb 963e
00000040: c6d8 36bf 286a 5abd b87b 6e3e 0084 93be
00000050: 6d89 863c a2d3 02bf bf6e 723e f3aa 013f
00000060: d38d 65bf 32a3 353f c63c 72bf fb84 7c3f
00000070: afcc a0bf 0e7a abbd 528f 99bd 0c90 b9be
00000080: 6a81 fbbe 7a9d 9f3e 15b2 1e3f 060e 283f
00000090: 80c9 63bb c754 7d3f 0aa4 d23e 58e9 053f
000000a0: bc6f 87be 6a96 153f 12bc cdbe 3657 37bf
000000b0: b3ba 313e e739 3f3e 3897 dcbd 7cda aebd
000000c0: c11c 5abf b292 a33f 3402 babe 9abc 89bf
000000d0: 66fd a6bd f467 173b 3b69 8f3f d5a3 e5be
000000e0: 61ab 873d e135 183f e2da 0e3f 8285 66be
000000f0: 5d75 f93e fe5e 08bf c7e0 8abe 1740 9fbe
00000100: 8a37 02bd 1b4b aebe 7f1b 6d3d d4b9 9f3d
00000110: 928a b43e 7cb0 323e 75cd f53e 0fb9 0dbe
00000120: e5f0 61be fd80 a03e 1d34 8a3f d614 913f
00000130: a145 703e 36f2 023e 0fb8 ddbe 5453 fb3e
00000140: 545d 14be 8881 0d3e 09aa c8be 915c 073e
00000150: 1219 a9be bbb5 8c3e ea89 4cbe 1987 eabe
00000160: 537b d53e d4a1 aa3e fc2f 453f 28d7 9a3e
00000170: f6c8 9c3e aa89 2bbf d90e 473f 5bfd dc3e
00000180: 8ec3 3b3e 1611 8f3f 04fc 26bf feca 2cc0
00000190: b6e5 053f 3592 27be 66a5 6b3e d253 76bd
000001a0: bbfc 20be 362d 0f3e ae59 18bf b454 05be
000001b0: 284b acbd 92ed 0ebf f35c fdbe 699f d0bd
000001c0: ee09 cc3d 2f8d 733e 76df d23e 6795 e33e
000001d0: 4339 bfbe c18e ab3d 2c20 b63e d44c dc3e
000001e0: a405 803f c33c 5cbe 7908 50bf 31dd 903f
000001f0: d3e1 cfbd 09c6 40be ead4 aa3e d39e f13e
00000200: 8622 16be 0ddf 0bbe cdab 17be dd61 eebb
00000210: d1f8 363e 6f4e 093e c71d 5abe 5d7d 373e
00000220: 7f8c fb3e a375 98be fe99 56be 53f8 8abf
00000230: 0897 80be 9950 83be 45e7 393f a49e 2e40
00000240: 9797 8f3e 2dff c73f 3c50 77be 5a04 05bf
00000250: aff7 4b3f e079 8cbe 56cf 1cbf 83c4 bfbc
00000260: 6bf8 1d3e ae64 2d3c b28e e3be cc8c 043e
00000270: 665b a5be ed33 e83e cd51 f43e 6894 603f
00000280: 1d4f 2c3e 9bdd 1e3f 4110 9bbe d791 0bbf
00000290: 2aee b9be 8c7b a7bf 00de d53e 9b5d 16be
000002a0: 83e2 aa3e 9611 16bf 0584 c0be 6a7d 30c0
000002b0: e869 933f 0981 9c3e c523 c4bd d479 1c3e
000002c0: ab83 19be 6942 ee3e 89f8 98be 0873 ddbd
000002d0: 61a8 e13e 8bf0 d83e 51ba 0fbf 3b46 bb3e
000002e0: 7548 3e3f 6842 babc 1352 43be 3ac2 02bf
000002f0: 50c8 8a3e 9be0 3b3e 09c2 493e 8e64 973f
00000300: 47d6 5b3f 7253 57be b8d1 183f 7528 2e3e
00000310: d904 6bbf 5712 a1bd c508 c1be fcc4 db3e
00000320: 4e54 053f c002 89be 9f38 fe3e 355f f7bd
00000330: 344e 283e 6e77 c0be f0a6 b13e 7567 bd3c
00000340: 7160 09bf 01b0 523e 3e11 803e f088 fa3e
00000350: 9454 8c3e 42d8 4cbe f016 debe 553a 603f
00000360: 73db 18bf 9735 a63f 4148 b63e 49d3 f2be
00000370: ccd4 d8bf c355 ecbe ad1b 4b3f 573d 503e
00000380: 4011 0cbe d501 1d3e dcba 2fbf fee1 08bf
00000390: 79bd 453e 91f4 a73e ee4b 8b3d 944c 593e
000003a0: 52b2 6e3e 1e0c 34be 53f4 333d 106f 0d3e
000003b0: 91f8 38be b3f7 2abd 8d15 b73d f7cb 363f
000003c0: ee45 8fbf c34a 24bf 35ba 85bf 218c 0d3f
000003d0: 16e6 9c3e 5d52 073e 72f6 aa3e 6906 8f3e
000003e0: 5383 ab3e dae2 2cbd 02d6 b53e acea 443f
000003f0: c32b 48bd 1047 4dbe 122c e1bf c1ea a23e
-0.27557266 -0.18003374 0.9195067 0.7053479 -1.4307407 0.43345392 0.17264381 0.20820433
0.42337674 -0.28656006 0.07481856 -0.24983278 0.45649004 0.097737595 0.5772113 0.2945214
-0.7142452 -0.053323895 0.23289382 -0.28811646 0.016422952 -0.51104176 0.23675059 0.5065147
-0.8966953 0.7095214 -0.9462398 0.9864041 -1.2562464 -0.083728895 -0.07498039 -0.36242712
-0.49122173 0.31174833 0.6199048 0.656464 -0.0034757555 0.98957485 0.41140777 0.5230918
-0.26452434 0.5843264 -0.4018255 -0.7161745 0.17356376 0.18674432 -0.1077103 -0.08537766
-0.85200125 1.2779143 -0.36329806 -1.0760682 -0.08153801 0.0023102732 1.1203989 -0.44851556
0.06624485 0.5945721 0.5580274 -0.22511867 0.48722354 -0.53269947 -0.27124617 -0.31103584
-0.031791247 -0.34041676 0.05788755 0.07799116 0.3526197 0.17450136 0.48008314 -0.13840126
-0.2206455 0.3134841 1.0797154 1.1334484 0.23464061 0.12787709 -0.43304488 0.49087012
-0.14488727 0.13818944 -0.39192227 0.13218905 -0.3302694 0.274824 -0.19974485 -0.45806196
0.4169565 0.3332659 0.77026343 0.30242276 0.3062207 -0.67006934 0.7775703 0.43162045
0.18336317 1.1177089 -0.65228295 -2.6998897 0.52303636 -0.16364367 0.23012313 -0.06013853
-0.15721409 0.1398209 -0.5951184 -0.13020593 -0.084127724 -0.55831254 -0.49484977 -0.10186655
0.099628314 0.23784326 0.41186112 0.44449922 -0.37348375 0.083768375 0.3557142 0.43027365
1.0001721 -0.21507554 -0.8126293 1.1317502 -0.101504944 -0.18825544 0.33365566 0.47191486
-0.14661607 -0.13659306 -0.1481163 -0.00727485 0.17868353 0.13408826 -0.21300422 0.17918916
0.49130628 -0.2977725 -0.20957181 -1.0857033 -0.25115228 -0.2564743 0.72618514 2.7284327
0.2804534 1.5624748 -0.241517 -0.51959765 0.7967481 -0.27436733 -0.6125387 -0.023409134
0.15426795 0.010583086 -0.44444805 0.12944335 -0.32296294 0.45352116 0.4771866 0.8772645
0.16827054 0.62056893 -0.30285838 -0.5451941 -0.36314517 -1.3084579 0.41770935 -0.14684145
0.3337594 -0.58620584 -0.37600723 -2.7576547 1.1516695 0.30567196 -0.09577135 0.15280849
-0.14991634 0.46535042 -0.29877117 -0.10812956 0.44073775 0.4237102 -0.5614367 0.3657702
0.7432931 -0.022736743 -0.19074278 -0.51077616 0.2710595 0.18347399 0.19702925 1.1827562
0.85873836 -0.21027926 0.59695005 0.1700762 -0.9180427 -0.07864826 -0.37702003 0.42923725
0.52081764 -0.2675991 0.49652573 -0.12078706 0.16436082 -0.37591118 0.34697676 0.023120621
-0.5366278 0.20574953 0.25013155 0.489326 0.27408278 -0.20004371 -0.43376875 0.8758901
-0.5970985 1.2985104 0.35602 -0.47426823 -1.693994 -0.4615918 0.79339105 0.203359
-0.13678455 0.1533273 -0.686445 -0.53469837 0.1931056 0.32803777 0.06801592 0.21220618
0.23310211 -0.17582747 0.043934178 0.13811898 -0.1806357 -0.04174013 0.08939657 0.71404976
-1.1193216 -0.6417658 -1.0447451 0.55291945 0.30644292 0.13215013 0.33391148 0.27934578
0.3349863 -0.04220853 0.35514838 0.7692058 -0.04886986 -0.2004664 -1.7591574 0.31819728
