columbus/src/main/assets/columbus/12/tap7cls_redfin.tflite (tflite, 13520 bytes, 12 tensors)

functional_3/conv1/BiasAdd/ReadVariableOp/resource f4 [32]
000000 06 af 70 3d eb c0 9a 3d 3c 22 58 3b a1 5e 6c 39
       0.058760665 0.075563274 0.003297939 0.00022541966
000010 b0 0b de 3c 94 70 76 3c 78 e8 28 3d c1 df 38 3b
       0.027105182 0.015041489 0.041237324 0.002820954
000020 46 85 4b 3b 0b e9 8f bc f8 e2 5e b9 25 a1 88 3d
       0.003105478 -0.017567178 -0.00021256122 0.06671361
000030 84 37 8f 3d ec 44 fe 3c 8e a2 96 b9 5f bf 53 3c
       0.06993011 0.031038724 -0.00028731342 0.012924044
000040 99 8c 7f 38 ab e4 e8 3c 32 ff 68 3d 8e 8f 85 3c
       6.092768e-05 0.02842935 0.056884 0.016303804
000050 64 a0 46 bc bf c5 fd 3a 9f 79 0d 3d 5d 8f 89 3d
       -0.012123201 0.0019361301 0.034539815 0.067167975
000060 3a c2 a9 3c 4a dc 6c ba 3a 94 b9 3b 18 eb cd b8
       0.020722497 -0.0009035511 0.005663422 -9.8189514e-05
000070 7c b8 4b 3d d5 6d 58 ba ee 2d c4 3c 29 97 5d 3a
       0.049736485 -0.00082561123 0.023947682 0.00084530056

functional_3/conv2/BiasAdd/ReadVariableOp/resource f4 [32]
000000 5a 9a 13 3d 87 d1 c8 3d bd 2e 1b bc 1d e6 82 bc
       0.036035873 0.09805589 -0.0094715925 -0.015978867
000010 3f da 3f bd 8c f4 65 bd 2a 87 a7 3e e4 e0 94 bc
       -0.046838995 -0.05614142 0.3272031 -0.018173642
000020 3b b2 4e bc e4 da ca 3d 4c fb 01 3d d0 e4 01 3e
       -0.012615736 0.09905031 0.031733796 0.12684941
000030 b8 e5 c6 bc e2 eb 8f 3d 14 5f 05 bd 72 06 d2 bc
       -0.02427946 0.07027413 -0.032561377 -0.025637839
000040 71 8c 8d bb 7b 3e b1 bc 51 b8 ec 3c ff ae 4a bd
       -0.0043197204 -0.021636238 0.028896483 -0.049483296
000050 02 73 d8 3d 5e fa 23 bc 93 b5 2e 3d 96 d6 d5 3d
       0.10568811 -0.010008423 0.04265363 0.1044132
000060 c0 46 70 bd 81 e5 d2 3d 76 fb 57 bd 92 69 fd 3c
       -0.058661222 0.10297681 -0.052730046 0.030934129
000070 3e d7 6b bc 33 e1 41 bc 8e e7 61 3d 83 61 66 3e
       -0.014394579 -0.011833477 0.05515247 0.22498135

functional_3/conv3/BiasAdd/ReadVariableOp/resource f4 [16]
000000 87 3a f7 3d 9e d2 5e 3e 84 b5 1d be eb a3 97 3e
       0.1207171 0.21760032 -0.15401274 0.29617247
000010 28 f5 a0 bd ce 96 6f 3e aa ef 3b 3d 87 1c 8f 3b
       -0.0785926 0.23397371 0.04588286 0.0043674144
000020 29 00 99 3d d4 89 49 3d d0 68 8a 3d d4 83 77 3d
       0.07470734 0.04920371 0.06758273 0.060428455
000030 a3 5d 12 3e 30 ef aa 3d bf 4c f6 3d ce fd f2 3c
       0.14293532 0.08346403 0.12026357 0.02966204

functional_3/conv4/BiasAdd/ReadVariableOp/resource f4 [24]
000000 c6 c0 76 3e dd 40 6f 3e 31 71 9a be b5 d5 3f 3c
       0.24096975 0.23364587 -0.30164483 0.011708667
000010 d6 9d e5 3e 9d f8 0c 3e 43 f7 c4 bd 81 59 57 bd
       0.44846982 0.13766713 -0.09617474 -0.052575592
000020 6a 90 cb 3e 3e 10 61 bd 40 ca 9e be f3 ac 34 3b
       0.39758617 -0.05494713 -0.3101368 0.0027568906
000030 5b fe f3 bc 04 6a c1 3d c7 64 ee 3d 09 b9 9e be
       -0.029784372 0.09444049 0.116403155 -0.31000546
000040 aa 74 3c bf b7 f4 d9 39 dc 2a 22 bc 13 99 76 be
       -0.73615515 0.00041571792 -0.009897914 -0.2408183
000050 79 d6 ef 3c 19 ad 45 bf 38 ca 94 3e 78 3a a9 3d
       0.029277073 -0.7721725 0.2906053 0.08263105

functional_3/conv5/BiasAdd/ReadVariableOp/resource f4 [16]
000000 e4 e9 ba 3c e9 75 97 bd 7d 7c 6c be 85 7b 38 3e
       0.022816606 -0.073955365 -0.23094364 0.18015869
000010 c4 ed 3d 3d e1 94 c8 3e 7e 04 a5 3e de 86 d2 3c
       0.04636933 0.39176086 0.3222999 0.025699075
000020 17 4f 45 bd d9 96 1b be d4 a4 a5 be d5 85 ca be
       -0.04817113 -0.15194263 -0.32352316 -0.3955523
000030 f5 bc 0f 3f 70 c4 82 bf 77 9c dd 3e 49 04 b2 3d
       0.561477 -1.0216198 0.43283436 0.086922236

functional_3/dire/BiasAdd/ReadVariableOp/resource f4 [7]
000000 74 b7 88 3e 1d 97 e4 3e 11 9b 32 3e 19 43 b2 be
       0.26702464 0.4464654 0.17441966 -0.34816816
000010 02 61 a9 be a2 b2 80 3e c3 4e f0 be
       -0.33081824 0.25136286 -0.4693509

functional_3/dire/MatMul i1 [7, 176] scale=0.030633958 zero_point=0
000000 07 f5 0f f3 ef f0 ff 09 fe 0f 04 fe f8 f6 0a f9
       0.21443771 -0.33697355 0.45950937 -0.39824146 -0.5207773 -0.49014333 -0.030633958 0.27570564 -0.061267916 0.45950937 0.12253583 -0.061267916 -0.24507166 -0.3063396 0.3063396 -0.21443771
000010 e9 07 fc ff 0d f4 0b 09 fe f3 03 f5 fb ff 01 02
       -0.704581 0.21443771 -0.12253583 -0.030633958 0.39824146 -0.3676075 0.33697355 0.27570564 -0.061267916 -0.39824146 0.091901876 -0.33697355 -0.1531698 -0.030633958 0.030633958 0.061267916
000020 07 fa 06 fe ef e9 01 03 03 2a f7 fb f9 f9 07 06
       0.21443771 -0.18380375 0.18380375 -0.061267916 -0.5207773 -0.704581 0.030633958 0.091901876 0.091901876 1.2866262 -0.27570564 -0.1531698 -0.21443771 -0.21443771 0.21443771 0.18380375
000030 f5 0c fd f6 f5 02 fa 03 05 04 f8 03 f6 fe f9 07
       -0.33697355 0.3676075 -0.091901876 -0.3063396 -0.33697355 0.061267916 -0.18380375 0.091901876 0.1531698 0.12253583 -0.24507166 0.091901876 -0.3063396 -0.061267916 -0.21443771 0.21443771
000040 fc 09 0c e5 0a fc 02 f9 04 18 03 fe e5 0f 01 03
       -0.12253583 0.27570564 0.3676075 -0.82711685 0.3063396 -0.12253583 0.061267916 -0.21443771 0.12253583 0.735215 0.091901876 -0.061267916 -0.82711685 0.45950937 0.030633958 0.091901876
000050 ff 05 f8 f7 fa 0d 02 12 05 09 f6 10 01 06 06 07
       -0.030633958 0.1531698 -0.24507166 -0.27570564 -0.18380375 0.39824146 0.061267916 0.5514113 0.1531698 0.27570564 -0.3063396 0.49014333 0.030633958 0.18380375 0.18380375 0.21443771
000060 0b 01 05 07 05 03 0e ff fb fd 01 fd fb f6 00 f8
       0.33697355 0.030633958 0.1531698 0.21443771 0.1531698 0.091901876 0.42887542 -0.030633958 -0.1531698 -0.091901876 0.030633958 -0.091901876 -0.1531698 -0.3063396 0.0 -0.24507166
000070 f4 04 ff 0b fa 03 08 f8 fe ef fd 08 00 fd f9 fd
       -0.3676075 0.12253583 -0.030633958 0.33697355 -0.18380375 0.091901876 0.24507166 -0.24507166 -0.061267916 -0.5207773 -0.091901876 0.24507166 0.0 -0.091901876 -0.21443771 -0.091901876
000080 0a fb 12 0f fb fa fa 0b 05 16 ff fb f5 fd fe 06
       0.3063396 -0.1531698 0.5514113 0.45950937 -0.1531698 -0.18380375 -0.18380375 0.33697355 0.1531698 0.6739471 -0.030633958 -0.1531698 -0.33697355 -0.091901876 -0.061267916 0.18380375
000090 06 03 03 e8 05 0c 07 fd 04 b4 f2 fe fa fc 00 03
       0.18380375 0.091901876 0.091901876 -0.735215 0.1531698 0.3676075 0.21443771 -0.091901876 0.12253583 -2.3281808 -0.42887542 -0.061267916 -0.18380375 -0.12253583 0.0 0.091901876
0000a0 05 06 08 2a ec f0 f6 fe 00 1b fd 07 f9 fe fb fa
       0.1531698 0.18380375 0.24507166 1.2866262 -0.6126792 -0.49014333 -0.3063396 -0.061267916 0.0 0.82711685 -0.091901876 0.21443771 -0.21443771 -0.061267916 -0.1531698 -0.18380375
0000b0 f8 f8 eb 15 08 ff f5 00 03 fe ed fc e7 00 0d 07
       -0.24507166 -0.24507166 -0.6433131 0.6433131 0.24507166 -0.030633958 -0.33697355 0.0 0.091901876 -0.061267916 -0.5820452 -0.12253583 -0.76584893 0.0 0.39824146 0.21443771
0000c0 f6 f0 04 fe fe f5 f4 0d 01 f6 0b f9 eb 05 f5 fc
       -0.3063396 -0.49014333 0.12253583 -0.061267916 -0.061267916 -0.33697355 -0.3676075 0.39824146 0.030633958 -0.3063396 0.33697355 -0.21443771 -0.6433131 0.1531698 -0.33697355 -0.12253583
0000d0 ff fa ee 0a 0a 05 f0 06 fd e9 eb 02 f5 ff 06 04
       -0.030633958 -0.18380375 -0.5514113 0.3063396 0.3063396 0.1531698 -0.49014333 0.18380375 -0.091901876 -0.704581 -0.6433131 0.061267916 -0.33697355 -0.030633958 0.18380375 0.12253583
0000e0 fc 1b 0b 14 fa fa 03 fa 02 00 fd 06 1c fd fa 00
       -0.12253583 0.82711685 0.33697355 0.6126792 -0.18380375 -0.18380375 0.091901876 -0.18380375 0.061267916 0.0 -0.091901876 0.18380375 0.85775083 -0.091901876 -0.18380375 0.0
0000f0 04 f1 00 db 01 06 ec 0b 01 ee 03 00 0e ed fa fb
       0.12253583 -0.45950937 0.0 -1.1334565 0.030633958 0.18380375 -0.6126792 0.33697355 0.030633958 -0.5514113 0.091901876 0.0 0.42887542 -0.5820452 -0.18380375 -0.1531698

functional_3/conv1/Conv2D f4 [32, 3, 1, 1]
000000 6c da 7e 3f d3 b1 42 3f bf 9a 15 40 b7 14 cc 3e
       0.99552035 0.7605259 2.33757 0.39859554
000010 4b 91 23 bf 67 a3 42 c0 ea 9c 06 bf 9e 6a d1 3f
       -0.63893574 -3.0412233 -0.5258318 1.6360662
000020 07 4e 03 40 e6 4c 42 3f 43 cb 07 40 b3 3d b9 3f
       2.0516374 0.7589859 2.121781 1.4471954
000030 de cb 00 c0 d7 42 bd bf 70 22 c5 3f 8b 47 28 c0
       -2.012443 -1.4786023 1.5401134 -2.6293666
000040 19 2d d5 bf ab 66 c2 be c6 d4 e4 bf c9 07 98 bb
       -1.6654388 -0.37968954 -1.7877433 -0.0046396
000050 08 40 da 3e 97 85 0e 3f 19 77 f0 bf f6 af 13 c0
       0.42626977 0.5567259 -1.8786346 -2.3076148
000060 2c a4 00 c0 07 17 45 be 39 53 db bf d0 07 2e 40
       -2.0100203 -0.19247065 -1.7134773 2.7192268
000070 e5 a4 d1 bc 66 44 13 bf 1c 47 18 c0 47 b2 b0 be
       -0.025591323 -0.5752624 -2.3793402 -0.34511015
000080 4b 1f f0 3f f4 d7 1a c0 1a a8 a0 bc 4c ea c7 bc
       1.875955 -2.4194307 -0.019611407 -0.024403714
000090 2c 85 d9 bf 7e 4e 88 bf 2b 13 ad bf b1 10 eb bf
       -1.6993766 -1.0648954 -1.3521475 -1.8364469
0000a0 54 50 9f bf 6a a1 8a bf 3d 54 83 c0 7a 7b a7 bd
       -1.2446389 -1.083051 -4.104033 -0.08177848
0000b0 f5 70 96 3a 80 e1 7e bf 68 3e 44 c0 b8 bd 0b c0
       0.0011477756 -0.99562836 -3.066309 -2.1834545
0000c0 34 57 cb 3f 3f 30 e7 3f 39 37 31 3c 56 84 25 40
       1.5885987 1.8061599 0.010816389 2.5862021
0000d0 3a 1a b4 be ff 35 e5 bf a1 bd fc be cb 5c c0 be
       -0.3517626 -1.7907103 -0.49363425 -0.37570795
0000e0 b5 93 ee bf f5 40 e5 3f a6 41 16 40 07 45 05 c0
       -1.8638827 1.7910448 2.3477569 -2.082338
0000f0 5e 48 c5 bf 59 a6 d1 bf f0 77 95 be 18 72 d6 bf
       -1.541271 -1.637889 -0.29193068 -1.6753569
000100 e3 ad d8 bf d1 6e b0 be 21 4f 62 be f0 e8 82 bf
       -1.6928066 -0.34459546 -0.22100498 -1.0227337
000110 6b 8e 2c bd 5c 6b f5 be 3c c6 ae bf 72 7c 6a 3e
       -0.042128008 -0.4793347 -1.3654246 0.22899035
000120 a5 05 94 bf 33 38 e0 3d e5 b9 21 40 40 0b e6 3f
       -1.1564223 0.10948219 2.526971 1.7972183
000130 e3 cd 3f c0 8b 6c c7 3f 21 41 08 40 70 e8 97 3e
       -2.9969413 1.558 2.1289752 0.29669523
000140 4f 65 cd 3f 8c 50 8e 3f be d1 34 be a0 30 28 c0
       1.6046542 1.1118331 -0.17658135 -2.6279678
000150 61 69 55 bf 5c ee 0c c0 5f a3 f0 bf 06 f9 97 bf
       -0.8336392 -2.2020483 -1.8799857 -1.1872871
000160 cf 41 2b 40 84 1e 0b c0 11 29 50 c0 8c 15 13 40
       2.6758916 -2.1737375 -3.2525065 2.29819
000170 1f dd 9c 3c 69 68 f5 3f 23 15 89 3f b5 0c c2 bb
       0.019148408 1.9172488 1.0709575 -0.005921925

functional_3/conv2/Conv2D i1 [32, 3, 1, 32] scale=0.058437254 zero_point=0
000000 ff 04 01 ff fe 01 ff fe fb f8 0a 05 01 fd 0f 01
       -0.058437254 0.23374902 0.058437254 -0.058437254 -0.11687451 0.058437254 -0.058437254 -0.11687451 -0.29218626 -0.46749803 0.5843725 0.29218626 0.058437254 -0.17531176 0.87655884 0.058437254
000010 03 fe 03 fe 02 07 04 02 fb 06 f9 04 04 08 fe 03
       0.17531176 -0.11687451 0.17531176 -0.11687451 0.11687451 0.40906078 0.23374902 0.11687451 -0.29218626 0.35062352 -0.40906078 0.23374902 0.23374902 0.46749803 -0.11687451 0.17531176
000020 ff 08 02 fe 01 05 00 15 fd 02 02 05 04 03 00 0a
       -0.058437254 0.46749803 0.11687451 -0.11687451 0.058437254 0.29218626 0.0 1.2271824 -0.17531176 0.11687451 0.11687451 0.29218626 0.23374902 0.17531176 0.0 0.5843725
000030 08 ff 06 02 03 0f 03 05 f9 09 f4 17 04 0a fd 07
       0.46749803 -0.058437254 0.35062352 0.11687451 0.17531176 0.87655884 0.17531176 0.29218626 -0.40906078 0.5259353 -0.70124704 1.3440568 0.23374902 0.5843725 -0.17531176 0.40906078
000040 ff 05 06 02 00 02 00 01 f3 fd 05 01 ff 01 04 04
       -0.058437254 0.29218626 0.35062352 0.11687451 0.0 0.11687451 0.0 0.058437254 -0.7596843 -0.17531176 0.29218626 0.058437254 -0.058437254 0.058437254 0.23374902 0.23374902
000050 02 00 03 01 fd 05 03 ff f9 00 f5 02 ff fd fb fc
       0.11687451 0.0 0.17531176 0.058437254 -0.17531176 0.29218626 0.17531176 -0.058437254 -0.40906078 0.0 -0.6428098 0.11687451 -0.058437254 -0.17531176 -0.29218626 -0.23374902
000060 04 03 fb fe 03 ff 00 0a fe 0b 04 05 03 04 02 00
       0.23374902 0.17531176 -0.29218626 -0.11687451 0.17531176 -0.058437254 0.0 0.5843725 -0.11687451 0.6428098 0.23374902 0.29218626 0.17531176 0.23374902 0.11687451 0.0
000070 fc 04 01 00 09 02 06 06 fb 05 f7 0b 04 04 03 02
       -0.23374902 0.23374902 0.058437254 0.0 0.5259353 0.11687451 0.35062352 0.35062352 -0.29218626 0.29218626 -0.5259353 0.6428098 0.23374902 0.23374902 0.17531176 0.11687451
000080 07 02 07 07 ff 01 05 09 06 fe 0b 01 07 04 0b 06
       0.40906078 0.11687451 0.40906078 0.40906078 -0.058437254 0.058437254 0.29218626 0.5259353 0.35062352 -0.11687451 0.6428098 0.058437254 0.40906078 0.23374902 0.6428098 0.35062352
000090 ff fa ff f5 07 0b fe 01 07 01 ee 07 00 01 fa f8
       -0.058437254 -0.35062352 -0.058437254 -0.6428098 0.40906078 0.6428098 -0.11687451 0.058437254 0.40906078 0.058437254 -1.0518706 0.40906078 0.0 0.058437254 -0.35062352 -0.46749803
0000a0 02 06 0a 0f fb ff 00 07 02 fb 0b 00 03 01 03 02
       0.11687451 0.35062352 0.5843725 0.87655884 -0.29218626 -0.058437254 0.0 0.40906078 0.11687451 -0.29218626 0.6428098 0.0 0.17531176 0.058437254 0.17531176 0.11687451
0000b0 0c 06 00 03 01 fe 04 04 fe 03 03 0a 04 07 fa 0d
       0.70124704 0.35062352 0.0 0.17531176 0.058437254 -0.11687451 0.23374902 0.23374902 -0.11687451 0.17531176 0.17531176 0.5843725 0.23374902 0.40906078 -0.35062352 0.7596843
0000c0 ff 02 0a 0a ff ff fe 04 fb 04 13 02 ff fe 00 05
       -0.058437254 0.11687451 0.5843725 0.5843725 -0.058437254 -0.058437254 -0.11687451 0.23374902 -0.29218626 0.23374902 1.1103078 0.11687451 -0.058437254 -0.11687451 0.0 0.29218626
0000d0 0a 07 ff 03 0b 0c fe 02 0a 12 02 0d 01 0c 01 08
       0.5843725 0.40906078 -0.058437254 0.17531176 0.6428098 0.70124704 -0.11687451 0.11687451 0.5843725 1.0518706 0.11687451 0.7596843 0.058437254 0.70124704 0.058437254 0.46749803
0000e0 00 03 0b 0b fb f8 03 00 f7 0c 06 ff 02 fd 00 fd
       0.0 0.17531176 0.6428098 0.6428098 -0.29218626 -0.46749803 0.17531176 0.0 -0.5259353 0.70124704 0.35062352 -0.058437254 0.11687451 -0.17531176 0.0 -0.17531176
0000f0 0d 02 04 fd 08 f4 ff fd ff 03 0a fb 01 03 0a 06
       0.7596843 0.11687451 0.23374902 -0.17531176 0.46749803 -0.70124704 -0.058437254 -0.17531176 -0.058437254 0.17531176 0.5843725 -0.29218626 0.058437254 0.17531176 0.5843725 0.35062352

functional_3/conv3/Conv2D i1 [16, 3, 1, 32] scale=0.06698135 zero_point=0
000000 01 01 00 03 00 04 fd 04 02 00 00 00 02 06 02 f9
       0.06698135 0.06698135 0.0 0.20094407 0.0 0.2679254 -0.20094407 0.2679254 0.1339627 0.0 0.0 0.0 0.1339627 0.40188813 0.1339627 -0.46886948
000010 02 05 fc 00 01 04 06 05 06 02 fe 00 02 04 08 01
       0.1339627 0.33490676 -0.2679254 0.0 0.06698135 0.2679254 0.40188813 0.33490676 0.40188813 0.1339627 -0.1339627 0.0 0.1339627 0.2679254 0.5358508 0.06698135
000020 05 ff ff 02 0a ff 01 f7 fe 05 fe 05 02 05 0c 00
       0.33490676 -0.06698135 -0.06698135 0.1339627 0.6698135 -0.06698135 0.06698135 -0.6028322 -0.1339627 0.33490676 -0.1339627 0.33490676 0.1339627 0.33490676 0.80377626 0.0
000030 03 07 ff 04 03 02 02 fe fb 0f fd 00 05 f9 02 fd
       0.20094407 0.46886948 -0.06698135 0.2679254 0.20094407 0.1339627 0.1339627 -0.1339627 -0.33490676 1.0047203 -0.20094407 0.0 0.33490676 -0.46886948 0.1339627 -0.20094407
000040 04 01 fe ff 06 02 03 fa 0c 03 fb 08 01 04 03 fd
       0.2679254 0.06698135 -0.1339627 -0.06698135 0.40188813 0.1339627 0.20094407 -0.40188813 0.80377626 0.20094407 -0.33490676 0.5358508 0.06698135 0.2679254 0.20094407 -0.20094407
000050 fb f9 08 04 01 0b 06 0c ff 05 01 ff 03 fa f2 03
       -0.33490676 -0.46886948 0.5358508 0.2679254 0.06698135 0.7367949 0.40188813 0.80377626 -0.06698135 0.33490676 0.06698135 -0.06698135 0.20094407 -0.40188813 -0.93773896 0.20094407
000060 fa 05 fb 06 05 fb ff 05 00 fb fe ff 05 ff 0a f9
       -0.40188813 0.33490676 -0.33490676 0.40188813 0.33490676 -0.33490676 -0.06698135 0.33490676 0.0 -0.33490676 -0.1339627 -0.06698135 0.33490676 -0.06698135 0.6698135 -0.46886948
000070 01 fb fe f9 05 01 f9 f9 03 fc 05 fc f6 04 02 01
       0.06698135 -0.33490676 -0.1339627 -0.46886948 0.33490676 0.06698135 -0.46886948 -0.46886948 0.20094407 -0.2679254 0.33490676 -0.2679254 -0.6698135 0.2679254 0.1339627 0.06698135
000080 00 01 fe 09 05 00 00 06 04 f9 00 02 03 04 0e 01
       0.0 0.06698135 -0.1339627 0.6028322 0.33490676 0.0 0.0 0.40188813 0.2679254 -0.46886948 0.0 0.1339627 0.20094407 0.2679254 0.93773896 0.06698135
000090 01 fa 07 fb 03 07 f8 fa 05 f7 05 fd f9 05 fd 04
       0.06698135 -0.40188813 0.46886948 -0.33490676 0.20094407 0.46886948 -0.5358508 -0.40188813 0.33490676 -0.6028322 0.33490676 -0.20094407 -0.46886948 0.33490676 -0.20094407 0.2679254
0000a0 01 ff fd 05 fd fe 06 fc 07 ff 00 01 03 00 03 03
       0.06698135 -0.06698135 -0.20094407 0.33490676 -0.20094407 -0.1339627 0.40188813 -0.2679254 0.46886948 -0.06698135 0.0 0.06698135 0.20094407 0.0 0.20094407 0.20094407
0000b0 04 f8 0a 00 00 03 f8 ff 05 fe 00 04 03 fe 04 03
       0.2679254 -0.5358508 0.6698135 0.0 0.0 0.20094407 -0.5358508 -0.06698135 0.33490676 -0.1339627 0.0 0.2679254 0.20094407 -0.1339627 0.2679254 0.20094407
0000c0 01 fb 02 fa fd fc 00 fe 0a fa fa fd fb 03 fd 07
       0.06698135 -0.33490676 0.1339627 -0.40188813 -0.20094407 -0.2679254 0.0 -0.1339627 0.6698135 -0.40188813 -0.40188813 -0.20094407 -0.33490676 0.20094407 -0.20094407 0.46886948
0000d0 06 f6 fe 09 01 fa fb fd 08 fb 00 02 15 fa 05 fd
       0.40188813 -0.6698135 -0.1339627 0.6028322 0.06698135 -0.40188813 -0.33490676 -0.20094407 0.5358508 -0.33490676 0.0 0.1339627 1.4066085 -0.40188813 0.33490676 -0.20094407
0000e0 ff 00 03 fe 05 00 03 03 0e 00 fc 08 01 07 03 04
       -0.06698135 0.0 0.20094407 -0.1339627 0.33490676 0.0 0.20094407 0.20094407 0.93773896 0.0 -0.2679254 0.5358508 0.06698135 0.46886948 0.20094407 0.2679254
0000f0 04 f7 f4 08 08 04 fe 01 11 fa 0a fe 18 fa 06 fd
       0.2679254 -0.6028322 -0.80377626 0.5358508 0.5358508 0.2679254 -0.1339627 0.06698135 1.138683 -0.40188813 0.6698135 -0.1339627 1.6075525 -0.40188813 0.40188813 -0.20094407

functional_3/conv4/Conv2D i1 [24, 3, 1, 16] scale=0.04588793 zero_point=0
000000 07 f7 05 fe fe 07 fb fc 15 03 05 09 01 04 fd 09
       0.3212155 -0.41299134 0.22943965 -0.09177586 -0.09177586 0.3212155 -0.22943965 -0.18355171 0.9636465 0.13766378 0.22943965 0.41299134 0.04588793 0.18355171 -0.13766378 0.41299134
000010 ff fe fe 08 fc 09 f8 09 db 01 00 f3 0b 05 d6 01
       -0.04588793 -0.09177586 -0.09177586 0.36710343 -0.18355171 0.41299134 -0.36710343 0.41299134 -1.6978533 0.04588793 0.0 -0.5965431 0.50476724 0.22943965 -1.927293 0.04588793
000020 07 00 ff 00 f9 09 07 01 03 fa fd 08 04 06 e3 fb
       0.3212155 0.0 -0.04588793 0.0 -0.3212155 0.41299134 0.3212155 0.04588793 0.13766378 -0.27532756 -0.13766378 0.36710343 0.18355171 0.27532756 -1.3307499 -0.22943965
000030 04 fe 01 03 ff 04 03 05 25 fb eb fa 01 fe df 01
       0.18355171 -0.09177586 0.04588793 0.13766378 -0.04588793 0.18355171 0.13766378 0.22943965 1.6978533 -0.22943965 -0.9636465 -0.27532756 0.04588793 -0.09177586 -1.5143017 0.04588793
000040 03 06 f7 00 fe eb ed 00 03 01 fb fe 03 ff 18 04
       0.13766378 0.27532756 -0.41299134 0.0 -0.09177586 -0.9636465 -0.87187064 0.0 0.13766378 0.04588793 -0.22943965 -0.09177586 0.13766378 -0.04588793 1.1013103 0.18355171
000050 fd f6 08 f8 fa fe 11 ff 15 fc f5 fa fb 05 e6 04
       -0.13766378 -0.4588793 0.36710343 -0.36710343 -0.27532756 -0.09177586 0.7800948 -0.04588793 0.9636465 -0.18355171 -0.50476724 -0.27532756 -0.22943965 0.22943965 -1.1930861 0.18355171
000060 08 f5 0c 03 04 07 04 08 e7 00 f5 01 ff 06 01 03
       0.36710343 -0.50476724 0.5506551 0.13766378 0.18355171 0.3212155 0.18355171 0.36710343 -1.1471982 0.0 -0.50476724 0.04588793 -0.04588793 0.27532756 0.04588793 0.13766378
000070 01 06 03 00 07 03 03 08 fe f7 f8 f7 00 fd fc 04
       0.04588793 0.27532756 0.13766378 0.0 0.3212155 0.13766378 0.13766378 0.36710343 -0.09177586 -0.41299134 -0.36710343 -0.41299134 0.0 -0.13766378 -0.18355171 0.18355171
000080 00 0c 0e 01 01 f8 e5 f7 0e fd 01 ed 07 f6 1d 06
       0.0 0.5506551 0.642431 0.04588793 0.04588793 -0.36710343 -1.2389741 -0.41299134 0.642431 -0.13766378 0.04588793 -0.87187064 0.3212155 -0.4588793 1.3307499 0.27532756
000090 fc ff fe fc fd 01 fc fb 03 ff fd 05 fd fc fe fe
       -0.18355171 -0.04588793 -0.09177586 -0.18355171 -0.13766378 0.04588793 -0.18355171 -0.22943965 0.13766378 -0.04588793 -0.13766378 0.22943965 -0.13766378 -0.18355171 -0.09177586 -0.09177586
0000a0 fd ff fc 05 ff fd 00 03 00 fc ff 00 01 03 02 01
       -0.13766378 -0.04588793 -0.18355171 0.22943965 -0.04588793 -0.13766378 0.0 0.13766378 0.0 -0.18355171 -0.04588793 0.0 0.04588793 0.13766378 0.09177586 0.04588793
0000b0 fc 00 fe 04 fc 05 fe fc 00 00 fd ff fd fe ff 05
       -0.18355171 0.0 -0.09177586 0.18355171 -0.18355171 0.22943965 -0.09177586 -0.18355171 0.0 0.0 -0.13766378 -0.04588793 -0.13766378 -0.09177586 -0.04588793 0.22943965
0000c0 04 0e fe 08 09 fc 02 02 04 03 fe f4 05 05 fb ff
       0.18355171 0.642431 -0.09177586 0.36710343 0.41299134 -0.18355171 0.09177586 0.09177586 0.18355171 0.13766378 -0.09177586 -0.5506551 0.22943965 0.22943965 -0.22943965 -0.04588793
0000d0 02 0b fa 03 01 03 f7 02 bb 13 ea ec 09 09 f4 0b
       0.09177586 0.50476724 -0.27532756 0.13766378 0.04588793 0.13766378 -0.41299134 0.09177586 -3.1662672 0.87187064 -1.0095345 -0.9177586 0.41299134 0.41299134 -0.5506551 0.50476724
0000e0 08 fa fd 02 08 f8 0f ff da 08 f6 ed 0b fa f4 01
       0.36710343 -0.27532756 -0.13766378 0.09177586 0.36710343 -0.36710343 0.6883189 -0.04588793 -1.7437413 0.36710343 -0.4588793 -0.87187064 0.50476724 -0.27532756 -0.5506551 0.04588793
0000f0 05 06 06 05 03 03 f9 02 10 fb 09 02 08 fd ff 00
       0.22943965 0.27532756 0.27532756 0.22943965 0.13766378 0.13766378 -0.3212155 0.09177586 0.73420686 -0.22943965 0.41299134 0.09177586 0.36710343 -0.13766378 -0.04588793 0.0

functional_3/conv5/Conv2D f4 [16, 1, 1, 24]
000000 72 be 89 3e 5a 29 e8 3f 79 cd 0d 3f eb e6 40 3e
       0.2690311 1.813762 0.5539165 0.18838088
000010 14 40 5b be cd f5 10 bf 47 98 2f bf c0 0b 49 3f
       -0.21411163 -0.5662506 -0.6859173 0.78533554
000020 61 69 db 3d 05 55 39 bf c5 af af 3e 7d f5 19 3e
       0.10713459 -0.72395355 0.3431379 0.15035053
000030 37 94 bd 3e ce fc 55 3e 3c d4 0b 3f d1 45 38 bf
       0.3702714 0.20897219 0.5462072 -0.7198153
000040 ca 34 4b 3f ee 86 9a 3e 35 e3 3e bf 49 4d c3 be
       0.79377425 0.30181068 -0.7456544 -0.381449
000050 02 ce ab 3e 4c 76 c7 be a2 7f 4c 3f 80 f6 16 3e
       0.3355561 -0.3895744 0.7988225 0.1474247
000060 f4 89 35 3e 57 a4 b6 3f 20 fc ac 3c 3a a1 a5 bd
       0.17728406 1.4268903 0.021116316 -0.08087392
000070 91 17 84 bd 6b 2e b7 be 70 2e 02 bf da b2 f6 3e
       -0.064498074 -0.35777602 -0.5085211 0.48183328
000080 7e 7d 65 3f 1c 40 97 3e 07 3c 5d 3f d5 b6 27 3f
       0.8964461 0.295411 0.8641972 0.65513355
000090 05 ea 91 be a6 08 b9 bf 5c 56 3d bf 64 7c 6f 3e
       -0.28498855 -1.4455764 -0.739599 0.23387295
0000a0 7b 08 4a 3f 74 08 06 be 64 6a 66 3e d6 73 10 bf
       0.7891919 -0.13089162 0.22501522 -0.5642675
0000b0 6e 62 12 3d 9d fc 30 bf 65 fc fe be 2a b6 a8 3e
       0.0357384 -0.6913546 -0.49801937 0.3295148
0000c0 a9 7b 2d 3e 07 34 26 3f 80 2d 15 3e 0e 29 37 3e
       0.16941704 0.6492314 0.14568138 0.17886755
0000d0 7f 08 00 be 0d 84 9b 3e ce c4 25 bf 2f 66 c3 3d
       -0.12503241 0.30374184 -0.64753425 0.09540974
0000e0 79 b1 34 3d 22 22 95 3f e7 ee 2c 3f 86 22 e8 be
       0.044114564 1.1651042 0.67552036 -0.4533884
0000f0 94 9d 2b bd 0b fc 2d 3f 05 07 9b be 73 ad 2a bf
       -0.041898325 0.6796271 -0.30278793 -0.6667091
000100 03 ba 15 bf 47 dc f6 bd 1e 90 86 be 71 a9 9c 3d
       -0.58486956 -0.12053733 -0.26281828 0.07649506
000110 57 5e f1 3e f9 31 f2 be ba c1 5f bf 9e 28 e7 3e
       0.47142288 -0.4730375 -0.8740498 0.45148176
000120 02 fb cd be f2 93 17 bf 95 2d 3a 3f 1d b7 4d be
       -0.40230566 -0.5921012 0.727258 -0.20089383
000130 9e 48 c3 be b9 8b a2 3e 3a b3 ab 3e 9b 3a c5 be
       -0.3814134 0.31747225 0.33535177 -0.38521275
000140 2c 28 01 3e 03 45 9d bf 62 f6 5d be ea 38 80 be
       0.1261298 -1.2286686 -0.21676019 -0.25043422
000150 79 43 6c 3e d2 3f da 3e a8 23 a2 be d1 a7 0c be
       0.23072614 0.42626816 -0.3166783 -0.13735892
000160 ac 5d 12 3e 7b b2 b4 be 19 cc b7 3e 79 17 a1 3f
       0.14293545 -0.3529242 0.35897902 1.2585288
000170 73 0d b8 be d1 30 c7 be 1c b8 b2 3e 86 68 0a 3e
       -0.3594776 -0.3890443 0.3490609 0.13516435
000180 31 b5 01 3f 05 85 3b 3f fa a8 00 3f 4e 07 08 bd
       0.506671 0.73249847 0.5025784 -0.03321009
000190 97 33 46 3e b3 e1 af be bb 83 b5 be 6f 50 c1 3e
       0.19355617 -0.34351882 -0.35452065 0.37756678
0001a0 43 f6 70 3e 0e cc a3 3f 1a a5 0c 3f e8 7d 03 bf
       0.23531441 1.2796648 0.54939425 -0.5136399
0001b0 06 e7 87 3e ec ae a9 bf 9c 8f 07 3f 17 06 3e 3e
       0.26543444 -1.3256507 0.52953506 0.1855701
0001c0 5a 1c 9f bf 1f 7e 96 be 7d 08 ef 3e 1e 90 96 bf
       -1.2430527 -0.29393098 0.46686164 -1.1762731
0001d0 92 ef 44 bf 23 68 50 3f 1f eb 85 3f aa f3 30 be
       -0.76928055 0.814089 1.0462378 -0.1728045
0001e0 de b8 f6 3e 04 c4 25 be a4 de e2 3e ea ec 4b be
       0.48187917 -0.16188055 0.44310486 -0.19914594
0001f0 c4 cf 17 3f ef 04 30 bf 3c 3a 9c be 08 62 66 3e
       0.593014 -0.6875753 -0.3051318 0.22498333
000200 2f 6f d3 3e 24 21 c2 3d 89 f9 6f 3c 32 a8 9d 3e
       0.41295764 0.09478977 0.014646896 0.30792385
000210 af d5 c4 3c d3 65 e8 3e 53 9a 15 bf d4 a4 0f 3f
       0.024027674 0.45390186 -0.58438605 0.5611088
000220 64 2e 09 3e 5a 58 c7 bc 22 49 35 bf 20 e5 26 bf
       0.13396603 -0.024334121 -0.70814717 -0.65193367
000230 e3 17 2f bd 12 15 c3 be 62 69 ca bf a8 78 ea bd
       -0.04274739 -0.38102013 -1.581341 -0.114487946
000240 05 85 f6 be 9a 38 70 3f 41 d9 ed 3e 32 a5 aa 3e
       -0.4814836 0.9383637 0.46454814 0.3332916
000250 98 ac 9b be f8 a7 fa be 0a 95 d8 3e cf a8 2e bf
       -0.30405116 -0.48956275 0.42301208 -0.6822633
000260 19 eb 02 3f 68 bf 99 3e a7 67 88 3e a9 ae cf 3d
       0.5113998 0.30028844 0.2664158 0.10140736
000270 d7 85 91 3e c8 4a 4d 3e 64 3f d0 3e f5 88 5a be
       0.28422424 0.20048058 0.40673363 -0.21341307
000280 ed ac 56 be 78 d5 a1 bd 57 17 40 be b1 f0 e2 3e
       -0.20964403 -0.07902044 -0.18758903 0.44324258
000290 32 84 9b 3e e8 c2 00 bf 91 f4 f1 3d 84 a1 50 be
       0.30374295 -0.50297403 0.118142255 -0.20374113
0002a0 64 48 70 3d f1 ca 66 be 9c b3 99 be b6 66 98 be
       0.058662787 -0.22538354 -0.30019844 -0.29765862
0002b0 12 b8 7d 3d 6f 6b 0f 3f a1 6b 20 3f d1 25 7a be
       0.06194312 0.56023306 0.6266423 -0.24428488
0002c0 f5 62 17 be 2a 25 fb be 9d fa 3a be bb a8 80 be
       -0.14783843 -0.4905179 -0.18259664 -0.2512873
0002d0 f3 b2 a6 be da 9f 9b be b4 97 e0 3d fb e4 3b bf
       -0.32558402 -0.30395395 0.10966435 -0.7339627
0002e0 4b 9d ee be 61 09 68 be 38 14 8f 3e c9 60 82 3f
       -0.4660438 -0.22659828 0.27945113 1.0185786
0002f0 f4 d3 23 bf bf df 38 3e 2d 02 01 40 71 08 58 be
       -0.6399529 0.18054102 2.0157578 -0.2109697
000300 b3 2b 86 be fe f6 bc 3e a4 25 a0 be 24 16 4a be
       -0.26205215 0.3690719 -0.31278718 -0.19735008
000310 61 f1 3f be d7 49 98 be 25 bd dc bc da 2a 2f be
       -0.18744422 -0.29743835 -0.02694566 -0.1710619
000320 09 a9 d1 be 43 bf 3a be 5f 5b af bc 97 f5 36 be
       -0.40949276 -0.18237023 -0.021405874 -0.17867123
000330 6f af 1e 3e dc a1 c3 3d cc 78 ca bc e6 f8 a3 be
       0.1549661 0.095523566 -0.024715804 -0.32025832
000340 e6 81 32 3e 4f e1 9e 3d a5 ab e0 bd 9f 14 88 3e
       0.17432365 0.07757818 -0.109702386 0.26578233
000350 a9 dc 59 3e ec 88 8d bc c9 5b b4 3e b2 db 57 3e
       0.21275581 -0.017277204 0.35226277 0.21079901
000360 fa 0d 82 3d 1d 97 86 3f 37 13 c5 be 97 40 a7 be
       0.06350322 1.0514866 -0.38491222 -0.32666466
000370 67 de bd ba f2 45 ab 3d bc a7 9e 3e 1f c2 2a 3d
       -0.0014485837 0.083629504 0.30987346 0.041689035
000380 60 74 c8 bd f7 17 a4 3e d4 b6 cc be 12 16 3d bf
       -0.09787822 0.32049534 -0.39983237 -0.738618
000390 13 3f 0f 3e 1b 31 7b be 4b a9 f5 3e 47 7f 0a bd
       0.13988905 -0.24530451 0.47980723 -0.033812787
0003a0 e8 af b5 bd 47 10 4b be 23 97 57 3e 19 f0 99 bc
       -0.08871442 -0.19830428 0.21053748 -0.018791245
0003b0 d2 16 f8 be 18 c2 ef 3e 8a b0 5e 3f 09 52 4b be
       -0.4845491 0.4682777 0.8698813 -0.19855513
0003c0 9c e3 05 be 9e 2d 87 3f 23 2b 42 3f 6f c8 b4 be
       -0.13075107 1.0560796 0.7584707 -0.3530917
0003d0 e6 78 13 3e 66 d7 1b be 76 3d 1c 3e 8a 70 57 be
       0.14401588 -0.15218887 0.1525782 -0.21039024
0003e0 3a 65 82 be 8e ed 02 3e 7a 12 36 3f d1 eb bc bb
       -0.25467855 0.12785932 0.71121943 -0.005765416
0003f0 ce 4d 45 be 0c 89 b8 3e 75 08 90 be b0 7f 07 3f
       -0.19267961 0.36042058 -0.28131452 0.5292921
