columbus/src/main/assets/columbus/12/tap7cls_crosshatch.tflite (tflite, 660748 bytes, 24 tensors)

batch_normalization/batchnorm/mul f4 [32]
0	0x41dd0a5b	27.630056
1	0x41b4d8e4	22.605904
2	0x41e64879	28.785387
3	0x41d713c4	26.884651
4	0x41f2c4d1	30.346102
5	0x41d13cac	26.154625
6	0x41c4e722	24.612858
7	0x41eee669	29.862505
8	0x41ae6f04	21.804207
9	0x41e2e135	28.359964
10	0x41be9612	23.823277
11	0x41d23787	26.277113
12	0x41b44eb0	22.538422
13	0x41ec835b	29.564138
14	0x41da1cca	27.264057
15	0x41aaba7b	21.341055
16	0x41d589af	26.692228
17	0x41da62b9	27.298204
18	0x41c898ea	25.074665
19	0x41cc3775	25.527079
20	0x41c7f95e	24.996761
21	0x41a86df4	21.053688
22	0x41e0dc53	28.10758
23	0x41be599c	23.793755
24	0x41d260b7	26.297224
25	0x41d2f3fb	26.369131
26	0x41d56799	26.675585
27	0x41d8c5f8	27.096664
28	0x41b82ba8	23.021317
29	0x41d22d2f	26.272062
30	0x41e33d91	28.405062
31	0x41c52a90	24.645782

batch_normalization/batchnorm/sub f4 [32]
0	0xbdce2271	-0.10065163
1	0xbdd32bdf	-0.10311102
2	0xbdcaa5c8	-0.098949015
3	0xbe8a6d61	-0.27036574
4	0xbdcda5fc	-0.10041425
5	0xbdf9a6c3	-0.121900104
6	0xbe3291e2	-0.17438462
7	0xbda948d6	-0.082658455
8	0xbdee0134	-0.11621323
9	0xbd970bb5	-0.0737528
10	0xbe0bf5a0	-0.13667917
11	0xbdc83209	-0.097751684
12	0xbe861157	-0.26185104
13	0xbdb9cc5f	-0.09072184
14	0xbdeecf82	-0.11660673
15	0xbdd65ccc	-0.10466918
16	0xbe1cd1a6	-0.1531435
17	0xbe223970	-0.15842223
18	0xbe0e86e9	-0.13918652
19	0xbddd72eb	-0.108129345
20	0xbe0afb9a	-0.13572541
21	0xbe0cbbdc	-0.13743538
22	0xbe245bf7	-0.16050707
23	0xbdcbd444	-0.09952596
24	0xbe7dc36a	-0.24781576
25	0xbd4103d9	-0.04712281
26	0xbe10bbe4	-0.14134175
27	0xbe091c8c	-0.13389796
28	0xbddc2c64	-0.10750654
29	0xbdb7d312	-0.08975805
30	0xbe8d9121	-0.27649787
31	0xbe281a2e	-0.16416237

batch_normalization_1/batchnorm/mul f4 [64]
0	0x3f8df678	1.1090841
1	0x418fea9b	17.989553
2	0x400a86c0	2.1644745
3	0x4181bf58	16.21843
4	0x41214e0d	10.081555
5	0x41334564	11.204441
6	0x4132e13e	11.179991
7	0x40c4d330	6.1507797
8	0x3fb8bb14	1.4432092
9	0x418d282b	17.644613
10	0x3fc9d6fb	1.5768732
11	0x3fad2da1	1.352955
12	0x3fa67b3f	1.3006362
13	0x406560f9	3.5840437
14	0x40776481	3.8655093
15	0x3fd4ba7e	1.6619413
16	0x40c5e4fa	6.1842012
17	0x3feb98f4	1.8406053
18	0x408a636e	4.3246374
19	0x40eb3bc3	7.351045
20	0x4008dcdb	2.13848
21	0x405daea2	3.4637837
22	0x4067fe19	3.624884
23	0x3fa04077	1.2519673
24	0x3fa06bc2	1.2532885
25	0x402c725d	2.6944802
26	0x407ea4ee	3.9788165
27	0x3fa87cda	1.3163102
28	0x3f8157e4	1.0104947
29	0x4010f1d6	2.2647605
30	0x40fb8e49	7.861119
31	0x410f7e10	8.968277
32	0x41b0a669	22.081255
33	0x402a5dc6	2.6619735
34	0x3fda92e1	1.7076074
35	0x4004445f	2.066673
36	0x3f6383f4	0.8887322
37	0x3f51fbbb	0.82024735
38	0x3ff3713d	1.9018933
39	0x407d633f	3.9591825
40	0x408b682f	4.3564677
41	0x403a35b4	2.9095278
42	0x404dd95e	3.216392
43	0x3fe54e0a	1.7914441
44	0x401ee62a	2.482798
45	0x40c42c99	6.130444
46	0x40270e53	2.6102493
47	0x3f8453d4	1.0338082
48	0x400a9879	2.1655562
49	0x3ff1d243	1.8892292
50	0x416e776d	14.904157
51	0x3fe1fb2a	1.7654774
52	0x40052c92	2.0808454
53	0x41457e22	12.343294
54	0x40573cd8	3.3630886
55	0x3fa9fd57	1.3280438
56	0x4139e2c1	11.61786
57	0x410dac83	8.854617
58	0x3fc450a7	1.5337113
59	0x412ec748	10.923653
60	0x419cb3bc	19.58776
61	0x40c225f0	6.067131
62	0x3f9a50b3	1.2055877
63	0x4026a42e	2.6037707

batch_normalization_1/batchnorm/sub f4 [64]
0	0xbe471a3d	-0.19443603
1	0xbf9d46da	-1.2287247
2	0xbe5049e3	-0.20340686
3	0xbfca4275	-1.5801531
4	0xbf492308	-0.7856908
5	0xbfe69066	-1.8012817
6	0xbf579950	-0.8421831
7	0xbf0e6f8a	-0.55638945
8	0xbe3a35e7	-0.18184625
9	0xbfc5e32b	-1.5459951
10	0xbe38ceb5	-0.18047602
11	0xbe88717f	-0.2664909
12	0xbe571fe2	-0.21008256
13	0xbe96baa2	-0.29439265
14	0xbe9cbda5	-0.30613437
15	0xbe58f3d9	-0.2118677
16	0xbee7677c	-0.4519614
17	0xbe83d51c	-0.25748527
18	0xbec4710f	-0.38367507
19	0xbf5e49ff	-0.8683166
20	0xbe6b3374	-0.22968847
21	0xbe78403e	-0.24243256
22	0xbe740a88	-0.23832142
23	0xbe687a86	-0.22702989
24	0xbe5ea165	-0.21741255
25	0xbe5b3e3c	-0.2141046
26	0xbf108ac8	-0.56461763
27	0xbe779830	-0.24179149
28	0xbe2cb07b	-0.16864197
29	0xbe822bce	-0.25424045
30	0xbf5eff8f	-0.871087
31	0xbfcaeee2	-1.5854151
32	0xbf68fe3e	-0.9101294
33	0xbe300d7a	-0.17192641
34	0xbe6c00d4	-0.23047191
35	0xbe881fe1	-0.26586822
36	0xbe6263e9	-0.22108425
37	0xbe55fbac	-0.20896786
38	0xbe86e0b0	-0.26343298
39	0xbe99bd1e	-0.30027097
40	0xbeb4596d	-0.35224476
41	0xbe9514c0	-0.29117393
42	0xbe6cdbdd	-0.23130746
43	0xbe6389ac	-0.22220486
44	0xbea4cbbb	-0.32186684
45	0xbf6bc621	-0.92099196
46	0xbe937eba	-0.28807622
47	0xbe62edf8	-0.2216109
48	0xbe5a0528	-0.2129103
49	0xbe7c3c74	-0.24632436
50	0xbfb36a7b	-1.401687
51	0xbe6b105a	-0.22955456
52	0xbe674fa4	-0.22588974
53	0xbf561e81	-0.83640295
54	0xbeac608c	-0.3366741
55	0xbe51abd1	-0.20475699
56	0xbf3fe350	-0.74956226
57	0xbfabcf52	-1.3422644
58	0xbe5a8043	-0.2133799
59	0xbf163895	-0.5868009
60	0xbf91699f	-1.1360358
61	0xbf1adef7	-0.6049647
62	0xbe77b544	-0.24190241
63	0xbebaf3bc	-0.3651408

batch_normalization_2/batchnorm/mul f4 [64]
0	0x401aada9	2.4168494
1	0x3f147be4	0.5800154
2	0x3fe02f88	1.7514505
3	0x3fb67339	1.4253913
4	0x3fcaf336	1.5855472
5	0x3f8b7135	1.0893923
6	0x3fa03d2f	1.2518672
7	0x3fcc0799	1.5939819
8	0x3fa6f7a9	1.304433
9	0x3faa130d	1.3287064
10	0x3f20fd2e	0.6288632
11	0x3f68ec0a	0.9098517
12	0x3f33971a	0.7015244
13	0x3f80ec42	1.00721
14	0x3efbef02	0.49205786
15	0x3f2e56c3	0.6810114
16	0x3edae71d	0.4275445
17	0x3fdda86a	1.7317021
18	0x3ef9eca7	0.48813364
19	0x3f892069	1.0713016
20	0x3f8d307e	1.1030424
21	0x3f84784d	1.0349213
22	0x3f2083d3	0.6270115
23	0x3f9fd447	1.2486657
24	0x4018aee7	2.3856752
25	0x406429c8	3.5650501
26	0x3f834f5a	1.0258591
27	0x3fa30a37	1.2737492
28	0x3fa21ba1	1.2664682
29	0x3f18069a	0.59385073
30	0x3ff5c701	1.9201356
31	0x3fc55ea2	1.5419505
32	0x3f85131a	1.0396454
33	0x3e9069c1	0.28205684
34	0x3f0c538a	0.5481497
35	0x3ee4cbe9	0.4468682
36	0x40097f8a	2.1484094
37	0x3f19fc25	0.6015037
38	0x3f917ef5	1.1366869
39	0x3fde4027	1.7363328
40	0x3f537a5e	0.8260859
41	0x3f8b11fd	1.0864865
42	0x3f2636d5	0.6492742
43	0x3fc94db2	1.5726836
44	0x3f5413b9	0.82842594
45	0x3fb5e85c	1.4211535
46	0x3f9b69b7	1.2141637
47	0x3eb94f86	0.36193484
48	0x40326531	2.7874262
49	0x3edb9f21	0.42894843
50	0x400e4f68	2.2235966
51	0x3f9fd3f2	1.2486556
52	0x3f249cf6	0.64302003
53	0x3f90591c	1.1277194
54	0x3f618853	0.8809864
55	0x3fabb9e4	1.3416104
56	0x3fa2903d	1.2700268
57	0x3f319622	0.6936971
58	0x3fde71ea	1.7378514
59	0x3f0059cc	0.5013702
60	0x3f0067f9	0.5015865
61	0x3f61c547	0.88191646
62	0x400b3f11	2.1757243
63	0x3fa04068	1.2519655

batch_normalization_2/batchnorm/sub f4 [64]
0	0xbfe5fd15	-1.796786
1	0xbe926a53	-0.28596744
2	0xbf21090d	-0.62904435
3	0xbee154b5	-0.4400994
4	0xbf1338d0	-0.57508564
5	0xbeb8f7cb	-0.3612655
6	0xbed7adac	-0.4212469
7	0xbef493fe	-0.4776916
8	0xbeb45da9	-0.35227707
9	0xbf0e0d65	-0.5548919
10	0xbe850bab	-0.25985464
11	0xbea04d1f	-0.3130884
12	0xbea854d4	-0.3287722
13	0xbea28278	-0.31740165
14	0xbe8d1486	-0.2755472
15	0xbec6a922	-0.38800913
16	0xbea4c4a6	-0.3218128
17	0xbf17e46f	-0.59332937
18	0xbe9ac6fe	-0.30229944
19	0xbeebb440	-0.46035957
20	0xbf114c0e	-0.56756675
21	0xbee42100	-0.44556427
22	0xbe9f7a39	-0.31147936
23	0xbee969b5	-0.4558846
24	0xbf59fb65	-0.8514922
25	0xbfafad5b	-1.3724779
26	0xbeb6592d	-0.3561491
27	0xbe95f2ec	-0.29286897
28	0xbecb516b	-0.39710554
29	0xbe91c523	-0.28470716
30	0xbee8a732	-0.4544006
31	0xbf110025	-0.56640846
32	0xbe7fa5e3	-0.24965625
33	0xbe880350	-0.26565027
34	0xbe78fb12	-0.24314526
35	0xbe9ec542	-0.3100987
36	0xbf2acc4e	-0.66717994
37	0xbec1e9e0	-0.37873745
38	0xbf0d8933	-0.55287474
39	0xbf158db2	-0.58419335
40	0xbe7c58ea	-0.24643293
41	0xbea446e4	-0.32085335
42	0xbe7cc36c	-0.24683923
43	0xbef9c2be	-0.4878139
44	0xbe9ad3b7	-0.3023965
45	0xbf0e19b5	-0.55507976
46	0xbecd9b16	-0.40157384
47	0xbe8815ac	-0.26579034
48	0xbfdda016	-1.7314479
49	0xbe844194	-0.25831282
50	0xbf937f17	-1.152316
51	0xbee592e0	-0.4483862
52	0xbec27016	-0.3797614
53	0xbf05c664	-0.52255845
54	0xbe98d556	-0.29850262
55	0xbf0312c5	-0.51200515
56	0xbf0459e3	-0.51699656
57	0xbe8d389e	-0.27582258
58	0xbeefa68a	-0.46806747
59	0xbea85d7e	-0.3288383
60	0xbe903980	-0.2816887
61	0xbeb89194	-0.36048567
62	0xbf91b84f	-1.1384372
63	0xbeb0806d	-0.3447298

batch_normalization_3/batchnorm/mul f4 [64]
0	0x3fa83e10	1.314394
1	0x3ec61367	0.38686678
2	0x408397b7	4.11227
3	0x410ff791	8.997941
4	0x3ee12aa1	0.43977836
5	0x409e9004	4.95508
6	0x407ccff4	3.9501925
7	0x408331d6	4.0998335
8	0x3e84bff3	0.25927696
9	0x3e751329	0.2393309
10	0x40721136	3.7823005
11	0x3e9bc576	0.30424088
12	0x41efa55a	29.955738
13	0x3eefb146	0.46814936
14	0x3f9c4128	1.2207384
15	0x3e6df3df	0.2323756
16	0x4114131f	9.254668
17	0x3eb5422e	0.35402054
18	0x404308ed	3.0474198
19	0x41fae63b	31.362417
20	0x3e796369	0.24354328
21	0x416ccb30	14.799606
22	0x3f13abe1	0.5768414
23	0x3eb93303	0.3617173
24	0x40b94e3e	5.790801
25	0x3f931a38	1.1492376
26	0x41f95a70	31.169159
27	0x406e621f	3.7247388
28	0x41fa2ea5	31.272776
29	0x4125261f	10.321807
30	0x3e8251bf	0.25452992
31	0x3f242ff7	0.6413569
32	0x3eaab018	0.33337474
33	0x400124a3	2.0178611
34	0x3e80608e	0.25073665
35	0x3e851872	0.25995213
36	0x41fb50d5	31.414469
37	0x3ebe53c9	0.37173298
38	0x3ee8521e	0.4537515
39	0x41f1e1f5	30.23533
40	0x408607e4	4.188463
41	0x3e4ceae3	0.20011477
42	0x3e76f360	0.24116278
43	0x3e5e4eef	0.21709798
44	0x4129b9df	10.607879
45	0x41fc8614	31.565468
46	0x408247c3	4.07126
47	0x3e931458	0.2872646
48	0x3f188b8d	0.5958794
49	0x40d6b232	6.7092524
50	0x3e73ea37	0.23819815
51	0x3e9695b4	0.2941109
52	0x3eb2f86f	0.34955165
53	0x3e93c601	0.28862002
54	0x3e646e6d	0.22307749
55	0x3e78c77c	0.24294847
56	0x3ecb0e9b	0.3965958
57	0x40314b61	2.7702258
58	0x404327de	3.0493083
59	0x3f01c946	0.50697744
60	0x3e9ed126	0.31018943
61	0x3ec10f88	0.37707162
62	0x3eb62fdd	0.35583392
63	0x3ec1a6be	0.37822527

batch_normalization_3/batchnorm/sub f4 [64]
0	0xbf907a13	-1.1287254
1	0xbf1ebd9d	-0.62008077
2	0xbf304870	-0.6886053
3	0xbebf6f06	-0.37389392
4	0xbfa7d621	-1.3112222
5	0xbef0cac2	-0.47029692
6	0xbef31436	-0.47476357
7	0xbf09c5ef	-0.5381765
8	0xbf031749	-0.51207405
9	0xbf0d2225	-0.55130225
10	0xbf0269b3	-0.50942534
11	0xbef6b999	-0.48188475
12	0xbdc1cfd8	-0.09463471
13	0xbfa2f47e	-1.2730863
14	0xbf9ad034	-1.2094789
15	0xbf41237d	-0.75444776
16	0xbeec4727	-0.46148035
17	0xbf35d364	-0.7102568
18	0xbebea5b6	-0.37235802
19	0x3d667e0a	0.056272544
20	0xbf073635	-0.5281709
21	0xbe0ba51e	-0.13637206
22	0xbf97ec20	-1.1868935
23	0xbf3ab73e	-0.72935855
24	0xbebafbc3	-0.36520204
25	0xbf769c53	-0.9633228
26	0xbdbad912	-0.09123434
27	0xbebf87bf	-0.37408254
28	0x3cc798d5	0.024364868
29	0xbeeee3d8	-0.46658206
30	0xbf02a877	-0.51038307
31	0xbfa7ba78	-1.3103781
32	0xbf3400e5	-0.70313865
33	0xbefb82dc	-0.49123275
34	0xbf150296	-0.5820707
35	0xbfbcc6a9	-1.4748126
36	0xbe06be5c	-0.13158554
37	0xbf363649	-0.7117658
38	0xbf52ca8e	-0.82340324
39	0xbddbb618	-0.10728091
40	0xbed4ef95	-0.41589037
41	0xbf23160d	-0.6370552
42	0xbf292fa4	-0.6608832
43	0xbfb27fe8	-1.3945284
44	0xbeb952f8	-0.36196113
45	0xbcda1425	-0.026620934
46	0xbecf8085	-0.4052774
47	0xbf145ec4	-0.579571
48	0xbfbd9724	-1.481175
49	0xbf0b36ce	-0.543805
50	0xbeffad0b	-0.4993671
51	0xbf304714	-0.68858457
52	0xbf21c74b	-0.6319472
53	0xbf34b4ee	-0.70588577
54	0xbf6ddccb	-0.9291503
55	0xbf28a819	-0.65881497
56	0xbf764cc1	-0.9621087
57	0xbeecca8f	-0.4624829
58	0xbe82a9cc	-0.2552017
59	0xbfa2cbfe	-1.2718503
60	0xbf0e3ce2	-0.5556165
61	0xc02d9712	-2.7123456
62	0xbfffcf52	-1.9985144
63	0xbfb58f27	-1.4184312

batch_normalization_4/batchnorm/mul f4 [7]
0	0x3ffd832f	1.9805659
1	0x3fd8dcf1	1.6942426
2	0x4029066a	2.6410165
3	0x4024872f	2.570751
4	0x3fc17a45	1.5115439
5	0x40529015	3.290044
6	0x4011c332	2.2775388

batch_normalization_4/batchnorm/sub f4 [7]
0	0xbffa6777	-1.9562825
1	0xbf961d84	-1.1727757
2	0xbf84f9a2	-1.0388682
3	0xc0322de5	-2.7840512
4	0xbf7598fa	-0.9593655
5	0xc0466cca	-3.10039
6	0xc0009c32	-2.0095334

conv1d/conv1d/ExpandDims_1 f4 [1, 1, 3, 32]
0	0x3d504292	0.050844736
1	0xbe71653c	-0.23573774
2	0xbe09b992	-0.13449696
3	0x3e1a6e04	0.1508103
4	0xbc24fa31	-0.010069416
5	0xbe3bc2b0	-0.18335986
6	0xbe124dd4	-0.14287502
7	0xbdea3e54	-0.114376694
8	0xbe4f6b6b	-0.2025582
9	0xbd4d4b6d	-0.05012076
10	0x3d6f8d89	0.058484588
11	0xbe16fba5	-0.14744432
12	0x3e4d6b8d	0.20060559
13	0xbdcd01d6	-0.10010116
14	0x3dfaeb6e	0.12251936
15	0xbe325acf	-0.17417453
16	0xbdc32826	-0.09529142
17	0xbb673565	-0.0035279628
18	0xbdd32c53	-0.103111885
19	0x3e541f6b	0.2071511
20	0x3c1f30b0	0.009716198
21	0x3e45bfce	0.19311449
22	0xbe1c338f	-0.15254043
23	0x3db8fc6a	0.09032519
24	0x3bf4928c	0.007463759
25	0xbd18748f	-0.037220534
26	0x3cc28524	0.023745127
27	0x3d98cd7d	0.07461069
28	0xbe2648f1	-0.16238762
29	0x3e22bd0b	0.15892427
30	0x3ce66dea	0.028128583
31	0x3e1c2ec6	0.15252218
32	0x3e0fd8d3	0.14047556
33	0xbe4f47d6	-0.20242247
34	0xbd7a8ed9	-0.061171386
35	0xbe3217a3	-0.17391829
36	0x3c4eb51e	0.012616424
37	0xbba92e33	-0.005162978
38	0x3e348352	0.1762822
39	0xbdafb0ec	-0.08578667
40	0xbe71755e	-0.23579928
41	0xbdbf70de	-0.093476996
42	0xbe023561	-0.12715675
43	0x3e139218	0.14411199
44	0xbdacfc2b	-0.08446535
45	0xbccf4ac2	-0.025304202
46	0x3e26ce5e	0.1628966
47	0x3e50e06f	0.20398115
48	0xbdc47acc	-0.09593734
49	0xbc761aff	-0.015021085
50	0x3e24afeb	0.16082732
51	0xbe3ea75a	-0.18618527
52	0xbe6f7404	-0.233841
53	0x3d8f613e	0.07000969
54	0xbdf5a548	-0.119944155
55	0x3e5c0c3e	0.21489045
56	0xbe43762f	-0.19088052
57	0x3e3bbb17	0.18333088
58	0xbe5bd3b2	-0.21467474
59	0xbdc50585	-0.096201934
60	0xbdc10e0d	-0.09426508
61	0x3e0d8e05	0.13823707
62	0x3e28e0d5	0.16492017
63	0x3e6ebe9d	0.233149
64	0x3e0d70d0	0.13812566
65	0x3d36af0d	0.044600535
66	0xbddd0fb4	-0.10794011
67	0x3dcdcf7a	0.10049339
68	0x3dd9648c	0.10614881
69	0xbe793456	-0.24336371
70	0x3da0f8a6	0.07859926
71	0xbd3c283b	-0.045936804
72	0x3df0b5be	0.117534146
73	0xbe2b5a0f	-0.16733573
74	0xbe727bd6	-0.23680052
75	0x3d9ae104	0.075624496
76	0xbe2db23b	-0.16962521
77	0xbe07837a	-0.13233748
78	0xbbbdc1f6	-0.005790944
79	0x3e40a19c	0.18811649
80	0x3e04af7a	0.12957564
81	0xbe4d0831	-0.20022656
82	0x3dfb3b67	0.122671895
83	0x3e25f0df	0.16205166
84	0x3deda904	0.11604503
85	0xbe7057fd	-0.23471065
86	0xbda7b1f7	-0.08188241
87	0xbe31240d	-0.17298909
88	0x3dfbabe7	0.12288647
89	0xbe24b3cc	-0.16084212
90	0x3da8f347	0.082495265
91	0x3e56a2af	0.20960496
92	0x3e4202e5	0.18946417
93	0xbd4f4fd4	-0.05061324
94	0x3c9a3bab	0.01882728
95	0x3da7ab30	0.08186948

conv1d/conv1d_bias f4 [32]
0	0xb9f32aa1	-0.00046380333
1	0xbbbc3ed1	-0.005744793
2	0xba01db36	-0.00049536244
3	0x3bccdc32	0.0062518353
4	0x3acda843	0.0015690405
5	0xb9fb6a88	-0.00047953823
6	0x3a92f99f	0.0011213309
7	0x3889d0d8	6.571569e-05
8	0xbb47d071	-0.003048923
9	0xbb6df01b	-0.0036306444
10	0xbb15f8c1	-0.0022883865
11	0xba5832f4	-0.00082473387
12	0x3bb41754	0.005495945
13	0x39c66a01	0.00037844482
14	0xb92e0601	-0.0001659617
15	0xbbeeab93	-0.007283637
16	0x3a99201e	0.0011682545
17	0x3b1ed48f	0.0024235582
18	0x3a8c766a	0.0010716442
19	0xbaecd91c	-0.0018070075
20	0x3a003a12	0.00048914657
21	0xb95b58ab	-0.00020918499
22	0x3b1616c2	0.0022901748
23	0xbb0a6a5d	-0.0021120526
24	0x3badba39	0.0053017405
25	0xbc210ff6	-0.009830466
26	0x3adf7a87	0.0017050066
27	0xb7556f59	-1.27217145e-05
28	0xbb2005ec	-0.0024417592
29	0xbbaac9f1	-0.0052120616
30	0x3bdef9ea	0.0068046944
31	0x3aa795ea	0.0012785767

conv1d_1/conv1d/ExpandDims_1 f4 [64, 1, 3, 32]
0	0xbb917b2e	-0.004439733
1	0x3cfd5851	0.030925902
2	0x3dc6f9f4	0.097156435
3	0x3d5dea7f	0.05417871
4	0x3b57bab8	0.003291769
5	0xbda4d05f	-0.08047556
6	0x3cd6455b	0.026156118
7	0xbd5605ea	-0.052251734
8	0xbdc1d19a	-0.094638065
9	0x3db53e54	0.08849779
10	0xbd544d7a	-0.0518317
11	0xbdb8ef93	-0.0903007
12	0xbd52274b	-0.051307004
13	0xbd31b019	-0.04338083
14	0x3c8aebb9	0.016958104
15	0x3c6f6a5c	0.01461276
16	0x3d3612ab	0.044451397
17	0x3de1596b	0.11003383
18	0xbbdb6c94	-0.006696293
19	0x3c622c2e	0.013804479
20	0x3e0fbf8f	0.14037918
21	0xbd45c9df	-0.048288222
22	0x3dd26412	0.10272993
23	0xbd8df85c	-0.069321364
24	0xbdc00529	-0.09375984
25	0x3bdfb807	0.0068273577
26	0x3dcfa3f7	0.10138696
27	0x3d535f78	0.051604718
28	0xbd8ba824	-0.0681918
29	0x3d9639f5	0.07335273
30	0xbc7c70c6	-0.015407747
31	0xbe0e523d	-0.13898559
32	0x3bab8ef2	0.0052355463
33	0x3d3ef599	0.04662094
34	0x3de84967	0.113421254
35	0xbcbafe2f	-0.022826282
36	0xbdcb884c	-0.09938106
37	0xbddf56f9	-0.109052606
38	0x3e29c149	0.16577639
39	0x3d992664	0.074780256
40	0x3d87b967	0.066271596
41	0xbd4f35b2	-0.050588317
42	0x3da82d22	0.082117334
43	0x3d95012a	0.07275613
44	0xbcfbe456	-0.030748527
45	0xbd888af6	-0.0666713
46	0x3e0ff69a	0.14058915
47	0xbc5ba7a3	-0.013406667
48	0x3dae192b	0.08500894
49	0xbd60e3da	-0.054904796
50	0x3c97489a	0.018467236
51	0xbe014018	-0.12622106
52	0x3d21ea38	0.03953001
53	0x3e1cef7b	0.1532573
54	0x3cd9ba9f	0.026578246
55	0x3e086d89	0.13323034
56	0xbd1a3d41	-0.037656073
57	0xbc4a3c57	-0.012343488
58	0x3d509828	0.050926358
59	0x3cce30cd	0.025169754
60	0x3ca45396	0.020059388
61	0x3de2d431	0.110756285
62	0x3df3bd26	0.119013116
63	0x3db12f53	0.086516045
64	0xbe17bf29	-0.14819016
65	0x3dd0c4cb	0.10193785
66	0xbe0de8c9	-0.13858332
67	0x3de3e285	0.111271895
68	0x3a6de7ab	0.0009075354
69	0xbdda19b1	-0.106494315
70	0x3d3f5211	0.046709124
71	0x3dfbbcba	0.12291856
72	0xbb05b8cd	-0.002040434
73	0xbdbe44d6	-0.09290473
74	0x3e01fdab	0.12694423
75	0x3d9e79de	0.07738088
76	0x3d53ce2e	0.0517103
77	0xb9821dfe	-0.00024817878
78	0x3d20b1fb	0.039232235
79	0x3aa7b02c	0.0012793592
80	0xbdea374e	-0.1143633
81	0xbde8c06f	-0.11364829
82	0xbcf6821c	-0.030091338
83	0xbd8a3f5c	-0.06750366
84	0x3df5a871	0.11995018
85	0x3df8c8a4	0.12147644
86	0xbe001d44	-0.12511164
87	0x3e1231a1	0.14276744
88	0x3d348143	0.044068586
89	0xbe0240ec	-0.12720078
90	0xbd5481fe	-0.051881783
91	0xbcc591d6	-0.024117392
92	0xbe041f2c	-0.12902516
93	0x3e0287b4	0.12747079
94	0x3c281899	0.010259771
95	0xbe08bb9d	-0.13352819
96	0x3e22b218	0.1588825
97	0x3dd207a0	0.102553606
98	0x3d19667d	0.037451256
99	0x3dd6fcac	0.10497412
100	0x3dd25604	0.102703124
101	0xbc6871e9	-0.014187315
102	0xbe0179a2	-0.12644055
103	0x3da9956a	0.082804516
104	0x3d00b708	0.031424552
105	0xbdaca63a	-0.08430143
106	0xbdf52c2c	-0.11971316
107	0x3dbb7836	0.09153788
108	0x3d13dd3e	0.036099665
109	0x3d93be7f	0.072140686
110	0x3d84c8ad	0.06483588
111	0xbd84e819	-0.064895816
112	0xbdfce43c	-0.1234822
113	0x3be707d6	0.0070504947
114	0xbdc4cb2a	-0.09609063
115	0xbcf715a4	-0.030161686
116	0xbde00ac6	-0.10939555
117	0xbe1b356f	-0.15157102
118	0xbcf8d6b4	-0.030375816
119	0x3bd49435	0.006487394
120	0xbd91d451	-0.07120574
121	0x3d5ec943	0.054391157
122	0xbd112408	-0.035434753
123	0xbd050057	-0.032471027
124	0xbcd257d1	-0.02567664
125	0x3d5e6103	0.054291736
126	0x3cb16fad	0.021659696
127	0xbde69619	-0.112590976
128	0x3e02b7d9	0.12765445
129	0x3e06d73c	0.13168043
130	0x3df7bb4e	0.120962724
131	0x3dd54744	0.104139835
132	0xbda5802e	-0.08081089
133	0x3d9d38b6	0.076768324
134	0x3cec1dba	0.028822768
135	0x3e00d08e	0.12579557
136	0xbccd7b33	-0.02508316
137	0xbc01f5d6	-0.007932147
138	0xbe038e30	-0.12847209
139	0xbd50c5d8	-0.05096993
140	0xbd8ca938	-0.068682134
141	0xbd5581d2	-0.05212576
142	0x3d609e96	0.05483874
143	0xbe0c7627	-0.13716947
144	0xbda0605b	-0.07830878
145	0xbe0b6d89	-0.13616003
146	0xbaa4931e	-0.0012556051
147	0xbdae7956	-0.08519237
148	0xbde907de	-0.11378454
149	0x3d0ba22a	0.0340902
150	0xbd453fff	-0.048156735
151	0xbcdcf1cd	-0.026970768
152	0xbd6411c5	-0.05568101
153	0xbd42c5b7	-0.047551837
154	0xbd9a3a19	-0.075306125
155	0x3dddadf5	0.10824195
156	0x3dac4ce4	0.08413103
157	0xbd781942	-0.060570963
158	0x3d797932	0.060906596
159	0xbc151391	-0.009098903
160	0x3d836f46	0.06417708
161	0xbd036e0e	-0.03208738
162	0x3df503c5	0.119636096
163	0xbd870425	-0.065925874
164	0xbdac2753	-0.08405938
165	0xbcaece0c	-0.021338485
166	0x3dd995e4	0.106242925
167	0x3d01fa5a	0.031732894
168	0x3dde1f13	0.10845771
169	0xbc360009	-0.011108407
170	0xbd0ec567	-0.034856226
171	0xbe1de3f1	-0.15418984
172	0x3d58a075	0.0528874
173	0xbd61446b	-0.05499689
174	0x3d068b8e	0.032847933
175	0x3dc64dad	0.09682784
176	0xbd6bc568	-0.05756131
177	0x3db56c9d	0.08858607
178	0x3d01cf17	0.031691637
179	0xbd680d6e	-0.056653433
180	0xbdd23d62	-0.10265614
181	0xbc8fbfed	-0.017547572
182	0x3dfb6701	0.12275506
183	0xbdfd262c	-0.12360796
184	0xbdd95004	-0.10610965
185	0x3cd8394f	0.026394514
186	0x3d9889c8	0.07448155
187	0x3da64462	0.08118512
188	0xbdc525e0	-0.09626365
189	0xbd9b67f3	-0.07588186
190	0x3c7d6101	0.015465022
191	0xbda766d1	-0.081739075
192	0xbdd66ac3	-0.10469582
193	0x3e2082df	0.15674923
194	0xbcfbf2a3	-0.030755347
195	0xbd534fc5	-0.051589746
196	0xbd0ae500	-0.033909798
197	0x3dad2412	0.084541455
198	0x3c31c0bf	0.010849177
199	0x3c978a10	0.01849845
200	0x3df97aff	0.12181663
201	0xbdc02304	-0.09381679
202	0x3e111d2f	0.14171289
203	0x3b043fcb	0.0020179625
204	0x3d73003b	0.05932639
205	0x3ceda899	0.029011058
206	0xbdb9d0ec	-0.09073052
207	0x3d4e7000	0.05039978
208	0xbcfd9e9a	-0.030959416
209	0x3df1cf1d	0.11807082
210	0x3db0ff6e	0.08642469
211	0x3e2143a2	0.15748456
212	0xbda40f09	-0.0801068
213	0xbda91774	-0.082564265
214	0xbcbe529e	-0.023232754
215	0x3dbd1621	0.092327364
216	0x3daddcf3	0.08489408
217	0xbc40df49	-0.011771985
218	0x3c4f0a88	0.012636788
219	0x3db3b110	0.08774006
220	0x3d603bce	0.054744534
221	0xbc93322d	-0.017968262
222	0xbb0b8263	-0.0021287433
223	0xbda28bce	-0.07936822
224	0xbda111fa	-0.07864757
225	0x3d9db2b4	0.077001005
226	0xbdb68fe7	-0.08914166
227	0x3d447b01	0.04796887
228	0x3ba187a9	0.004929502
229	0x3d1b5fd5	0.03793319
230	0xbcb297aa	-0.021800835
231	0xbde4efa2	-0.11178519
232	0xbca993d3	-0.02070037
233	0x3d82cc2b	0.06386598
234	0xbdd5ea18	-0.104450405
235	0xbd803d5c	-0.06261703
236	0xbda48521	-0.08033205
237	0xbdbf65c1	-0.0934558
238	0xbd5ebdda	-0.054380275
239	0xbc248433	-0.010041284
240	0x3d6c649e	0.057713144
241	0x3c7eb7db	0.015546764
242	0x3e06148c	0.13093776
243	0x3e050b50	0.12992597
244	0xbb371148	-0.0027933884
245	0xbd50e2a3	-0.050997388
246	0xbd562bab	-0.05228774
247	0xbbc97567	-0.0061480287
248	0xbd8d1362	-0.068884626
249	0xbd89f9a4	-0.06737068
250	0x3cf8f33a	0.030389417
251	0xbdd25fd5	-0.10272185
252	0xbdfe3369	-0.124121495
253	0xbd4aac2c	-0.049480602
254	0x3da68fca	0.08132894
255	0xbd99cca1	-0.07509733

conv1d_1/conv1d_bias f4 [64]
0	0xba5279c2	-0.00080290076
1	0xbbe137b9	-0.0068730977
2	0xbcddbaa8	-0.027066544
3	0xbcba8f76	-0.022773486
4	0xbb927246	-0.004469189
5	0x3c45bbb8	0.012068681
6	0xbcfbdd8a	-0.030745286
7	0xbc71405f	-0.01472482
8	0xbc410931	-0.011781977
9	0xbbb4f27a	-0.0055220695
10	0x3b6e2c96	0.0036342493
11	0x3c96df45	0.01841701
12	0xbca80203	-0.020508772
13	0x3be53ccd	0.0069957734
14	0xbc9a5eae	-0.018843975
15	0x3c4a71be	0.01235622
16	0xbbca8537	-0.006180431
17	0x3c38e3c8	0.011284776
18	0x3c0aa850	0.00846298
19	0x3b04adbf	0.0020245162
20	0x3c86db44	0.016461976
21	0xbd025f0b	-0.03182892
22	0xbd0a80ff	-0.033814427
23	0x3ce04390	0.027375966
24	0x3cb6f604	0.022334106
25	0x3c3b199f	0.011419683
26	0x3b84ef5d	0.0040568546
27	0x3c4d38ec	0.012525778
28	0xbcbb97a3	-0.022899454
29	0x3c995c34	0.018720724
30	0xbba41e18	-0.0050084703
31	0xbacd225f	-0.0015650502
32	0xbcab1312	-0.020883117
33	0xba0a3704	-0.000527248
34	0xbc6276eb	-0.013822298
35	0x3c4b4d3c	0.012408551
36	0xbb0eea0f	-0.002180699
37	0xbc6f4ce4	-0.0146057345
38	0x3cb2d777	0.021831257
39	0xbc8662ba	-0.016404498
40	0xbbff5956	-0.007792632
41	0x3c657bd4	0.014006574
42	0xbc8d1ca1	-0.017225565
43	0x3bffa75a	0.0078019323
44	0x3d1ae703	0.037817966
45	0x3c8b8dcb	0.017035386
46	0xb99b5c20	-0.00029632542
47	0xbbce9975	-0.0063049146
48	0xbac095b0	-0.0014693048
49	0x3a0214fc	0.00049622334
50	0xbcba6aea	-0.022756059
51	0xbbab8260	-0.005234048
52	0xbc1a25cf	-0.009408428
53	0xbc63d544	-0.013905827
54	0xbb0e9d96	-0.002176141
55	0xbc175fc3	-0.00923914
56	0xbc7fca7d	-0.015612242
57	0x3cfadf2b	0.030623993
58	0x3bf09820	0.0073423535
59	0xbb64504f	-0.0034837907
60	0xbc3f28f2	-0.011667477
61	0x3c303525	0.010754858
62	0x3c3b8396	0.011444947
63	0x3c66cda3	0.014087114

conv1d_2/conv1d/ExpandDims_1 f4 [64, 1, 3, 64]
0	0x3de23903	0.1104603
1	0xbd20d6a3	-0.039267194
2	0xbd215088	-0.03938344
3	0x3c81a1a7	0.015824152
4	0xbda02419	-0.07819385
5	0x3db830ca	0.08993681
6	0xbc24a458	-0.010048948
7	0xbd2293dd	-0.039691795
8	0x3d965fc9	0.07342488
9	0xbcd4976c	-0.02595111
10	0x3bce8dd7	0.0063035297
11	0xbdf33cae	-0.11876808
12	0x3da74d52	0.081690446
13	0x3c2ca3d2	0.010537105
14	0xbbb40bf2	-0.005494588
15	0xbbb231c6	-0.0054380624
16	0x3ca171f4	0.019707657
17	0xbe000d2c	-0.12505025
18	0x3c9b4e21	0.018958153
19	0x3dc2ac32	0.095055
20	0x3d69018b	0.056886237
21	0xbd9b9554	-0.075968415
22	0x3dc51082	0.09622289
23	0xbd162d1b	-0.03666411
24	0x3d9ef3de	0.07761358
25	0xbdb66fbe	-0.08908032
26	0xbe1a7a5a	-0.15085736
27	0x3de5fbbe	0.11229657
28	0x3b832c38	0.004003074
29	0x3aaf388e	0.0013368295
30	0x3ca8b031	0.020591827
31	0xbcf1b31b	-0.02950435
32	0x3b6e16fd	0.003632962
33	0xbd74ec0a	-0.059795417
34	0x3d6806fd	0.05664729
35	0xbe101ee7	-0.14074288
36	0xbd4595bf	-0.048238512
37	0xbdf191c0	-0.11795378
38	0xbdc1678f	-0.0944358
39	0xbdce7560	-0.10080981
40	0x3d1edbad	0.038783718
41	0xbd741be4	-0.05959691
42	0xbd726b86	-0.059184574
43	0x3c8aa90e	0.016926315
44	0xbd52dc51	-0.05147964
45	0x3dc29ce4	0.09502581
46	0xbd84a470	-0.064766765
47	0x3cb8533e	0.02250063
48	0xbd87c35d	-0.066290595
49	0x3c93b83d	0.018032188
50	0x3e051986	0.12998018
51	0xbddbb16b	-0.10727199
52	0x3dc5c5c5	0.09656862
53	0x3dbf417b	0.09338661
54	0xbda8c0f5	-0.08239929
55	0x3b55a54c	0.0032599745
56	0xbdc14ba1	-0.09438253
57	0x3d740592	0.059575625
58	0xbdc26dc2	-0.09493591
59	0xbd2279d2	-0.03966696
60	0x3db3e140	0.087831974
61	0x3d04d0c6	0.032425664
62	0xbe04f787	-0.12985049
63	0x3caebe2a	0.021330912
64	0xbd8947ec	-0.06703171
65	0x3d1c00ad	0.038086582
66	0xbdd1ff13	-0.1025373
67	0x3aa5ae33	0.0012640416
68	0xbd1a6d83	-0.037702095
69	0xbc9f7fcd	-0.01947012
70	0x3d6ee66f	0.058325227
71	0xbd357c1e	-0.04430782
72	0xbd0528b6	-0.032509528
73	0x3dc00661	0.09376217
74	0xbd850afb	-0.06496235
75	0x3d06e336	0.03293153
76	0xbda8a21a	-0.082340434
77	0xbe160af3	-0.14652614
78	0x3d15a62b	0.036535423
79	0x3da0df6d	0.07855115
80	0x3dca01a7	0.098635964
81	0xbe1224cb	-0.14271848
82	0xbd1a5fc1	-0.037688974
83	0x3db84013	0.08996596
84	0xbd9a93a4	-0.075476915
85	0x3d9a912c	0.075472206
86	0x3d9e1cbb	0.07720324
87	0xbdb56908	-0.08857924
88	0x3d02ca2f	0.0319311
89	0xbe00705c	-0.12542862
90	0x3db1c32b	0.086798035
91	0xbd9393b9	-0.0720591
92	0xbccff90c	-0.02538731
93	0x3d85786b	0.065171085
94	0xbdb78c00	-0.0896225
95	0x3df69a17	0.12041109
96	0x3de5e7f0	0.11225879
97	0xbcea09cb	-0.028569123
98	0xbdf0249a	-0.11725731
99	0xbd634eae	-0.055494957
100	0x3daa64c3	0.0832
101	0x3d04ddd2	0.032438107
102	0xbcb04561	-0.021517457
103	0xbde3c72b	-0.11121973
104	0xbda1a55e	-0.078928694
105	0x3dd8eb52	0.10591759
106	0xbd070e55	-0.032972652
107	0xbdaca816	-0.08430497
108	0x3c353ba6	0.011061585
109	0x3cbbc571	0.022921296
110	0xbdd670c3	-0.10470726
111	0xbbe267b9	-0.0069093374
112	0xbde7c100	-0.11316109
113	0xbdc866fe	-0.09785269
114	0x3dced66b	0.10099491
115	0x3d1816bd	0.03713106
116	0xbcd20ea2	-0.025641743
117	0x3daa9896	0.08329885
118	0xbdd5bf94	-0.10436931
119	0x3d5ed33e	0.054400675
120	0x3d8fc38c	0.070197195
121	0xbc894c3a	-0.01675998
122	0x3ceea364	0.029130645
123	0xbdec34e8	-0.115335286
124	0x3d297a65	0.04137649
125	0xbd00f804	-0.031486526
126	0x3ce1f914	0.02758459
127	0x3d304511	0.043034617
128	0xbd4893ff	-0.048969265
129	0xbd021a3a	-0.031763293
130	0x3d81c9aa	0.063372925
131	0xbd990fb3	-0.074736975
132	0xbd10f38b	-0.03538851
133	0x3d33889c	0.043831453
134	0x3d2563ce	0.040378384
135	0xbdff9f70	-0.12481582
136	0x3d3ee58c	0.04660563
137	0x3dfe0e7b	0.12405106
138	0x3cb3f9a4	0.021969624
139	0xbde7490d	-0.1129323
140	0x3deac6b9	0.114636846
141	0x3d35e3de	0.044406764
142	0xbd9e6cec	-0.07735619
143	0x3c0deedf	0.008662908
144	0xbda38c82	-0.07985784
145	0xbc8d2b7b	-0.017232647
146	0x3e027a55	0.12741978
147	0x3de87183	0.11349776
148	0xbdba386b	-0.09092792
149	0xbd841261	-0.06448818
150	0xbdbb6e03	-0.091518424
151	0x3db2ea94	0.087361485
152	0xbd7445ad	-0.05963676
153	0xbdacee1e	-0.08443855
154	0xbdab866f	-0.083752505
155	0x3dbeb27c	0.09311387
156	0xbdd74c1c	-0.105125636
157	0x3cdb0e96	0.026740354
158	0xbdcda1ac	-0.10040602
159	0x3c5220e6	0.012825226
160	0x3db6133c	0.088903874
161	0x3d28c5a2	0.041204102
162	0x3c92e628	0.017932013
163	0x3cfca57f	0.030840633
164	0xbd804244	-0.06262639
165	0x3bd7916f	0.0065786163
166	0xbc779179	-0.015110367
167	0xbd01ee15	-0.031721193
168	0xbdc75887	-0.09733682
169	0x3c683446	0.014172619
170	0xbd8daa54	-0.06917253
171	0xbd8526b1	-0.065015204
172	0xbd6fb3fe	-0.058521263
173	0x3e010ae6	0.12601814
174	0x3d440457	0.0478557
175	0xbca2d81f	-0.019878445
176	0xbe0994af	-0.13435625
177	0x3d4e8f93	0.05042989
178	0xbd5d7eaa	-0.054075874
179	0x3de8edc8	0.11373478
180	0xbd7b43c6	-0.06134393
181	0xbd215ff7	-0.03939816
182	0xbd87f892	-0.06639208
183	0xbda8b060	-0.08236766
184	0x3d384490	0.04498726
185	0xbd8328b2	-0.064042464
186	0xbdf52ca0	-0.11971402
187	0x3c526751	0.012842015
188	0x3bcea578	0.0063063465
189	0xbcf99ff8	-0.030471787
190	0xbdf7b34a	-0.120947435
191	0xbd56364c	-0.052297875
192	0x3e1125f3	0.14174633
193	0x3d8faf89	0.070159025
194	0xbd85f5a7	-0.06540995
195	0xbd82011b	-0.06347867
196	0x3dcc7b18	0.09984416
197	0xbdce5704	-0.10075191
198	0x3d16a79f	0.03678095
199	0x3dafaeef	0.08578288
200	0xbda1c088	-0.078980505
201	0x3d8a293c	0.06746146
202	0x3d0976d0	0.033560574
203	0x3dd7b5f9	0.105327554
204	0x3cdcb759	0.026942896
205	0x3d977854	0.07395998
206	0x3d0f8723	0.035040986
207	0x3d5c22bd	0.053744067
208	0x3d7589ad	0.05994575
209	0x3bd0c86b	0.006371548
210	0x3df4751b	0.119363986
211	0x3c9da85f	0.019245325
212	0xbd9592f4	-0.0730342
213	0xbd4ce5f0	-0.050023973
214	0xbd90000e	-0.070312604
215	0x3b686506	0.0035460605
216	0xbdb3b54a	-0.087748125
217	0x3d8a7fcb	0.06762656
218	0x3e0a1264	0.13483578
219	0xbcc17100	-0.023613453
220	0x3b382f08	0.0028104205
221	0x3d7c83e7	0.06164923
222	0xbcd6e950	-0.026234299
223	0xbd500c28	-0.050792843
224	0xbdc2eff5	-0.095184244
225	0x3ddbdcfe	0.1073551
226	0xbd6c497c	-0.057687268
227	0x3cda823f	0.026673434
228	0xbdcd022e	-0.10010181
229	0x3da8d023	0.08242824
230	0x3e0321c4	0.1280585
231	0x3d3ce53a	0.046117045
232	0xbbf02eec	-0.0073298123
233	0xbd10d474	-0.03535886
234	0xbc589b92	-0.013220685
235	0x3beff4b4	0.007322872
236	0x3dcfc9c6	0.10145907
237	0x3de63a3b	0.11241575
238	0x3d8db238	0.06918758
239	0xbdc1d706	-0.094648406
240	0x3a604c3c	0.00085562817
241	0x3dedbd06	0.11608319
242	0xbd2f37c2	-0.042777784
243	0xbd34b18e	-0.04411464
244	0x3d93bb1a	0.07213421
245	0x3da36fe5	0.079803266
246	0x3d7946a5	0.060858388
247	0x3dd81f6e	0.1055287
248	0xbd647639	-0.05577681
249	0x3d1dfc8b	0.038570922
250	0xbd4babb3	-0.049724292
251	0x3cbbc83b	0.022922626
252	0xbcdcb96f	-0.02694389
253	0xbda32eb8	-0.07967895
254	0x3d8e022f	0.0693401
255	0xbcc06337	-0.02348481

conv1d_2/conv1d_bias f4 [64]
0	0x3b853607	0.0040652785
1	0x3c5968b8	0.013269596
2	0xbd0f4564	-0.034978285
3	0x3aeff757	0.0018307966
4	0x3bbf7c65	0.0058436864
5	0x3b50f9cc	0.0031887172
6	0x3c8283ed	0.015932048
7	0x3c549e03	0.012977126
8	0xbcb10822	-0.021610323
9	0x3caf6f2a	0.021415312
10	0x3cca21df	0.024674354
11	0x3cbd963c	0.023142926
12	0xbc2caecb	-0.010539721
13	0x3c5ef9aa	0.013609329
14	0xbce9d813	-0.028545415
15	0xbb015446	-0.0019734069
16	0xbcea010c	-0.028564952
17	0x3cdbc29d	0.026826197
18	0x3c57cd6f	0.013171538
19	0x3cce8679	0.025210606
20	0x3d004886	0.031319164
21	0x3cab4fea	0.02091213
22	0xbcbad080	-0.022804499
23	0xbc7365fc	-0.014855858
24	0xbc984cae	-0.018591251
25	0xbb86a87c	-0.0041094404
26	0x3bcce323	0.0062526627
27	0xbc5c6994	-0.013452906
28	0xba118e26	-0.0005552493
29	0xbc831c11	-0.016004594
30	0xbc66f0ce	-0.014095498
31	0x3cd8633b	0.026414504
32	0xbc5c34d8	-0.013440333
33	0xbc92d969	-0.017925935
34	0xbc13ed9f	-0.009028821
35	0xbc3c0106	-0.011474853
36	0x3c5afb14	0.013365526
37	0x3c273f3e	0.010207949
38	0x3ca51625	0.02015216
39	0x3b99862f	0.0046851854
40	0x3b9b4907	0.00473893
41	0xbd00f379	-0.031482194
42	0x3c236e83	0.0099750785
43	0x3b83e2dc	0.0040248465
44	0xbb5caf3d	-0.0033673786
45	0x3b41e062	0.0029583205
46	0xbb90babb	-0.0044167913
47	0xbc6e9f25	-0.01456431
48	0x3b87fe5d	0.0041501955
49	0xbb9d6fcb	-0.0048045865
50	0xbc8bd5cb	-0.017069718
51	0x3b2a8e5d	0.0026024797
52	0x3d3b432c	0.045718357
53	0x3b2b9d71	0.0026186372
54	0x3bee9ad6	0.0072816415
55	0x3ced02f0	0.028932065
56	0x3cc85193	0.02445296
57	0xbb7d8476	-0.003868369
58	0xbbcd054e	-0.006256736
59	0xbb1e04a4	-0.0024111653
60	0xbcc52034	-0.024063207
61	0x3bff9bc2	0.00780055
62	0x3bd71e01	0.006564856
63	0xbcb50d5a	-0.022101093

dense/MatMul_bias f4 [64]
0	0x3be76d42	0.007062585
1	0x3cbec07c	0.023285143
2	0x3b1793a3	0.002312877
3	0xbb8aa26a	-0.004230787
4	0x3c931fd6	0.017959516
5	0x3b143573	0.0022614866
6	0x3ab446eb	0.0013754045
7	0x3b14f20b	0.0022727277
8	0x3c2fef19	0.010738158
9	0x3bcd2332	0.006260299
10	0xbb2d309b	-0.0026426676
11	0x3cb67ed2	0.02227727
12	0xbc7b5a3e	-0.01534134
13	0x3cbfe3e2	0.023424093
14	0x3bf62ef2	0.0075129205
15	0x3d148dd5	0.036268074
16	0x3b1411c9	0.0022593609
17	0x3d5907df	0.052986022
18	0xba4cad02	-0.00078077626
19	0xbbb72f73	-0.005590373
20	0xbb972c2d	-0.0046134205
21	0x3b38bf4f	0.00281902
22	0x3c45f143	0.012081447
23	0x3cf74524	0.030184336
24	0xba2dd533	-0.00066311954
25	0x3c4fe9b5	0.012689997
26	0xbbb9b5d8	-0.0056674294
27	0xbaaab7a7	-0.0013024703
28	0xbb92bc5b	-0.00447802
29	0xbb1199af	-0.0022216847
30	0x3b6446ad	0.0034832165
31	0x3c674a39	0.014116817
32	0x3d89a354	0.067206055
33	0x3ae8319a	0.0017714978
34	0xbc95c459	-0.018282102
35	0xbb9cc1b9	-0.0047838357
36	0xbbc2509a	-0.0059300186
37	0xbcd82f29	-0.026389675
38	0x3cf4009b	0.029785445
39	0xbc5bc760	-0.013414234
40	0xbb88f41b	-0.0041794903
41	0x3c7aff1a	0.01531961
42	0x3c9b071c	0.018924288
43	0x3a9a1490	0.0011755396
44	0xba1ead72	-0.0006053067
45	0xbb79e43e	-0.0038130428
46	0x399c0a56	0.0002976234
47	0xbc9ff8b6	-0.019527774
48	0x3c1cd071	0.009571181
49	0x3aa7360d	0.0012757197
50	0x3cbdc7d4	0.023166575
51	0x3d2df2a1	0.042467717
52	0xbb799bc9	-0.003808724
53	0x3d287700	0.041129112
54	0xba05a559	-0.0005098186
55	0x3c0213f1	0.007939325
56	0x3c609274	0.013706792
57	0x3a3e119e	0.000725055
58	0xbb2b53fe	-0.0026142593
59	0x3c976fed	0.018485988
60	0x3bb3057b	0.0054633
61	0x3a2d5644	0.0006612281
62	0xbac18f09	-0.0014767359
63	0xbc638cce	-0.013888551

dense/kernel/transpose f4 [64, 2176]
0	0xbce98743	-0.02850688
1	0x3ce943c8	0.028474703
2	0x3cad3ca1	0.021147074
3	0x3ab89faa	0.001408567
4	0xbd51f57c	-0.051259503
5	0xbd2ace14	-0.041700438
6	0xbcade141	-0.021225573
7	0xbd58b277	-0.052904572
8	0x3d517569	0.05113736
9	0xbcc9b679	-0.024623143
10	0xbc38ccd4	-0.011279304
11	0x3cb7a736	0.0224186
12	0x3ab674fb	0.0013920361
13	0x3c233b78	0.009962909
14	0xbb908670	-0.0044105574
15	0xbd7b16c9	-0.061301026
16	0xbd8ac764	-0.06776312
17	0xbd4a8d11	-0.049450938
18	0x3cc40991	0.023930343
19	0x3ce96bea	0.02849384
20	0xbd2f751b	-0.04283629
21	0xbcb073ce	-0.021539595
22	0x3c1dd7c2	0.00963396
23	0x3ce4348e	0.027857091
24	0xbcf6531f	-0.030068932
25	0x3cfecf1b	0.031104615
26	0x3ccb6533	0.024828529
27	0xbd325065	-0.0435337
28	0x3c1c0fa1	0.009525211
29	0xbc802bc1	-0.015645863
30	0xbd18dacf	-0.037318047
31	0x3caf2f34	0.021384813
32	0x3cb5917b	0.022164097
33	0xba86a52a	-0.0010272611
34	0x3c289af6	0.010290852
35	0x3adc6734	0.0016815425
36	0x3da36373	0.07977953
37	0x3d3a0e88	0.045424014
38	0x3d3d5d27	0.046231415
39	0xba38dd5f	-0.000705203
40	0xbbfd9967	-0.0077392343
41	0xbcf632bf	-0.030053494
42	0xbd60d711	-0.054892603
43	0x3d96f027	0.07370024
44	0xba4db70d	-0.0007847406
45	0x3c6c1d16	0.0144112315
46	0x3c1d1341	0.00958711
47	0xbd1451e1	-0.0362109
48	0x3ca41908	0.020031467
49	0xbc775e8b	-0.015098224
50	0xbaea1b60	-0.0017860942
51	0xbd6e3dd0	-0.058164418
52	0x3c4d229f	0.012520461
53	0x3b861e71	0.0040929844
54	0xbbd8ef21	-0.0066203033
55	0xbc5a7b0f	-0.0133350035
56	0xbd27b8f5	-0.040947873
57	0x3c71936d	0.014744622
58	0x3ccdd2b6	0.025124889
59	0x3c182904	0.009287123
60	0x3c62f2e2	0.013851853
61	0xbcea6c08	-0.028615966
62	0x3ceae92e	0.028675642
63	0x3d168338	0.036746234
64	0xbca4b5c1	-0.020106198
65	0xbd8d21cf	-0.06891214
66	0x3d775a62	0.06038893
67	0xbc4e2e12	-0.012584226
68	0x3c2b5a9b	0.010458614
69	0xbcbabe7e	-0.022795912
70	0x3d28d041	0.04121423
71	0xbc451e6b	-0.012031178
72	0x3cd8719f	0.026421366
73	0x3c979450	0.018503338
74	0xbd1ffd1c	-0.039059743
75	0x3c35d055	0.0110970335
76	0x3d22d98f	0.03975826
77	0x3d1034a9	0.03520647
78	0x390a4bdd	0.00013188967
79	0xbb55266f	-0.003252413
80	0xbcc75359	-0.024331735
81	0x3cd32c6d	0.02577802
82	0x3d1ac617	0.03778657
83	0x3d173a8a	0.03692106
84	0xbd8aada1	-0.06771398
85	0xbd70f798	-0.058829874
86	0xbd57ad69	-0.05265561
87	0xbc7e2c96	-0.01551356
88	0x3cbf8c93	0.02338246
89	0x3d135c56	0.03597673
90	0x3d4f2346	0.05057075
91	0x3d0dcbce	0.03461819
92	0x3d57309f	0.052536603
93	0xbaf3664c	-0.0018569916
94	0x3d7d8096	0.061890207
95	0xbc7351e3	-0.014851066
96	0xbd431050	-0.04762298
97	0x3bcf0a91	0.0063183983
98	0x3ccc81b6	0.024964195
99	0xbbe69f68	-0.0070380457
100	0xbc4723b6	-0.01215451
101	0xbd2e84be	-0.04260706
102	0xbc897d7e	-0.016783472
103	0x3d3a6a0e	0.045511298
104	0x3d00f532	0.031483836
105	0xbc5fc535	-0.013657858
106	0xbd24b257	-0.04020914
107	0xbd1dd1a1	-0.038529996
108	0xb9da00d1	-0.00041580808
109	0x3c977fba	0.018493522
110	0xbce45a9d	-0.027875239
111	0x3d99e7d5	0.075149216
112	0xbda7c128	-0.081911385
113	0xbc7a710c	-0.015285742
114	0x3cbb2704	0.022845753
115	0x3d12e8fe	0.03586673
116	0x3d0191b0	0.03163308
117	0x3c7593c7	0.014988846
118	0xbcec4516	-0.028841536
119	0x3d01bc6e	0.03167384
120	0x3b8fde3e	0.004390507
121	0x3c9a5534	0.018839456
122	0x3d09ab84	0.033610836
123	0x3cdf9a2c	0.027295195
124	0xbcda288b	-0.02663066
125	0xbbb9202a	-0.005649586
126	0xbb1c82d2	-0.0023881686
127	0x3b2d9420	0.0026485994
128	0x3d64675a	0.055762626
129	0xbd5f6507	-0.054539707
130	0xbd544aa1	-0.051828984
131	0x3d021396	0.03175696
132	0x3a200cc2	0.00061054167
133	0x3c450d90	0.012027159
134	0xbd8364ac	-0.06415686
135	0xbb98c075	-0.0046616145
136	0x3cebc20f	0.028779058
137	0x3d88465c	0.06654045
138	0x3cf8ae2d	0.030356491
139	0xbc425d36	-0.0118630435
140	0xbd4cc9e8	-0.04999724
141	0xbcd43b72	-0.025907252
142	0xbaeb0c3a	-0.0017932721
143	0x3ce34e6e	0.02774736
144	0xbdc05b43	-0.09392407
145	0x3bdd2cef	0.0067497413
146	0x3cfa3b6e	0.030545916
147	0xbcc06a4f	-0.023488192
148	0xbcd632e2	-0.02614731
149	0x3c1fc5ce	0.00975175
150	0xbc13a4d1	-0.009011463
151	0x3caf364d	0.021388197
152	0x3d3b0fce	0.04566937
153	0x3d1bbbf6	0.03802105
154	0xbc9a0389	-0.018800514
155	0x3cea294b	0.028584143
156	0xbcb773fd	-0.022394175
157	0x3d3c5bee	0.04598611
158	0x3d2201c1	0.039552454
159	0xbcc4ec9a	-0.024038602
160	0xbd64550f	-0.05574518
161	0xbd1925c1	-0.03738952
162	0x3ceb1349	0.02869572
163	0x3caae8f9	0.020863043
164	0x3c93122e	0.017953005
165	0xbd125e98	-0.035734743
166	0xbd3a3c55	-0.045467693
167	0xbc0d9b3a	-0.008642966
168	0xbbd22b5e	-0.006413861
169	0xbd35d823	-0.044395577
170	0xbd197aa0	-0.03747046
171	0xbd111276	-0.035417996
172	0xbc76c2bc	-0.015061077
173	0x3cc91435	0.024545768
174	0xbab10c8b	-0.0013507766
175	0xbb87f54e	-0.0041491156
176	0xbcc24b69	-0.023717599
177	0x3cd8d8ff	0.02647066
178	0xbcec0df1	-0.028815242
179	0x3d86c6fd	0.06580923
180	0x3ca156dc	0.019694738
181	0x3c99b9c6	0.018765341
182	0xbd650a6e	-0.05591815
183	0xbcf0e808	-0.029407516
184	0xbcdd9e9a	-0.027053166
185	0xbc9e0cbc	-0.019293182
186	0x3c8815c8	0.016611949
187	0xbc38be17	-0.01127579
188	0xbcbefd7d	-0.023314232
189	0xbcc21bf8	-0.023694977
190	0xbbef0478	-0.007294234
191	0x3d76504d	0.060135175
192	0xbd80c894	-0.06288257
193	0xbd003c05	-0.03130724
194	0xbcf2d921	-0.02964455
195	0xbc5d22bb	-0.01349705
196	0x3c061b88	0.008185275
197	0xbd707ab7	-0.05871078
198	0xbcaa9fd9	-0.020828174
199	0xbc57b1b3	-0.013164925
200	0x3cd44df2	0.025916073
201	0x3d4b1a0d	0.04958539
202	0x3d1b7bf5	0.03796001
203	0x3d4bdcea	0.049771227
204	0xbc42b590	-0.011884108
205	0x3d29c2cc	0.04144554
206	0x3d3ae482	0.04562808
207	0x3c169f90	0.009193316
208	0x3b6d5a59	0.0036217181
209	0x3c35fa2d	0.01110701
210	0xbca4ef51	-0.020133646
211	0xbadd63df	-0.0016890726
212	0x3d16aa7d	0.036783684
213	0x3d833547	0.06406646
214	0xbb8b366a	-0.00424843
215	0xbb1d0697	-0.0023960227
216	0xbd80960d	-0.0627862
217	0xbc614fb9	-0.0137519175
218	0x3d4e5556	0.05037435
219	0x3ce7e2db	0.028306415
220	0xbbf21b1d	-0.007388486
221	0x3d409810	0.047020018
222	0x3c24227b	0.010017986
223	0xbcadf6e4	-0.02123589
224	0xbb5418b8	-0.0032363366
225	0x3befd113	0.0073186248
226	0xbd158791	-0.03650624
227	0x3d1de449	0.038547788
228	0xbda35c66	-0.07976608
229	0xbd3e8ad5	-0.04651912
230	0x3d1c015f	0.038087245
231	0xbd0a0508	-0.033696204
232	0xbd804ff1	-0.062652476
233	0x3d17f73d	0.03710102
234	0x3caaca7f	0.02084851
235	0x3d6aa4af	0.05728596
236	0x3b77f8e6	0.0037837564
237	0xbcd6bf65	-0.02621431
238	0x3bce0698	0.006287407
239	0x3d726d05	0.059186
240	0x3b8a3cbe	0.004218667
241	0xbd3bc6c5	-0.04584386
242	0x3cbac06d	0.022796834
243	0x3d27fa67	0.041010287
244	0x3c83f84c	0.016109608
245	0x3c460e2a	0.012088338
246	0x3cc05388	0.02347733
247	0x3c6d56cf	0.014486029
248	0xbcf4947b	-0.029855957
249	0xbb3cf6e2	-0.0028833677
250	0xbc992975	-0.018696526
251	0xbc00501e	-0.007831601
252	0xbb9e0520	-0.0048223883
253	0xbca60b80	-0.020269156
254	0x3c547a7c	0.012968656
255	0x3cc0c831	0.023532959

dense_1/MatMul_bias f4 [7]
0	0x3d87e810	0.06636059
1	0xbc64ed54	-0.013972599
2	0xbd414dc6	-0.04719331
3	0x3e16a965	0.14713056
4	0xbaade9a6	-0.0013268485
5	0x3e1353ba	0.14387408
6	0x3da13e1c	0.078731745

dense_1/kernel/transpose f4 [7, 64]
0	0xbd948040	-0.07251024
1	0x3d84b591	0.064799435
2	0x3d669ec6	0.056303762
3	0xbed0fb03	-0.40816507
4	0x3e341104	0.17584616
5	0xbdb92710	-0.09040654
6	0xbe3cdec8	-0.1844436
7	0xbe906952	-0.28205353
8	0x3e13661b	0.14394419
9	0x3e7fc819	0.24978675
10	0x3d638e23	0.055555474
11	0x3dae6762	0.085158125
12	0xbddbdb50	-0.1073519
13	0x3e65f7dd	0.22457834
14	0x3d1cd295	0.038286764
15	0x3e317b6e	0.17332241
16	0xbeac0c68	-0.33603215
17	0x3e68887f	0.22708319
18	0xbe7354be	-0.23762795
19	0x3e2b5320	0.16730928
20	0xbe90089f	-0.28131577
21	0x3d1f177a	0.03884075
22	0x3dc36b89	0.09541995
23	0x3dc16957	0.0944392
24	0xbea3d448	-0.31997895
25	0x3dec4604	0.11536792
26	0xbdd2a314	-0.10285011
27	0x3e09bd1f	0.1345105
28	0x3e452f81	0.19256403
29	0xbc775740	-0.015096486
30	0x3d14dee6	0.036345385
31	0x3e0a5291	0.13508059
32	0x3e5e348e	0.21699736
33	0xbe44758e	-0.19185469
34	0xbe8f5017	-0.2799079
35	0x3dcccd3a	0.10000081
36	0x3d2d636b	0.04233114
37	0xbdb140d7	-0.08654945
38	0x3d8961c9	0.06708104
39	0x3de12124	0.10992649
40	0xbe9edcd9	-0.31027868
41	0x3e64165b	0.22274153
42	0x3e3396aa	0.17537943
43	0xbe7594b8	-0.23982513
44	0xbe8d8995	-0.2764403
45	0x3e8c8858	0.27447772
46	0xbe32ecab	-0.17473094
47	0x3c4a39b1	0.012342856
48	0xbd8d426a	-0.06897433
49	0xbdbd318f	-0.09237968
50	0x3e5f57c8	0.2181083
51	0x3e3f95a4	0.18709427
52	0xbe5f3d85	-0.21800812
53	0x3e0cfb6b	0.13767783
54	0xbe6aa593	-0.22914724
55	0x3d62a360	0.055331588
56	0xbd9f25ad	-0.07770858
57	0x3db0c96f	0.086321704
58	0xbe49d4be	-0.19710061
59	0x3e8360e9	0.25659874
60	0x3dcd673a	0.100294545
61	0xbe3e084d	-0.18557854
62	0xbe51696d	-0.20450373
63	0xbe2cb9ae	-0.16867706
64	0x3dd935b8	0.10605949
65	0x3d66d4a4	0.056355134
66	0xbec4e8ae	-0.3845877
67	0x3db05c28	0.086113274
68	0xbba9a162	-0.005176709
69	0xbe929bb9	-0.28634432
70	0xbddf0e55	-0.108914055
71	0x3c4fa819	0.012674355
72	0xbe274f88	-0.16338933
73	0x3e0b9460	0.1363082
74	0x3e335ba1	0.17515422
75	0xbdd3459c	-0.10316011
76	0x3e748e1e	0.23882338
77	0xbe85908e	-0.2608685
78	0xbdb69c1d	-0.08916495
79	0xbe43eeac	-0.19134015
80	0x3d90d2c7	0.070714526
81	0xbd931c00	-0.07183075
82	0x3d392cb1	0.045208637
83	0x3e469f1b	0.19396631
84	0xbd910cde	-0.07082532
85	0xbc59b701	-0.01328826
86	0x3d9d9e77	0.076962404
87	0xbda2224a	-0.07916696
88	0x3de94288	0.11389643
89	0x3e6333e5	0.22187765
90	0x3e1fdcc8	0.15611565
91	0x3cac62cf	0.02104321
92	0xbe2e0bd6	-0.16996703
93	0xbebabba1	-0.36471274
94	0x3dd34bcd	0.10317192
95	0x3e5f209f	0.21789788
96	0x3c894801	0.016757967
97	0x3d18ea7b	0.037332993
98	0xbc86bba1	-0.01644689
99	0xbe795989	-0.24350561
100	0x3e8ecaa8	0.2788899
101	0xbe31de47	-0.17369948
102	0x3e648563	0.22316508
103	0xbe70f91b	-0.23532526
104	0xbe687a58	-0.2270292
105	0x3e37d4c5	0.17952259
106	0x3dbdd66d	0.09269414
107	0xbe861249	-0.26185825
108	0x3e1e7958	0.15475976
109	0x3e81a4bc	0.25320995
110	0x3e6ca71d	0.23110624
111	0xbe33813f	-0.17529772
112	0x3e85c2b4	0.2612511
113	0x3e1e971c	0.15487331
114	0x3dca5162	0.09878804
115	0xbc81804f	-0.015808253
116	0x3e436f74	0.19085485
117	0x3e036b3c	0.12833875
118	0x3e5a4d66	0.21318588
119	0xbd8cbbbf	-0.06871747
120	0xbd917a59	-0.07103414
121	0xbbd06f3d	-0.006360917
122	0xbdf596e2	-0.11991669
123	0x3dace05a	0.08441229
124	0x3e5be751	0.21474959
125	0xbe823c1a	-0.2543648
126	0xbe5c667d	-0.21523471
127	0xbe2c7e28	-0.16845
128	0x3e4a46b7	0.19753538
129	0xbe8af0a4	-0.2713672
130	0xbed22df7	-0.41050693
131	0xbdf074a6	-0.11740999
132	0x3e6fe593	0.2342742
133	0xbe70bffd	-0.23510738
134	0xbe3930f0	-0.18085074
135	0x3e711946	0.23544797
136	0xbdb3b0d7	-0.08773964
137	0x3dcbfe98	0.09960669
138	0x3d646162	0.055756934
139	0xbe422de5	-0.1896282
140	0xbcc12e04	-0.023581512
141	0xbdd79b54	-0.10527673
142	0xbe283d2e	-0.16429588
143	0xbe92589c	-0.2858323
144	0x3dbdcc17	0.09267443
145	0xbda1b24c	-0.078953356
146	0x3e3cd84b	0.18441884
147	0xbdf1eeb9	-0.11813111
148	0x3e59afed	0.21258517
149	0x3e59f3f4	0.21284467
150	0x3e44ba84	0.19211775
151	0xbe7148c3	-0.23562913
152	0x3df32299	0.11871833
153	0x3d86a034	0.06573525
154	0xbd57b026	-0.052658223
155	0x3d708e4a	0.058729447
156	0x3e6a25c4	0.22865969
157	0xbe846324	-0.25856888
158	0x3dd48013	0.10375991
159	0xbdbc28d6	-0.09187476
160	0x3dbdff7f	0.09277248
161	0x3e2d57a6	0.16927966
162	0x3e3db3bd	0.18525596
163	0xbe2ad6c8	-0.16683495
164	0xbd06178a	-0.032737292
165	0x3dafa214	0.08575836
166	0x3dbb749e	0.09153102
167	0x3d9b8c72	0.07595147
168	0xbe70de08	-0.23522198
169	0x3dd5deda	0.10442896
170	0xbe8dcddc	-0.2769612
171	0x3e5ace77	0.21367823
172	0xbe62397e	-0.22092244
173	0xbe662233	-0.22473983
174	0xbd28d1fb	-0.041215878
175	0xbdd3ab07	-0.10335355
176	0xbc32edcb	-0.010920952
177	0x3d9b7db6	0.07592337
178	0x3e6d780f	0.2319033
179	0x3e3f40a2	0.18676999
180	0xbdb65002	-0.08901979
181	0x3e578e2e	0.21050331
182	0xbdc2171f	-0.09477066
183	0x3e4eddbd	0.20201774
184	0x3da40f88	0.08010775
185	0xbd6425b6	-0.055700026
186	0xbe8ec180	-0.27882004
187	0x3e089b6e	0.13340542
188	0xbe54f1dd	-0.20795389
189	0xbe5ab014	-0.21356231
190	0x3d323112	0.04350383
191	0xbe1357fd	-0.14389034
192	0x3e361694	0.1778205
193	0x3e62036b	0.22071616
194	0x3daa61c8	0.083194315
195	0xbdc1f90f	-0.09471332
196	0xbe3f8fd1	-0.18707205
197	0xbebd5c5b	-0.36984524
198	0xbde2219e	-0.11041568
199	0xbdd66ad8	-0.104695976
200	0x3e3aff0a	0.18261352
201	0xbe7bd1b9	-0.24591722
202	0xbeaf88f5	-0.34284177
203	0x3dd44a62	0.1036575
204	0x3e454279	0.19263639
205	0xbe13bbd6	-0.14427122
206	0x3e992cb4	0.29916918
207	0xbdc6bf2f	-0.09704434
208	0xbd883b27	-0.066519074
209	0x3e2e753a	0.17036906
210	0x3dfbbcc6	0.12291865
211	0xbe7c1b5b	-0.2461981
212	0x3e4b3906	0.19845971
213	0x3d65c1f8	0.056093186
214	0x3e81ed76	0.2537648
215	0x3df5d76f	0.12003981
216	0xbde5aab0	-0.11214197
217	0x3e86cb11	0.26326802
218	0xbe87c1bd	-0.26514998
219	0xbe93106e	-0.28723472
220	0x3e8a7752	0.2704416
221	0xbc2b6bb9	-0.010462695
222	0x3e7e40cd	0.24829407
223	0xbe2c466e	-0.16823742
224	0xbd5ab185	-0.053391952
225	0x3dc0de9f	0.094174616
226	0x3e3b2dac	0.18279141
227	0xbe96d190	-0.29456758
228	0xbe6c5a39	-0.23081292
229	0xbe8e522f	-0.27797076
230	0x3df9812b	0.1218284
231	0xbe49198b	-0.1963865
232	0xbe2e6415	-0.17030366
233	0x3e63e262	0.22254327
234	0x3bb6c6c7	0.0055778953
235	0xbe74bdd0	-0.23900533
236	0x3c6f1c9f	0.014594226
237	0xbe709145	-0.23492916
238	0x3e387583	0.18013577
239	0xbdbe7370	-0.09299362
240	0xbe8ea5da	-0.2786091
241	0xbed2ba2a	-0.41157657
242	0x3dea35d3	0.114360474
243	0x3e8393cb	0.25698695
244	0x3dbec513	0.09314933
245	0x3d6b3f93	0.057433676
246	0xbe1fdda4	-0.15611893
247	0x3e5661e2	0.20935777
248	0xbd9b83d2	-0.07593502
249	0xbe7ffea0	-0.24999475
250	0x3d6978b6	0.056999885
251	0x3e8c6bdb	0.27426037
252	0xbd982f39	-0.07430882
253	0x3a552c09	0.0008131867
254	0x3dc68164	0.09692648
255	0xbe549811	-0.20761134

dire/MatMul_bias f4 [7]
0	0xbe51d15a	-0.20490018
1	0x3e88a010	0.26684618
2	0xbe70448e	-0.23463652
3	0xbe7b8ea8	-0.24566138
4	0xbe7acb01	-0.24491502
5	0xbe79b015	-0.24383576
6	0x3e71fbaf	0.23631166

dire/kernel/transpose f4 [7, 7]
0	0xbf52eba8	-0.8239083
1	0x3f66f9cd	0.90224916
2	0xbeba8915	-0.3643271
3	0x3ef306fe	0.47466272
4	0x3e82fda5	0.2558414
5	0xbeac145b	-0.3360928
6	0xbf04d327	-0.5188469
7	0xbe10e1db	-0.14148657
8	0x3f286798	0.6578307
9	0x3f243d9e	0.6415652
10	0xbf3fc63e	-0.7491187
11	0xbe22a10b	-0.15881746
12	0x3f406a02	0.75161755
13	0xbf4c61cb	-0.7983672
14	0xbf61316e	-0.8796605
15	0xbebbf35b	-0.36709103
16	0xbc8f0e18	-0.017462775
17	0xbcf7b729	-0.030238705
18	0xbde43d4c	-0.11144504
19	0xbdf2193b	-0.118212186
20	0xbf1d3f1b	-0.61424416
21	0xbec78c0b	-0.38974032
22	0x3f134aff	0.5753631
23	0x3e93310c	0.28748357
24	0xbf02a0f8	-0.5102687
25	0x3e5ef966	0.21774825
26	0x3d3ca4f8	0.046055764
27	0x3f1172f1	0.5681601
28	0xbdf114ee	-0.1177157
29	0xbe888c78	-0.2666967
30	0x3e9a51c1	0.30140498
31	0xbf04a59c	-0.518152
32	0x3f08ee39	0.534885
33	0x3e2e7cf0	0.17039847
34	0xbe930a14	-0.28718626
35	0x3ed5d278	0.41762137
36	0x3ebec6a9	0.3726094
37	0x3f49e9b8	0.7887225
38	0x3e210fa3	0.15728621
39	0x3e899c16	0.26876897
40	0xbd77d9e4	-0.06051053
41	0xbf16688d	-0.5875328
42	0x3f4a6a19	0.7906814
43	0xbed05b9b	-0.4069489
44	0xbe7abbc7	-0.24485694
45	0x3f022b09	0.50846916
46	0xbf6c6d21	-0.9235402
47	0x3f536ad9	0.8258491
48	0x3eb90d27	0.36142847
