samsung/src/main/assets/samsung/backtap_20221018-160917.tflite (tflite, 392992 bytes, 24 tensors)

model/batch_normalization/batchnorm/mul f4 [16]
000000 e7 8b e4 41 62 ad f0 41 4e 8f e6 41 d6 87 e2 41
       28.568312 30.08466 28.819973 28.316326
000010 73 a1 e3 41 27 cf e9 41 79 d6 ea 41 54 50 eb 41
       28.453833 29.226149 29.354723 29.414223
000020 4b 38 f5 41 52 22 ef 41 8e 76 e4 41 7c 52 ec 41
       30.652487 29.891758 28.557888 29.540276
000030 82 7f da 41 f7 f4 e3 41 54 b6 ee 41 49 b3 f5 41
       27.31226 28.494612 29.839027 30.712542

model/batch_normalization/batchnorm/sub f4 [16]
000000 75 a6 17 bd d9 d7 89 bd 42 1b 38 bd 70 7e 4c bd
       -0.03702398 -0.06730623 -0.04494787 -0.049925268
000010 51 f6 38 bd 92 f5 01 bd c7 e3 24 bd 84 a2 0e bd
       -0.04515678 -0.031728335 -0.040256288 -0.034822956
000020 ee 6f 30 bd 7a 5c 13 bd da fc 33 bd 62 c9 39 bd
       -0.043075494 -0.035976864 -0.04394231 -0.04535807
000030 cb 55 85 bd 0a 92 27 bd ae ce 42 bd 5c 85 1a bd
       -0.06510504 -0.040910758 -0.047560386 -0.037724838

model/batch_normalization_1/batchnorm/mul f4 [32]
000000 a4 38 aa 40 93 47 e9 40 04 e4 50 40 ac 72 2b 41
       5.319414 7.289987 3.263917 10.715496
000010 07 09 dc 40 e7 7f 9e 40 b4 79 13 41 b2 0a a1 40
       6.876102 4.953113 9.217213 5.0325556
000020 3a 3d da 41 3f 5d e8 40 a5 00 56 40 52 3e 39 41
       27.279896 7.2613826 3.3437893 11.577715
000030 03 5b 43 41 63 3e 01 41 d7 9e 86 41 e2 37 c1 40
       12.20972 8.077731 16.827559 6.0380716
000040 58 f9 52 40 0d 43 e6 40 46 0f 08 41 0c b2 a9 40
       3.2964687 7.195685 8.503729 5.302984
000050 51 fa 52 40 82 23 f5 40 11 e9 a4 40 72 e2 b8 40
       3.296528 7.6605844 5.1534505 5.7776423
000060 ce 17 b5 40 36 8f 15 41 7a 08 d1 40 1d 09 40 40
       5.659156 9.347464 6.5322847 3.0005562
000070 f7 87 02 41 29 92 aa 40 12 4f 87 40 be 63 83 40
       8.158195 5.330342 4.228402 4.1059256

model/batch_normalization_1/batchnorm/sub f4 [32]
000000 a3 20 b5 be 1c 64 65 be d6 e4 2f be 09 94 25 be
       -0.35376462 -0.2240147 -0.17177138 -0.16169752
000010 52 f4 03 be 9a bb 12 be a5 f7 44 be cb a1 3b be
       -0.1288617 -0.14329377 -0.19235094 -0.18323438
000020 a8 2c 4f bf 22 b4 5f be 32 ab e6 bd 78 61 83 be
       -0.80927515 -0.21846059 -0.11263122 -0.256603
000030 28 6d bc be 8e 51 2c be e6 c8 aa bf c7 ad 10 be
       -0.3680203 -0.16827986 -1.3342559 -0.14128791
000040 4f eb 42 be 52 44 95 be cb 9e e6 be db 3d 13 be
       -0.19035076 -0.29153687 -0.45043024 -0.14379065
000050 5c 56 2a be 0d a1 db be b0 50 20 be 51 01 0e be
       -0.16634506 -0.4289631 -0.1565578 -0.1386769
000060 96 2c 45 be 66 46 bb be ca 0f 1a be ef 42 0c be
       -0.1925529 -0.36577147 -0.15045086 -0.13697408
000070 6b 68 e2 be 72 d9 4d be a4 48 f2 bd 67 d1 4c be
       -0.4422029 -0.2010248 -0.11830261 -0.20001756

model/batch_normalization_2/batchnorm/mul f4 [64]
000000 08 29 03 40 07 8e c5 3f b0 0d b8 3f 16 54 20 40
       2.0493793 1.5433968 1.4379177 2.5051322
000010 ef 79 13 40 09 6e 84 40 f6 44 b0 3f 93 71 0e 40
       2.3043172 4.138432 1.3771045 2.225682
000020 bd 83 b2 3f 3d b4 04 40 17 65 1b 40 d9 90 37 40
       1.3946453 2.0735009 2.428045 2.8682158
000030 3d f3 5b 40 cf 45 a1 3f 56 12 92 3f 12 5d cd 3f
       3.436721 1.2599429 1.1411846 1.6044028
000040 23 73 e7 3f 7a ea af 3f af 92 13 40 45 1d ea 3f
       1.8082012 1.3743432 2.3058279 1.8290182
000050 f0 35 0a 40 71 61 a0 3f 47 fd a4 3f 47 40 06 40
       2.159542 1.2529737 1.2889794 2.0976732
000060 a9 44 3d 40 a0 7b e8 3f c7 50 1f 40 8c 9c 9c 3f
       2.9573157 1.8162727 2.4893053 1.2235274
000070 2f 11 88 40 c7 b1 83 3f ce 5a 84 40 bd 5b b0 3f
       4.2520976 1.0288628 4.1360846 1.3777996
000080 70 21 c2 3f cd b0 01 40 62 5d e3 3f d8 55 d8 3f
       1.5166454 2.026416 1.7762873 1.6901197
000090 2c f4 26 40 df d4 12 40 aa 05 4e 3f 4a c3 d5 3f
       2.608653 2.2942426 0.8047739 1.6700222
0000a0 f9 c6 e8 3f 2c e7 ea 3f 71 32 08 40 8e 4b 3f 40
       1.8185722 1.8351798 2.1280787 2.9889865
0000b0 c9 96 20 40 60 c9 ac 3f 38 86 3b 40 91 2d ab 40
       2.5092032 1.3498955 2.930067 5.3493123
0000c0 11 96 03 41 0e 04 67 40 3c b6 2d 40 88 39 3b 40
       8.224137 3.6096225 2.7142477 2.9253864
0000d0 be 9f 08 40 2d ea 8d 3f f2 d1 e1 3f 2e bc d1 3f
       2.13475 1.108709 1.7642195 1.6385553
0000e0 89 11 f3 3f f1 95 70 40 9c 7b a1 3f 45 fe ab 3f
       1.8989726 3.7591517 1.2615848 1.3436972
0000f0 7f e2 c7 3f 13 d1 bd 3f 99 22 e6 3f 04 88 11 40
       1.5615996 1.4829429 1.7979308 2.2739267

model/batch_normalization_2/batchnorm/sub f4 [64]
000000 96 5b d5 be 33 43 5f be 08 e3 49 be 83 20 72 be
       -0.41671437 -0.21802978 -0.19715512 -0.23645215
000010 ac c2 a5 be 25 57 16 bf 2e b6 47 be 5a 6f 60 be
       -0.32375085 -0.5872672 -0.1950309 -0.21917477
000020 68 ac 8c be a1 9e 87 be 41 3f 97 be ea 2d 89 be
       -0.27475286 -0.26488212 -0.29540446 -0.26792842
000030 f5 13 ad be aa 26 7a be b1 c7 81 be 2b 58 67 be
       -0.33804289 -0.24428812 -0.25347665 -0.22592227
000040 aa 26 53 be ec 60 53 be eb c8 c3 be 24 05 7a be
       -0.20620218 -0.20642442 -0.38239226 -0.24416023
000050 db 7f 92 be 48 f2 76 be f1 de 6f be 62 7b b9 be
       -0.2861317 -0.2411586 -0.23424889 -0.36226946
000060 1f 1f 97 be 3a 1b 5a be 11 27 b1 be c0 b4 74 be
       -0.2951593 -0.21299449 -0.34600118 -0.23897076
000070 48 28 3f bf c8 91 3e be 2e d1 2e bf 1b 0c 74 be
       -0.7467084 -0.18610299 -0.6828793 -0.23832743
000080 bd 36 4d be f3 93 f4 be 25 9d 88 be 13 56 8b be
       -0.20040412 -0.47769126 -0.26682392 -0.27214107
000090 bb d5 fb be 77 65 8b be 5e 27 53 be 59 33 6b be
       -0.491865 -0.2722585 -0.20620486 -0.22968806
0000a0 c2 9c 5a be 52 ab 71 be 5a e9 8f be 63 87 8d be
       -0.21348861 -0.2360051 -0.2810772 -0.27642354
0000b0 40 58 94 be 01 37 48 be 23 fe 51 bf 83 6a 2b bf
       -0.2897358 -0.19552232 -0.82028407 -0.669594
0000c0 46 4c 4d bf b6 d2 c1 bf 31 86 9a be 85 e2 ec be
       -0.8019451 -1.5142429 -0.30180505 -0.4626657
0000d0 2f e2 92 be fc bf 1b be 45 17 99 be b0 3b 7f be
       -0.2868819 -0.15209955 -0.29900566 -0.24925113
0000e0 a3 5a 50 be 14 ad 1e bf 7c 5d 87 be 17 d4 7a be
       -0.20347075 -0.61982846 -0.2643851 -0.24494968
0000f0 ac eb 2c be 29 9e 51 be ab 8c 9a be a3 9e 88 be
       -0.16886777 -0.2047049 -0.30185446 -0.2668353

model/batch_normalization_3/batchnorm/mul f4 [64]
000000 b4 95 0f 40 1a 5e 0b 40 61 05 51 3f 0a 82 db 3f
       2.2435122 2.1776185 0.8164883 1.714906
000010 d9 5d 87 3f a7 45 34 40 e6 69 82 3f 2f 94 2c 40
       1.0575515 2.8167512 1.0188568 2.6965444
000020 e9 bb 43 3f 5a 56 9a 3f 04 43 56 3f 54 98 34 40
       0.76458603 1.2057602 0.8369601 2.8217974
000030 28 30 d2 3f aa 5d 2e 40 c6 f9 2e 40 49 7f 89 3f
       1.6420946 2.7244668 2.733995 1.0741969
000040 41 c6 01 40 f8 f5 70 3f 5d 07 21 40 74 94 72 3f
       2.0277255 0.9412532 2.5160744 0.9475777
000050 70 d6 5c 40 a6 9d ba 3f f3 50 b3 3f d9 e9 82 3f
       3.4505882 1.457936 1.4009079 1.0227615
000060 64 71 f7 3f bb 12 77 3f f5 0f 2a 40 23 78 b5 3f
       1.9331479 0.96512955 2.657224 1.4177288
000070 ba dc 6a 3f 2c 6a 96 3f 2e 98 c5 3f b3 ba c2 3f
       0.9174305 1.1751151 1.5437067 1.5213226
000080 39 11 a1 3f ba 1b db 3f f3 3d 4f 3f 20 e0 ec 3f
       1.2583381 1.7117836 0.809539 1.8505898
000090 8a d0 ca 3f 13 dc 30 40 9e 52 1e 40 6e cc 1e 40
       1.5844891 2.7634323 2.4737926 2.4812274
0000a0 e7 ac 25 40 91 9b 24 40 83 fc 22 40 5a 9b 18 40
       2.5886781 2.571995 2.546662 2.384482
0000b0 fb 2e 2f 40 f9 08 32 40 39 b0 e5 3f d3 0e a9 3f
       2.7372425 2.7817976 1.7944404 1.3207649
0000c0 f6 6c 17 40 3f 40 05 40 87 e2 0f 40 ec 1d fe 3f
       2.3660254 2.0820463 2.2482011 1.9852881
0000d0 6b 6f 54 3f 10 41 c2 3f 56 66 ee 3f 10 fe 3a 40
       0.8298251 1.5176105 1.862498 2.9217567
0000e0 e9 83 ed 3f c9 9d bf 3f 0e 49 7d 40 c5 03 b6 3f
       1.8555881 1.4970027 3.957584 1.42199
0000f0 6d 7e 13 40 c9 d3 a1 3f c8 be f5 3f 97 a0 8c 3f
       2.3045914 1.2642757 1.9198847 1.0986508

model/batch_normalization_3/batchnorm/sub f4 [64]
000000 35 10 f2 be 00 9a 38 bf ab 85 9a be a0 b9 bb be
       -0.4727799 -0.72109985 -0.30180106 -0.36665058
000010 26 59 ba be 52 42 26 bf 75 1c a0 be bc 2e 28 bf
       -0.3639614 -0.64944947 -0.3127171 -0.6569631
000020 eb 47 a6 be 6b 9b 98 be ce 63 c4 be b9 e2 5b bf
       -0.32476744 -0.29806075 -0.38357395 -0.85892826
000030 ec 2a 4b bf 8f 77 26 bf a9 44 25 bf 44 22 87 be
       -0.7936237 -0.6502618 -0.6455789 -0.2639333
000040 4c 29 f9 be d9 58 ba be 6b a7 2e bf 4e 2c bd be
       -0.4866432 -0.3639591 -0.6822421 -0.36947864
000050 3e d6 c8 bf c3 c7 d4 be 5b 7f b9 be aa 7d bf be
       -1.5690382 -0.41558656 -0.36229977 -0.37400562
000060 f2 e2 17 bf 10 f8 a7 be e1 90 23 bf 01 20 d4 be
       -0.59330666 -0.32806444 -0.6389294 -0.41430667
000070 0f 25 c4 be b4 be cd be f2 b7 de be 1e 8b db be
       -0.38309523 -0.40184557 -0.43499714 -0.42879575
000080 99 c0 b6 be 0b 3b da be 97 1c cb be a8 53 e7 be
       -0.35693815 -0.4262317 -0.3967025 -0.45181012
000090 2b b3 ca be b8 7a 26 bf a2 90 3a bf d0 95 24 bf
       -0.3958982 -0.65031004 -0.7287694 -0.64291096
0000a0 7e 3b 17 bf 8f 6a fc be 3f 12 43 bf 5e 44 93 bf
       -0.5907515 -0.49300048 -0.76199716 -1.1505239
0000b0 3d a2 36 bf 9f ad 63 bf 97 f5 0c bf 62 a6 a9 be
       -0.71341306 -0.889368 -0.5506224 -0.33134753
0000c0 47 d4 57 bf c6 e3 d4 be 71 22 ea be 56 25 0e bf
       -0.84308285 -0.41580027 -0.45729402 -0.5552572
0000d0 17 de a7 be 90 36 10 bf 3a 30 ee be db 19 bd bf
       -0.3278663 -0.56333256 -0.4652117 -1.4773515
0000e0 6d e7 1a bf aa 6c db be c1 20 75 bf 0b 5d ec be
       -0.6050938 -0.42856342 -0.95753103 -0.46164736
0000f0 0b 0f 0d bf 0b aa cf be e6 77 ec be 89 1d ab be
       -0.5510108 -0.4055942 -0.46185225 -0.3342097

model/conv1d/conv1d/ExpandDims_1 f4 [16, 1, 5, 1]
000000 89 fd d4 bd 51 04 90 3d ae 38 0e be bf a1 10 ba
       -0.103999205 0.07032073 -0.13888809 -0.0005517266
000010 06 99 6c 3e 36 c6 bc bd 5a 36 90 be f4 5e 3d be
       0.23105249 -0.09217493 -0.28166467 -0.18493253
000020 45 f3 97 b7 55 f8 71 be 19 01 68 3d 12 4e a6 bc
       -1.8113884e-05 -0.23629887 0.05664167 -0.020300899
000030 a9 a6 fe 3d 83 c3 7c 3e 12 de 12 be ea 86 4d be
       0.12434132 0.24683957 -0.14342526 -0.20070997
000040 99 a1 15 be 2a 9d 8a be 60 28 5a 3e 39 6a 15 be
       -0.14612426 -0.27073032 0.21304464 -0.14591302
000050 a8 47 15 3e e0 4e 14 be a5 be 49 3e 08 e2 98 bd
       0.14578116 -0.14483213 0.19701631 -0.07464987
000060 16 b7 88 3e 58 5b 1d 3e 9f 17 a8 3d 61 72 0f 3e
       0.26702183 0.15366876 0.0820763 0.14008476
000070 b3 6c 58 be 8a ae d4 bc 0e b4 0f 3e 96 f9 9b 3d
       -0.21135215 -0.025962133 0.14033529 0.07615964
000080 a8 c5 b1 bc 17 da 6f 3e 0c 9d 28 3e 42 b4 86 3e
       -0.021700695 0.23423038 0.16466159 0.263094
000090 87 30 40 bc 15 4d a5 bd 0d d8 d1 3d 22 7c f9 bd
       -0.01173032 -0.08071343 0.102462865 -0.121818796
0000a0 a3 a6 45 be df 46 c0 bd a2 c0 03 be c8 e2 6b be
       -0.19301848 -0.093885176 -0.12866452 -0.23035729
0000b0 a7 40 48 be 80 1b 54 3d 06 47 96 bc bd a8 36 3e
       -0.19555913 0.05178404 -0.018344413 0.17837806
0000c0 d9 dd 0f 3e 05 b7 c1 bd 44 fc d3 bd 29 9b 4d 3e
       0.14049472 -0.09458736 -0.1035085 0.2007872
0000d0 a4 89 48 3e 5a fe da bc 81 ae 0d be 47 7b ee 3d
       0.19583756 -0.026732612 -0.13836099 0.11644607
0000e0 a5 32 86 3d e2 e3 b5 3d d2 73 a4 bd ef 9f 7a be
       0.065526284 0.08881356 -0.080299035 -0.24475072
0000f0 fa e4 6c 3e 2d ca 92 3e 8c c7 65 3e bb 1c 16 be
       0.23134223 0.28669873 0.22439402 -0.14659397
000100 db df a6 bd 65 75 d5 bd fd 02 1f be e0 37 9a 3c
       -0.08148166 -0.10422782 -0.15528484 0.018825471
000110 88 e9 1b 3e 4f 6a 82 be 55 b6 79 be e2 41 0e be
       0.15225804 -0.25471732 -0.2438596 -0.1389232
000120 07 87 04 3d 3a 47 04 3c 1d 2f 0c 3e 22 09 0c 3e
       0.032355335 0.008073622 0.13689847 0.13675359
000130 bb eb 78 3c 0c 8c 6d bd 69 7a e3 bc be 35 c1 3d
       0.015192921 -0.057994887 -0.02776833 0.09434079

model/conv1d/conv1d_bias f4 [16]
000000 aa b0 64 ba ef d3 1c ba 23 85 18 bb ef 1d c9 b8
       -0.0008723835 -0.00059825083 -0.0023272715 -9.5900024e-05
000010 2a ff 01 b9 00 b4 94 38 37 c5 5b 38 d6 4c 90 bb
       -0.00012397455 7.0907176e-05 5.239734e-05 -0.004403691
000020 37 01 2c 38 b6 12 b3 37 2a 0b e6 b8 0e bc 40 ba
       4.1009127e-05 2.1347176e-05 -0.00010969334 -0.0007352241
000030 f2 11 a8 b9 43 23 f3 38 a1 4a b5 38 dc 65 5a bb
       -0.00032056827 0.00011593711 8.644653e-05 -0.0033324873

model/conv1d_1/conv1d/ExpandDims_1 f4 [32, 1, 3, 16]
000000 1d 18 0e be c6 86 1f be ba 35 be 3d 1d 26 0b 3e
       -0.13876386 -0.15578756 0.09287591 0.13588758
000010 8b b3 22 3e 15 cf 92 3d 9f 07 e6 3d 19 7e cb bd
       0.15888803 0.07168404 0.11231922 -0.099361606
000020 12 9b c0 bd d0 93 18 3e ef 4a 3a 3e ff 4c 22 be
       -0.09404577 0.14900136 0.18192647 -0.15849684
000030 9d 87 53 3e ec 9b 30 3d 47 e1 09 3e 73 66 e6 bd
       0.20657201 0.04311745 0.13464843 -0.112500094
000040 90 f3 f2 bd ff 2d 2d be e9 0a 08 be 09 ca 21 be
       -0.11862862 -0.16912077 -0.13285412 -0.15799727
000050 4d 47 1f be a1 94 9a bd a5 b5 3e bd 3c 9d b8 bd
       -0.15554543 -0.0754788 -0.04655995 -0.09014365
000060 36 4c 44 be f8 d3 b3 bd a4 a9 37 3e 6c ae ba bd
       -0.19169697 -0.08780664 0.17935807 -0.091152996
000070 fb 8c 49 3e e8 0b 5a bd ed 12 44 3e 28 2d 34 3e
       0.19682686 -0.05323401 0.19147845 0.1759535
000080 67 1e 2d be 39 f5 bd bb 29 20 30 3d 48 a2 8e 3d
       -0.16906129 -0.005797055 0.04299942 0.069645464
000090 6f 37 d7 3d e7 c5 ae bd ff 58 16 be 3d 22 2e 3e
       0.1050862 -0.085338406 -0.14682387 0.17005248
0000a0 e8 eb 33 3e 29 dc 14 be 2f 90 47 be b6 73 09 3e
       0.1757046 -0.1453711 -0.19488595 0.13423046
0000b0 ff 0c fb bd ca ba d9 3c ae ae c3 bd ed 54 d1 3d
       -0.12258338 0.026578326 -0.09554802 0.102212764
0000c0 f1 e0 ba 3d 0c ba af 3d 2e 62 dc 3c 99 20 cc 3d
       0.091249354 0.085804075 0.026902284 0.09967155
0000d0 e3 ee 33 3e 1d 0b 1c 3e 16 6f 13 be a8 03 26 3d
       0.17571597 0.15238614 -0.14397845 0.04053083
0000e0 4c 45 a6 bd 58 83 d1 bd 04 75 46 bd 8d cb 25 be
       -0.08118686 -0.1023013 -0.04845144 -0.1619093
0000f0 49 31 d8 bd ae e3 27 be cd bc bc bd 38 ec 0f 3e
       -0.105562754 -0.16395447 -0.092156984 0.14054954
000100 9d 3e 04 be 2e c6 04 3e 31 0d a2 3d 04 2a 40 be
       -0.1291451 0.12966225 0.07912672 -0.18766028
000110 1f ea 45 3e 1f 68 ed 3b e1 e4 a0 3b 52 b4 c0 bd
       0.19327591 0.007245078 0.004910097 -0.09409393
000120 c9 b0 8d 3d 9a 3d 26 3b 99 21 81 bd af 7d 15 bd
       0.06918485 0.0025366307 -0.06305236 -0.036496814
000130 34 39 9b bc bf 21 71 3d 86 f0 8f bc c4 9a 2e 3d
       -0.018948175 0.058870073 -0.017570745 0.042628065
000140 0b 89 00 be 60 48 e2 3d a4 80 d4 3d f3 ca e2 3b
       -0.12552278 0.11048961 0.10376099 0.006921166
000150 6d f1 ea bd 86 b4 2d be 45 a4 63 3d 50 83 ba bd
       -0.114718296 -0.16963395 0.05557658 -0.09107077
000160 31 1a 23 3e 00 8c d9 bd a2 d4 24 3d 22 7e 98 bd
       0.1592796 -0.10622406 0.040241845 -0.07445933
000170 6d d3 ea 3b ab 00 e4 3d 7a 37 7b 3c d4 49 8d bd
       0.007166317 0.1113294 0.015333051 -0.06898847
000180 cb 34 35 bd c8 0c 34 3e 3c 51 a0 bd 54 aa b8 bd
       -0.0442398 0.17583 -0.07827994 -0.090168625
000190 2b 73 ce bd 50 c8 cf 3c bc 72 25 3e 42 b2 12 3e
       -0.1008056 0.025364071 0.16157049 0.14325812
0001a0 39 55 ad 3d 83 30 a4 3d 52 96 70 3d 2f 64 23 be
       0.084635206 0.080170654 0.058737107 -0.15956186
0001b0 65 f5 88 3d f0 b4 ff 3d 68 b8 1a be 12 b4 a3 3c
       0.0668743 0.12485683 -0.15109408 0.019983325
0001c0 34 14 22 be 49 30 48 3e bd 6c f0 3c 4b 6b da bc
       -0.1582802 0.1954967 0.029348725 -0.02666249
0001d0 eb 2f cb bc 9e b4 42 be 2f 6c 44 bd d3 5e 4e bd
       -0.024803123 -0.19014212 -0.047954734 -0.0503834
0001e0 cd 20 35 3e c6 36 5f 3d c4 e3 a2 bd 35 5d cb bd
       0.17688294 0.054495595 -0.07953599 -0.09929887
0001f0 30 14 05 be b5 94 2f 3d a4 25 51 3e e9 0c 84 bd
       -0.12995982 0.042866427 0.20424515 -0.06447775
000200 39 72 a5 3d a3 10 41 3d b2 7e 04 3e 64 35 a1 3d
       0.08078427 0.047135007 0.12938955 0.078715116
000210 a7 8f 10 3d 7d 53 49 bd b3 23 b9 bc 39 fb df 3b
       0.035293248 -0.049151886 -0.02260003 0.006835368
000220 c0 04 42 3e ed 73 b3 3a 10 88 14 3e aa 58 16 be
       0.18947124 0.0013691165 0.14505029 -0.1468226
000230 3d e9 fa 3c 6c bb 49 3e 22 e7 c2 3d 64 b2 f3 3d
       0.030628795 0.19700402 0.09516741 0.1189926
000240 ab 7e bc bd b8 3b 08 3e 28 fa 23 be a7 bb 81 bd
       -0.092038475 0.13304031 -0.16013396 -0.0633462
000250 35 12 aa bd d1 29 5e 3d ce 69 3b bd 0c 6d b9 3d
       -0.08304254 0.054239098 -0.0457552 0.09054002
000260 2e 9d 86 3d 74 59 41 3d 06 cd 0f be d8 12 3c 3d
       0.065729484 0.04720445 -0.14043054 0.04591641
000270 61 67 95 bd 2e 7d dc bd 75 85 be 3d 15 86 2c bc
       -0.072951086 -0.10766064 0.09302799 -0.0105300145
000280 26 06 e6 bd 77 99 72 3d 91 be ee 3d d9 dd 08 3c
       -0.112316415 0.059228387 0.116574414 0.008353674
000290 5e 2e a5 3d da ae 15 3d 41 2a 0f be 80 1b 20 be
       0.080654845 0.036543705 -0.13980962 -0.1563549
0002a0 85 aa d1 3d 53 1d 95 bd a3 95 4e 3e 31 4f 79 bd
       0.10237602 -0.07280984 0.2017427 -0.06086654
0002b0 e2 fb d5 bc b7 e6 3a be 32 8c 07 3e 8e 7c e4 3d
       -0.026121084 -0.18252073 0.13237074 0.111565694
0002c0 6f 77 d1 bd d0 f1 6b 3d 66 59 5d bd e0 97 f0 3d
       -0.10227858 0.057603657 -0.054040335 0.11747718
0002d0 36 86 8e bd 1d 56 da 3c 15 2e ea 3d 96 fc a5 3b
       -0.069591925 0.02665239 0.11434571 0.005065511
0002e0 8a 8b 1b be 38 f8 2e be c4 8c c8 bd 4e f5 4c 3e
       -0.15189949 -0.17086875 -0.09792474 0.20015451
0002f0 0a 5a f8 bd 90 45 f3 bd 6d 3c 8b bd b7 1a 27 3e
       -0.121265486 -0.11878502 -0.06798635 0.16318785
000300 f9 39 14 3e 5a 38 0f be 23 10 80 bc 5c 5c f0 3b
       0.1447524 -0.1398634 -0.015632695 0.007335229
000310 5d e9 3b 3d f9 1d 59 be b7 51 4d bd 7b f5 ba 3c
       0.04587685 -0.2120284 -0.050126757 0.022822132
000320 c8 ab 87 3d 6c 03 d6 3d b7 4a 2c be f7 51 33 be
       0.066245615 0.104498714 -0.16825376 -0.17511736
000330 0a 68 be 3b bf f8 58 3c d2 00 96 bd fe 4c 8a 3d
       0.0058107423 0.013242899 -0.07324375 0.06752966
000340 33 58 b3 bb 9b 54 d5 ba d6 6b e5 bd a9 88 fc bd
       -0.0054731607 -0.0016275825 -0.11202209 -0.12330753
000350 89 9d d3 bd a0 16 e9 bd 1d d5 03 3e cf cd 2e bd
       -0.10332782 -0.113812685 0.12874265 -0.042676743
000360 eb 3e 5b 3d ef 06 af 3d f0 15 be 3d 91 4d db 3d
       0.0535268 0.08546244 0.09281528 0.10708154
000370 a1 fe 30 bd ef 91 c3 3d f8 99 26 3e af fb c1 3c
       -0.043211583 0.09549319 0.16269672 0.023679582
000380 fd 4a c3 3d 30 30 5d bc 21 29 f2 bd cd af 66 bd
       0.09535787 -0.013500258 -0.11824251 -0.05632
000390 38 f5 f7 3c c8 41 dd 3d 23 70 d1 3d 2a d2 8b bc
       0.030268297 0.108035624 0.102264665 -0.017067987
0003a0 02 ff 4c 3e 3a b0 47 be e2 3a c3 3c 2a 73 08 be
       0.20019153 -0.19500819 0.023831788 -0.13325182
0003b0 7c 6f bf bc ab 97 76 3d 9d 21 fc 3d 29 dc 57 3d
       -0.02336859 0.060203236 0.12311099 0.052700195
0003c0 11 95 dc bd 73 6b 2b 3e b3 78 3b 3e 6d f0 50 be
       -0.1077062 0.16740207 0.18307762 -0.20404215
0003d0 f8 5f 14 be f0 6b e0 3b 72 cb 5b 3e 5b 51 4a be
       -0.14489734 0.0068488047 0.21464327 -0.19757597
0003e0 03 4f e5 3d 43 3f d0 3b c2 78 16 3d bb 32 ef bd
       0.11196711 0.0063551976 0.036736257 -0.11679598
0003f0 e5 64 0f be 8e a5 2d 3e 58 a9 d9 3d 79 cf 04 be
       -0.14003332 0.16957685 0.10628003 -0.1296977

model/conv1d_1/conv1d_bias f4 [32]
000000 1d 3f e9 3c 13 ca 92 3c f2 4e 7c bb 07 e8 4a bc
       0.028472478 0.017918622 -0.0038499204 -0.012384421
000010 ec ec 03 bc 50 a8 8b bc e8 5b 0e bc 00 09 06 bc
       -0.008052092 -0.017048031 -0.008688904 -0.008180857
000020 f3 6b b1 bc aa ba 57 3c de 20 07 3c 96 ff 05 3a
       -0.02165792 0.013167063 0.008247582 0.00051116326
000030 af 37 28 3a b9 a8 75 3a 97 e6 5f 3c 70 37 b6 bb
       0.0006416989 0.000937115 0.013665817 -0.005560808
000040 80 47 6d 3c dd a5 80 3c 28 e7 23 bc a4 07 4a bc
       0.014482379 0.01570409 -0.010003842 -0.012330923
000050 c9 b5 b8 3c 26 be d8 3b 4c ac cb 3b 1c 78 b5 bb
       0.02254762 0.0066144643 0.0062156077 -0.005538
000060 b6 25 25 bc 3e 46 c9 3c f6 3e 90 bc 9c f5 16 3d
       -0.010079792 0.024569627 -0.017608147 0.036855325
000070 6c 62 8c 3a 4c 30 34 3c 99 80 e1 bb d3 f6 1f 3c
       0.0010710484 0.010997843 -0.006881785 0.009763437

model/conv1d_2/conv1d/ExpandDims_1 f4 [64, 1, 3, 32]
000000 5f c5 c3 bd 65 85 97 bd c4 e9 c3 bd ee ee e2 3d
       -0.0955913 -0.0739849 -0.09566072 0.110807285
000010 b2 63 56 3c de 04 a2 3c 5d 41 cd 3d c7 30 06 be
       0.013085293 0.019777711 0.10022233 -0.13104545
000020 91 eb 75 bd bf c7 c6 bb 47 88 4e 3d 02 d8 ec 3d
       -0.060039107 -0.006066292 0.050422933 0.11564638
000030 0b bd 01 3e 76 76 82 bd 63 ff 9f 3d ff cd 01 be
       0.1266977 -0.06370251 0.07812383 -0.12676238
000040 a0 d0 51 bd 3b a1 ac 3b 11 61 3e 3d 62 e8 cc 3d
       -0.05122435 0.0052682436 0.04647929 0.10005261
000050 3e e6 10 bd 5e 8e ab 3d 69 3b 5b bd e5 a4 53 bd
       -0.035375826 0.08376764 -0.053523455 -0.051670928
000060 3d 6b 97 3c 12 4e 5e bd 14 43 09 bc 12 15 00 3e
       0.018483752 -0.054273672 -0.008377809 0.12508038
000070 ec e6 66 3d 59 3d 86 3d ea b9 f0 bd ce b9 be bd
       0.056372568 0.0655467 -0.1175421 -0.09312783
000080 9b 19 d3 3d 07 10 dc 3d 9f b8 87 3c 09 99 12 be
       0.10307618 0.107452445 0.016567526 -0.14316191
000090 3c 44 10 3e 5b c4 08 3e 8e 10 3b bc 2e d1 c5 bd
       0.1408853 0.13356154 -0.011417521 -0.096590385
0000a0 b5 19 0d be af 53 f1 bd 04 5b ea 3d 14 70 94 3d
       -0.13779338 -0.117835395 0.11443141 0.0724794
0000b0 b5 7a 03 bb 6f 54 9b bd 7c 24 e4 bd 22 ac 1e be
       -0.0020062153 -0.07584464 -0.11139771 -0.15495351
0000c0 c8 d8 94 bc 42 39 bc 3d 56 58 95 bd b4 d9 09 be
       -0.018169776 0.091906086 -0.07292239 -0.13461953
0000d0 f2 c2 ae bd db ba 03 be f9 c1 f0 bc 09 ff 13 3c
       -0.085332766 -0.12864248 -0.029389368 0.009032973
0000e0 2f e2 90 bd ca 0d 26 bd 8f ef 90 bd 7e 68 c8 bd
       -0.07074391 -0.040540494 -0.07076942 -0.09785555
0000f0 d2 89 53 bd 80 6c d9 3d 1e 7c d8 3d 32 94 f5 bd
       -0.051645108 0.10616398 0.105705485 -0.11991157
000100 6f 8c cb bd 08 8a 85 bc 5c 59 5b 3c 05 96 74 3d
       -0.09938895 -0.01630117 0.013388004 0.059713382
000110 69 25 bf 3d 17 30 8e 3c e7 50 d7 bd 56 ee 36 3c
       0.09333307 0.017356915 -0.10513478 0.011165222
000120 2f 5a 28 3d 37 f0 53 3d 4a bf ee 3d 7c 56 e1 3d
       0.04110163 0.05174276 0.11657579 0.11002824
000130 94 43 d5 bc 49 09 63 3d 6a e4 28 bd 8b 56 38 bd
       -0.0260332 0.055428777 -0.041233458 -0.04500441
000140 a3 94 b2 3c 07 f5 6d bc 20 5d f7 3d 9f 1a 9f bd
       0.021799391 -0.014523751 0.12078309 -0.077687494
000150 ef 02 8a 3d b1 c0 f3 bd 8b 12 8a 3d 85 36 c4 3d
       0.06738841 -0.11901987 0.06741818 0.09580711
000160 56 da 03 be 4c ad c7 3d 9c cd 62 3c ff 98 00 bd
       -0.12876257 0.09749851 0.013842966 -0.03139591
000170 1e 07 02 be b7 38 3e 3c ec 48 0f 3e 28 0f 8f bd
       -0.12698027 0.011610202 0.13992661 -0.06985313
000180 e7 a1 f4 bd ed 40 9a 3d 62 b1 67 bd 7c 04 01 3d
       -0.11944943 0.07531915 -0.05656565 0.031498417
000190 9c f7 0f 3e 5a 50 0c be 44 be 0a be 81 11 ea bd
       0.14059299 -0.13702527 -0.13549143 -0.1142912
0001a0 92 8d 58 bd 4c d6 17 3e c9 a5 74 bd ec 03 1c bd
       -0.052869387 0.14827842 -0.059728418 -0.038089678
0001b0 63 e4 09 bc 2d 94 dd 3d 61 44 e5 bd 0b 11 a2 3c
       -0.008416268 0.10819278 -0.11194683 0.019783517
0001c0 ae 2f a2 3c 3e 11 a8 3d f4 3b 64 3d 47 ca f4 bd
       0.019798126 0.08206414 0.05572124 -0.11952644
0001d0 4b ba c4 bd ca 42 ec 3d b6 c2 cf 3d c9 b6 51 bd
       -0.09605845 0.115361765 0.1014456 -0.051199708
0001e0 48 e9 eb 3d 2d 23 57 3a c6 83 4f bd 18 d1 4a 3d
       0.11519104 0.0008206841 -0.05066278 0.049515814
0001f0 72 62 1a 3d a5 a9 a2 3d d9 75 5f 3c 6f 59 1d bc
       0.03769154 0.079425134 0.013638937 -0.009603842
000200 be 64 b8 bd 2b 30 a2 bd c2 2e 82 3d 1b 3c a0 bd
       -0.0900359 -0.079193436 0.063565746 -0.07823964
000210 cf 21 c6 bd 1e bd ab 3d b4 b1 02 be ca ca d4 3c
       -0.09674417 0.083856806 -0.12763101 0.025975604
000220 0e 6d be bd eb f9 f9 3d 41 97 5f 3d 3a e5 39 bc
       -0.09298144 0.12205871 0.054587606 -0.011346156
000230 c9 e5 84 bc 04 bb e6 bd c8 7f ac 3d d7 8d 62 bd
       -0.016222851 -0.11266139 0.0842281 -0.05531105
000240 e9 1b 25 3a 77 da ae 3d c9 72 3f bd 69 92 89 3c
       0.00062984094 0.085377626 -0.046740327 0.016793447
000250 b3 dd 2b bd ee 21 70 bd d7 9d 43 3d cf 3d 9b bd
       -0.041959476 -0.058626108 0.04775795 -0.075801484
000260 88 08 db 3d 90 8b 4b 3d d2 5e 83 bd 31 fc 92 bc
       0.106949866 0.049693644 -0.0641457 -0.01794252
000270 77 1e f2 bc be db d7 bd 3a c0 78 bc 06 9d 11 be
       -0.029555542 -0.10539959 -0.015182549 -0.14220056
000280 6a db e3 3d 47 60 a6 bd 3a 1f 59 3d 67 f2 e6 3c
       0.11125834 -0.08123832 0.053008296 0.028191758
000290 ed c7 cf bd 59 c0 75 3d a4 19 06 3e 29 17 64 3d
       -0.10145555 0.05999789 0.13095719 0.05568615
0002a0 f9 d9 76 3d 36 98 1b 3e bf 89 59 bc 7b 4d 0c bd
       0.06026647 0.15194783 -0.01327747 -0.03425358
0002b0 40 a7 35 bd 4c 0a 20 3e 21 1b d8 bd bb 57 84 3b
       -0.044348955 0.15628928 -0.105520494 0.0040387786
0002c0 e0 c1 e8 3d e8 c6 1c 3e 6d 2d b5 3d df 58 f1 3d
       0.11365104 0.15310252 0.08846555 0.11784529
0002d0 7a ee 1c 3e 08 e8 6d bd 24 a0 68 bd 53 07 b8 3d
       0.15325347 -0.05808261 -0.056793347 0.08985772
0002e0 a1 41 cc 3c c7 8a 4b bc 07 21 24 bd 4a 81 79 bc
       0.024933638 -0.012423224 -0.04007056 -0.015228579
0002f0 c1 7b 89 3d 87 b1 72 3c 50 f7 00 be a8 d5 10 3e
       0.06713057 0.014812834 -0.12594342 0.14144003
000300 16 73 f1 3c bb 3c 03 3e 0d 84 03 3e 9f dd 21 3d
       0.029473823 0.12816136 0.12843342 0.039517995
000310 cd 3d 95 3d 2f 37 dd 3c a0 e7 a1 3d c1 cf 18 3e
       0.07287178 0.027003853 0.07905507 0.14923002
000320 e7 df a5 3d 76 ec 9b 3b e6 ed 9f bc 17 73 b7 bd
       0.080993466 0.004758413 -0.019522619 -0.089574985
000330 b5 42 c2 bb 95 82 6e bd 78 26 6c bc aa 69 a8 bd
       -0.0059283623 -0.05823 -0.014413469 -0.08223279
000340 8c 5f 15 be 46 92 f3 bd 37 02 4a 3d d8 5a 69 bd
       -0.1458723 -0.11893134 0.04931852 -0.0569714
000350 07 52 b9 3c f8 22 89 3d c8 ac 7c 3d eb c7 d2 3d
       0.022622121 0.06696123 0.061688215 0.102920376
000360 c2 0a 01 3a f2 78 d5 3a 7c 2a 3c 3c 0f 37 e4 3c
       0.00049225625 0.0016286655 0.011484738 0.027858285
000370 53 e1 ab 3d 0d c2 9b 3d f2 c4 20 3e e3 ba b9 bd
       0.083925866 0.076053716 0.15700129 -0.09068849
000380 1c 6a f4 bc 9e b7 8a bd e5 c3 b1 3d 5a ce 12 3e
       -0.029835753 -0.067733034 0.08679942 0.1433653
000390 3c b2 83 3d 85 dc 89 3d 34 f6 07 be 91 4a 9e 3c
       0.0643048 0.06731514 -0.13277513 0.019322665
0003a0 7d 75 8d 3d 5c c7 d7 bd a8 dd 23 3d 29 10 00 bd
       0.06907175 -0.10536072 0.04000631 -0.03126541
0003b0 a1 5e df 3c a8 f2 00 be d5 4c 82 3d 8c 2a 8b bc
       0.027266802 -0.12592566 0.06362311 -0.016988061
0003c0 f6 78 d8 bd cc b9 11 be 9c e3 15 be 95 40 7c bd
       -0.105699465 -0.14231032 -0.14637607 -0.061585028
0003d0 bc da 76 3d d2 5e b7 bb f2 4b 03 3e cd e1 08 3e
       0.060267195 -0.0055960203 0.1282194 0.13367386
0003e0 5c c9 0d be b5 14 0d 3e b2 37 6f bd 96 74 90 bd
       -0.13846344 0.1377743 -0.058402725 -0.07053487
0003f0 ad 55 45 3b 6f f3 c0 bd 52 32 62 bd 28 2f 30 3d
       0.0030110881 -0.09421431 -0.05522377 0.04301372

model/conv1d_2/conv1d_bias f4 [64]
000000 80 05 0c 3d 6f 65 8f bb a9 b5 01 3c 34 ed b1 bc
       0.034184933 -0.0043761055 0.007916846 -0.021719553
000010 5d 19 08 bb f8 dd 9b bc 4b 18 c3 bc 9d f1 e9 3a
       -0.002076707 -0.019026741 -0.023815295 0.0017848496
000020 62 2a e1 3c 6c 33 fe b8 fb 7d 3c bc fa 75 39 bc
       0.02748603 -0.00012121242 -0.011504645 -0.011319632
000030 19 5e 07 bc 2b c2 72 3d 85 1a 07 3c 77 c9 5b bb
       -0.008262181 0.059267204 0.008246069 -0.003353683
000040 69 6a 90 3c cd 0c 27 3c 1b 98 de 3c 4e d4 27 3a
       0.017628865 0.010195923 0.027172139 0.00064021803
000050 fa 2e 98 3c cd f3 a5 bb a1 77 ac 3c c0 7d 55 3b
       0.018577088 -0.0050644637 0.021053137 0.0032576174
000060 dc cb 56 3c a3 42 93 3c 9a 41 91 3a ec a3 b9 3c
       0.013110127 0.01797611 0.0011082173 0.022661172
000070 d8 02 38 3c 6d 2a 63 3b 1a 13 bf 3c 11 aa c1 3b
       0.011231147 0.003466274 0.023324538 0.005910166
000080 1b f3 5b bc 7d 2b 99 bb b0 6f 1f 3d 80 11 9e 3b
       -0.01342466 -0.0046743737 0.038924873 0.0048238635
000090 97 3a 0e 39 3b f5 4a 3c 42 76 39 3d c6 2b b7 bb
       0.00013564002 0.012387569 0.045278795 -0.005589935
0000a0 dd 25 a6 3b e6 03 d9 bb 72 1e cc 3b 1f 8a 79 bb
       0.0050704316 -0.006622779 0.0062292153 -0.0038076711
0000b0 d2 7f 39 bc e8 9d 26 3c 57 5b c7 ba e8 9d 61 3a
       -0.011321979 0.010169484 -0.0015209717 0.0008606599
0000c0 43 2a 58 bd 0f 2f 01 3d 8a 41 ab 3c 83 e6 fb 3b
       -0.05277468 0.03153902 0.020905275 0.0076873912
0000d0 4c 5c 5b 3c 54 43 07 3d 73 25 41 3c f1 e0 9c 3c
       0.0133887045 0.033023193 0.011788714 0.01915023
0000e0 9b c8 b3 ba 83 24 17 bd 75 4a 00 3d 63 61 17 3c
       -0.0013716401 -0.036900055 0.031321008 0.009239527
0000f0 37 2a b8 3c 45 e5 1a bc e9 c5 45 3a e0 1c ef 3c
       0.022481067 -0.009454076 0.00075444445 0.029188573

model/conv1d_3/conv1d/ExpandDims_1 f4 [64, 1, 3, 64]
000000 c0 5a ff bd 2b 8d a5 3c 67 8d d1 bd 9d 89 10 bd
       -0.12468481 0.020208916 -0.102320485 -0.03528749
000010 cd cf 88 bd 28 dd e1 3d ac 0b 41 3c 51 8a 37 bd
       -0.0668026 0.1102851 0.011782568 -0.044809643
000020 2a 1f ed bc ae 96 2c bc ea af 56 bd f0 42 8e bd
       -0.028945524 -0.010533972 -0.05241386 -0.06946361
000030 63 01 97 3d da 4e bd bc f0 30 0c bd 67 95 ef bc
       0.07373311 -0.023108888 -0.034226358 -0.029246045
000040 06 11 a3 bc 51 70 e7 3d 41 22 c9 bd 25 a2 a5 bd
       -0.019905578 0.113007195 -0.098209865 -0.08087567
000050 e9 1a 92 bc 9f fd 2d 3d 97 da 46 bd b2 ec e9 3d
       -0.017835097 0.0424782 -0.048548307 0.11422099
000060 81 9d d8 bd a3 69 cb 3c e1 9b 8b 3c e1 9e 01 3d
       -0.105769165 0.024830645 0.017042102 0.03164566
000070 20 e3 c4 bc d9 c0 0a be 10 45 92 bd 48 f2 fe 3d
       -0.024034083 -0.13550128 -0.07142079 0.12448555
000080 a6 a6 00 bd 94 7b a1 3c 24 8b f2 bc 3f 27 a7 3d
       -0.03140893 0.019712247 -0.029607363 0.081617825
000090 35 d0 b0 bd 20 3b a9 3d 1c 85 b2 bd 9e ff 3a bc
       -0.08633462 0.0826323 -0.08716795 -0.011413483
0000a0 a8 1a 48 3b 50 bf a2 bd f3 2d da bc 78 72 20 bc
       0.0030533466 -0.07946646 -0.026633238 -0.0097929165
0000b0 29 a9 a6 bc c2 4c 4b bd b7 97 42 bd 42 00 b1 bd
       -0.020344334 -0.04963375 -0.047507968 -0.08642627
0000c0 25 0e e4 3d d4 47 25 bd ac 5a 47 bd b5 43 50 3c
       0.1113551 -0.040351704 -0.048670456 0.012711455
0000d0 41 3a b2 bc 9d 2c 77 3d 8e 00 ff bc 44 b7 96 3d
       -0.021756293 0.06034528 -0.031128194 0.07359174
0000e0 21 3d 34 3d 7a 5b 2e ba 48 ac 01 be 79 3c 3c 3b
       0.04400361 -0.00066512043 -0.12663376 0.0028722568
0000f0 3b 88 a6 bc fc 9d 35 3d 29 06 f6 3c 92 7b 5d bd
       -0.020328632 0.04434012 0.030032234 -0.054072924
000100 8e 32 a8 bd 1f e2 9c 3d 95 5c c7 bd 32 6d fc 3b
       -0.082127675 0.07660317 -0.097344555 0.007703447
000110 67 65 77 bd 0b 2a 7e 3c 54 68 50 3d a0 35 ce bd
       -0.06039944 0.0155129535 0.050880745 -0.10068822
000120 46 42 3d bd bb bc 93 bd b2 2d 7d 3d 32 89 92 bc
       -0.04620578 -0.07213732 0.061811157 -0.017887685
000130 55 18 36 bd f8 2e 36 bd 14 c0 25 bb 31 19 0b 3e
       -0.0444568 -0.044478387 -0.002529149 0.13583829
000140 9c e6 07 bc bd 9f b0 bd ca 3f fb 3d 8e 09 53 bd
       -0.008294728 -0.08624218 0.12268026 -0.051522784
000150 b9 18 93 bd 53 ff 8b 3d 64 e9 c3 bd 55 33 9c 3d
       -0.0718245 0.068358086 -0.09566 0.07626978
000160 2c b3 3b 3c 77 e7 86 3b 8c 43 b6 3b 0f c1 6c 3d
       0.011456292 0.004116948 0.0055622514 0.057801303
000170 4c b0 bb 3d 35 70 0d be 39 52 1c bd b5 9b d5 3c
       0.09164485 -0.13812335 -0.03816435 0.026075223
000180 8c e7 b8 3d b5 85 c0 bd f7 e4 90 bd 85 b2 98 3d
       0.09028539 -0.094005026 -0.070749216 0.07455925
000190 a2 57 89 3d ec ce c2 3d ad 75 9f 3d 49 bd 84 bd
       0.06706168 0.095121235 0.07786117 -0.06481416
0001a0 c9 90 ea 3c 42 e1 09 3e aa da 89 bd a2 79 f4 3d
       0.028633492 0.13464835 -0.0673116 0.11937262
0001b0 63 a5 2a bd 6c 0c 85 bd c5 66 ca bd 73 db 68 bd
       -0.04166163 -0.0649651 -0.09882883 -0.056849908
0001c0 38 69 ea 3d 2a 86 ec bd 78 33 89 bd de a9 d2 bc
       0.1144585 -0.11549027 -0.0669927 -0.025715765
0001d0 ef 50 97 3d 98 dc d0 bc c7 0f e3 3d df 51 b7 3b
       0.07388484 -0.025495812 0.11086994 0.0055944766
0001e0 f1 93 2c bd 9b e7 d7 bd 5c b7 93 bd 3b 82 90 3a
       -0.042133275 -0.10542222 -0.072127074 0.001102514
0001f0 51 ff b1 bd c2 72 3c 3d c9 17 8a 3d ef 30 89 3d
       -0.08691276 0.04600788 0.06742818 0.066987865
000200 7d 8e c4 bd 73 08 c8 bd a7 61 dc 3c 48 f4 03 be
       -0.0959749 -0.097672366 0.026902033 -0.12886155
000210 a4 d2 99 bd b7 9f 13 3e 79 e9 67 bc 46 57 39 3d
       -0.0751088 0.14416395 -0.014154785 0.045249246
000220 3d af b0 3d fd df cf bd e8 da f3 bc c4 36 40 3d
       0.08627174 -0.10150144 -0.029767469 0.04692723
000230 c3 f0 c2 bc de 55 a9 3d 3e bc fa 3d 6e b0 73 bb
       -0.023796445 0.08268331 0.122429356 -0.0037184018
000240 3b 4c 9a 3d fd 2d 2b bb 44 7b 7d 3d 58 0a f6 3d
       0.07534071 -0.002611994 0.061885133 0.12013692
000250 0a e9 cd bd 23 36 d0 bd 17 5a cc 3c 56 92 e1 3d
       -0.10054214 -0.10166576 0.024945302 0.110142395
000260 9d 5c c5 3d de 8a cd 3d da f8 10 3e 6f e6 94 3c
       0.09636805 0.100362524 0.1415743 0.018176286
000270 39 ff 9b 3d 43 4e 9d bd f5 3b 07 3b 6f 0f 10 bc
       0.07617039 -0.07680943 0.0020635102 -0.008792742
000280 3f db 29 3d fe 7d 2e 3d ef c4 9f bd 9e 09 d9 3d
       0.041468855 0.042600624 -0.07801234 0.105975375
000290 a2 d2 87 3d 2e f0 ac bb 8b 4c d0 bd 27 84 e7 3d
       0.06631972 -0.005277655 -0.101708494 0.11304503
0002a0 f6 d8 a5 bd ed 9d 83 3d c3 43 d3 3d 57 20 86 bd
       -0.08098023 0.06426606 0.10315659 -0.06549137
0002b0 46 14 89 bd 4e 84 8e 3b 26 73 6f 3d a8 28 78 bd
       -0.0669332 0.004349268 0.058459423 -0.060585648
0002c0 fe a9 45 3c d3 fd 97 bd f0 dd eb 38 39 b1 0a 3d
       0.012064455 -0.0742146 0.00011247012 0.03386042
0002d0 4f 87 34 3d fc fd 87 bd 35 5a 4b bc be 1b a9 bd
       0.044074353 -0.066402406 -0.012411644 -0.082572445
0002e0 b5 ef 49 3d 39 dd c3 bd d5 ba 94 bd 7e 78 cf bd
       0.049300868 -0.09563679 -0.07262198 -0.10130404
0002f0 ec 55 d9 3d 60 20 e6 bd ba 3c fc 3c b1 5a a2 3c
       0.106120914 -0.11236644 0.030790675 0.019818636
000300 27 77 f0 3c 3e 9e c4 3d 51 50 f7 bc 4f db 11 3d
       0.029353691 0.09600495 -0.030189665 0.03560954
000310 f3 a6 af 3d 89 dd e3 bd df 42 be 3d 12 3a 87 bd
       0.08576765 -0.11126239 0.092900984 -0.06602873
000320 5e 46 e2 3d 09 f3 e7 bd 17 96 8d 3d 8a 1a ca bd
       0.11048578 -0.11325652 0.06913393 -0.09868343
000330 ef 75 54 bd b7 15 36 bd d5 14 bc bd 41 bf e9 bd
       -0.051870283 -0.044454303 -0.09183661 -0.11413432
000340 00 fe 3d 3d ec 24 89 bd ec 2f 9e 3d 39 69 13 bd
       0.04638481 -0.066964954 0.07723984 -0.03598902
000350 e4 8f fb bd 37 cf c2 3d a4 f7 c2 bd 71 4e f6 bd
       -0.12283304 0.09512179 -0.0951989 -0.1202668
000360 3d 8b 9a bd 45 20 3c bd 05 b8 16 3d 4c 58 a2 3d
       -0.07546089 -0.045929212 0.03679659 0.079269975
000370 68 47 3a bd 0c 49 bf bc 0d 8a 42 3d f3 e7 8e 3d
       -0.045478255 -0.023350261 0.047494937 0.069778346
000380 f2 5a 99 bd 49 f6 26 bd e5 a1 d9 3d bb 46 bf bc
       -0.074880496 -0.04076222 0.10626582 -0.023349157
000390 8b ea 86 bd b4 9f a3 bd cc 9d 96 bd 3e 21 56 3d
       -0.06587704 -0.07989445 -0.07354316 0.052277796
0003a0 1c 02 c9 3d d4 8c ba bd 35 3a a9 bc a6 0c 41 3d
       0.098148555 -0.09108892 -0.020657638 0.047131203
0003b0 59 d4 a9 3d 09 52 8d bb 88 91 c4 3d b8 e5 8e 3d
       0.08292455 -0.004312758 0.095980704 0.06977409
0003c0 c5 db c0 3d c8 aa 81 3d 2e 0f 66 bd a9 3c b4 3d
       0.09416918 0.06331402 -0.05616682 0.088006325
0003d0 b5 f4 c5 bd 99 5f fa bd 1b be 0e bb 65 8a 36 bb
       -0.09665815 -0.12225265 -0.0021780792 -0.0027853486
0003e0 d8 47 54 3d 00 dd 45 bd 51 5d 67 bd 7b da b1 bd
       0.051826328 -0.048306465 -0.056485478 -0.0868425
0003f0 cf da f6 bd 64 f7 11 be 48 4f cd bd 0e 16 66 3a
       -0.12053453 -0.14254528 -0.10024887 0.000877709

model/conv1d_3/conv1d_bias f4 [64]
000000 0f ed e3 bc 57 e3 88 3c eb f1 e2 3c 69 e1 fa b9
       -0.027823 0.016709967 0.027703246 -0.0004785166
000010 48 86 3e 3d d2 6a 80 bc 19 08 54 bb d5 a7 d5 bb
       0.04651478 -0.015675936 -0.003235346 -0.0065202513
000020 74 03 29 3d 58 10 33 3c 14 87 09 3d cb 11 da 3c
       0.04126306 0.01092919 0.033576086 0.026619812
000030 54 70 22 3c 10 00 a1 bc bf 10 a6 bb 82 37 75 bc
       0.009914476 -0.01965335 -0.0050679143 -0.014966847
000040 f7 55 9b bc 84 72 21 3d d5 1b 95 3b c8 7c 7b 3c
       -0.01896189 0.03941585 0.004550437 0.015349574
000050 f8 cf 3f 3d bd 1e 97 3c cf 44 e0 3b df f4 04 3c
       0.046829194 0.018447274 0.00684414 0.008115022
000060 bb a9 97 3c 0d 37 f2 3c 3c 4d c7 bb 47 28 4e 3c
       0.018513551 0.029567266 -0.006082205 0.012582845
000070 98 24 13 3c 9b 19 ad 3d 3e 1c 92 3c e9 93 d2 3c
       0.008980893 0.084521495 0.017835733 0.025705295
000080 b5 38 74 3d 1c 2e 0d 3d 1e a7 29 3d 2e 3f c1 bc
       0.059624393 0.0344678 0.04141914 -0.023589697
000090 4a fa aa 3c b6 92 ad bc 31 07 02 3c e7 b6 90 bc
       0.0208713 -0.021188121 0.007936285 -0.01766534
0000a0 53 48 12 bb f7 ba 33 3c 59 43 04 bd 7e 42 40 bc
       -0.002232094 0.010969869 -0.03229079 -0.011734603
0000b0 42 64 22 3d 27 89 87 bc 55 aa 08 3d ec a7 bc ba
       0.039646395 -0.016544892 0.033365566 -0.0014393306
0000c0 8c 0e d2 3c 19 2f ff 3b 27 cb 90 bc 82 e4 9a 3c
       0.025641702 0.007787597 -0.017674996 0.01890779
0000d0 36 1d 97 3d a7 ec f8 3b aa 24 ad 3c d0 3b 11 3c
       0.073786184 0.0075965705 0.021135647 0.008864358
0000e0 6c f5 ee 3c 61 63 1d bb e8 0c b5 3b 06 14 8a 3c
       0.02916976 -0.0024015533 0.00552522 0.016855251
0000f0 af 64 a6 bc 3e c9 78 bc b5 e6 34 3d 2e 52 a2 3b
       -0.020311682 -0.015184699 0.044165332 0.0049536442

model/dense/MatMul/ReadVariableOp/transpose f4 [96, 704]
000000 cb c1 83 3d 18 3c c1 bb 56 6f 95 bd c2 30 a3 3d
       0.064334475 -0.0058970563 -0.07296626 0.07968284
000010 37 37 74 ba c2 4e b8 bd fc ae 20 3d 3e b2 a8 3c
       -0.0009316089 -0.08999397 0.039229378 0.020592805
000020 52 ef e8 bb d4 35 46 3d b7 2f b1 bd a3 8b 82 bd
       -0.0071086073 0.04839118 -0.08651679 -0.0637429
000030 d6 c0 48 3c 4d 63 9c 3d 1c 57 59 3c ba da 8d 3c
       0.012253007 0.076361276 0.013265397 0.017316211
000040 2a 0d 97 3d c8 71 46 bc 82 bc 49 bd cd 16 e5 bc
       0.07375558 -0.0121120885 -0.04925204 -0.027964974
000050 3f 5d 92 3d f0 2b 84 bd e8 37 da bc 09 df 6b 3c
       0.071466915 -0.06453693 -0.026637986 0.014396437
000060 39 94 52 bd ce eb 57 bd 81 d9 46 bd 8d a1 8d 3d
       -0.051410887 -0.052715115 -0.04854727 0.06915579
000070 c6 10 16 bd 39 95 c6 3c f1 28 86 bd 7d a9 5b bc
       -0.03663709 0.024241077 -0.06550778 -0.013407108
000080 ca 86 81 bd 36 04 cf bc 04 f8 1b bd 2d 9c 4f bc
       -0.06324537 -0.025270563 -0.038078323 -0.012671513
000090 e1 cc 75 3d e3 cd a5 bd b2 f6 82 3d 46 80 05 bb
       0.06000984 -0.080959104 0.0639471 -0.0020370646
0000a0 81 45 a1 bd 15 0d 49 3c ca 66 3a 3d b1 12 69 bd
       -0.07874585 0.012271185 0.045508184 -0.05690259
0000b0 17 5d b2 bc a4 16 31 3d 87 70 dc bb 57 fb 95 3c
       -0.021772904 0.043234482 -0.0067272815 0.018308325
0000c0 53 f2 89 bd ee 99 d3 bc e8 a1 ad 3c 30 cb a2 bd
       -0.06735673 -0.025830235 0.021195367 -0.07948911
0000d0 84 8e 1b 3d fc eb cd bd 35 79 ab bd 6f 04 e8 bc
       0.03797771 -0.10054776 -0.08372728 -0.028322427
0000e0 f8 b0 ed bd ba 8d 0c bb b5 12 96 bd 54 4a 95 bd
       -0.1160602 -0.002144678 -0.07327787 -0.072895676
0000f0 8c 59 97 bd ed 5a 19 bc b3 b9 bb 3c 5c 2f 5f 3d
       -0.073901266 -0.009360057 0.022915697 0.054488525
000100 ab ac 64 39 7a 05 57 3d 18 b6 74 3c 8f 00 a8 3b
       0.00021808098 0.052495457 0.014935993 0.0051270197
000110 47 6b 5a bd 69 92 9e bd f0 7e 8b bd eb b2 ae 3b
       -0.053324964 -0.07742769 -0.06811321 0.0053313873
000120 98 8f 2d 3c 8e 24 59 bd 37 82 13 3b 47 5f 8d 3d
       0.010593317 -0.053013377 0.0022508034 0.06902938
000130 80 9f 62 bd 34 14 58 3d b3 5f 10 bd 46 c6 3e 3d
       -0.055327892 0.052753642 -0.035247516 0.046575807
000140 04 35 81 3d 91 0f 8f bd 0d ea 84 3a 2a 4d dc bc
       0.0630894 -0.06985391 0.0010140553 -0.026892263
000150 b4 c2 80 bd c2 b3 58 3d 08 ac 3d bd 98 10 62 3d
       -0.06287137 0.052905805 -0.04630664 0.055191606
000160 c3 79 2e 3c fc e3 a2 3d e4 69 5e bc e7 c2 8b 3d
       0.010649147 0.07953641 -0.013575051 0.06824284
000170 8a 8a d3 3b d7 98 39 3d 2a 40 a0 3c 85 04 31 3d
       0.006455724 0.045311775 0.019561846 0.0432172
000180 03 e9 77 3d 8f 7e 76 bd 14 2d 7e 3d d2 49 8c bd
       0.06052495 -0.06017929 0.06205471 -0.068500176
000190 91 2e a8 bd 41 95 38 3d 39 c2 e4 3c c9 2a ba bd
       -0.08212007 0.045064215 0.027924644 -0.09090192
0001a0 5a be 99 3d 4d 1d 81 3d 46 11 0f bd 6e 4b 00 bd
       0.0750701 0.06304417 -0.034928583 -0.031321935
0001b0 f6 7b 17 bd 3a 3d d0 bc 95 94 0b bd 57 1d a5 bd
       -0.036983453 -0.02541982 -0.034077246 -0.08062237
0001c0 a2 01 b2 3c 90 5e cc 3d b4 31 13 3d 4e 1c f2 bc
       0.021729294 0.09978974 0.035936072 -0.029554512
0001d0 c8 3e a5 3c 4d 0a 78 bd ba 1f b2 bd b9 63 72 bd
       0.020171538 -0.0605567 -0.086974576 -0.059177134
0001e0 8d 7b a0 bd b7 4d 70 3d 03 3d 87 3d e3 8e 3e bd
       -0.078360654 0.058667865 0.06603434 -0.046522986
0001f0 02 51 73 3d 79 5c ba bd 42 91 10 3d c0 ed de bb
       0.059403427 -0.09099669 0.03529478 -0.0068032444
000200 98 9e 8b 3d 70 c9 e6 bc 6b 4b 68 3d 5e d7 5a 3d
       0.06817359 -0.028172225 0.05671255 0.053428046
000210 d7 47 a4 3c bc b2 5c bd fd a5 cb 3d 41 b2 92 bc
       0.020053787 -0.053881392 0.09943769 -0.017907264
000220 04 36 43 bd 81 9a 0b bc 70 0a c0 3d bb d3 13 bc
       -0.047658935 -0.008520723 0.09376991 -0.009022648
000230 b3 1c 8f 3c ea 52 49 3d 3d 66 54 bd 7f 69 99 3d
       0.01746974 0.04915134 -0.051855315 0.07490825
000240 7f ba 33 bd e3 6b 2a 3c fe 67 54 3d 02 59 68 3d
       -0.04387903 0.010401699 0.051856987 0.05672551
000250 e9 36 13 3d e0 31 84 bc b2 16 0d bd bb 8c 80 bd
       0.03594104 -0.016137064 -0.034445472 -0.06276842
000260 e7 bf 27 3d 11 8b a9 3d 01 41 01 bc ae 3e 40 b9
       0.040954497 0.08278478 -0.007889033 -0.00018333897
000270 10 f5 38 bc 0b ab 06 3c 3d 06 59 3d cf e8 b9 3d
       -0.011288896 0.008219491 0.052984465 0.09077608
000280 2a c5 8e bd 4f a1 24 bd bf 41 29 bd cc c3 11 3d
       -0.069712 -0.0401929 -0.041322466 0.035587117
000290 ca a4 65 bd ea 55 3d 3c 20 af 14 bd a2 92 c3 bc
       -0.05606536 0.011556128 -0.036299825 -0.02387363
0002a0 1f 81 82 3c 10 e3 98 3d 63 79 a7 3d 6a cd 8a bd
       0.01593071 0.07465184 0.081774496 -0.06777461
0002b0 cf 49 61 3d a7 b1 5b 3b b0 c8 9d 3c 29 20 1a bd
       0.05500203 0.0033522637 0.019260734 -0.037628327
0002c0 f8 2b a0 3d ce da 13 bd c3 f1 f4 39 57 57 9e bc
       0.078208864 -0.03609734 0.00046719433 -0.019328756
0002d0 a0 8f 1a 3d 78 af ad 3c 91 6c 89 3d cb dd 58 3d
       0.037734628 0.021201834 0.067101605 0.052945893
0002e0 c5 46 ac bd 20 00 85 3c 76 69 32 bb ce 62 ba 3c
       -0.08411936 0.016235411 -0.0027223504 0.022752192
0002f0 93 29 0b 3d 78 1c 94 bd 24 57 04 3d 46 92 45 bd
       0.033975195 -0.072319925 0.032309666 -0.0482352
000300 43 39 43 3d 80 ad ee bb 14 d4 2a bc ef 77 50 bd
       0.04766203 -0.0072838664 -0.01042654 -0.050895628
000310 54 1d b0 bc c9 d7 94 3d c1 3f 4a bd 88 09 f0 ba
       -0.02149836 0.0726772 -0.049377207 -0.0018313387
000320 8a 18 08 bd 9e 61 80 bd e3 f9 74 bd ff 28 48 bd
       -0.033226527 -0.06268619 -0.059808623 -0.048867222
000330 c6 cd 44 3d e6 32 72 3d 3b a1 b9 bb f8 40 80 bd
       0.048047803 0.05913057 -0.005664972 -0.06262392
000340 3c fb 17 3d 2b eb bf 3b d8 89 31 bd e3 65 88 3d
       0.03710483 0.0058568916 -0.04334435 0.06660058
000350 04 0f 69 bd 89 3a b0 3d a4 8b 69 3d 58 2c 1e 3d
       -0.056899086 0.08604915 0.057017937 0.03861651
000360 48 0f 3c 3d 5a 38 30 3c f6 54 58 3d 51 08 3a bd
       0.04591301 0.010755623 0.0528154 -0.045418087
000370 9e 5b a1 3d 4b d0 5c bd a8 e3 99 3c e9 dd 67 bd
       0.07878803 -0.05390958 0.018785313 -0.056608114
000380 15 2e ed 3a 4a d1 1e 3d cf 82 67 3d 25 f1 56 3d
       0.0018095399 0.038773812 0.056521233 0.052476067
000390 5f a7 af bd 87 f7 d3 bc d8 54 3a 3d b9 83 1d 3d
       -0.085768454 -0.025874866 0.04549107 0.0384557
0003a0 35 06 83 3d 74 75 69 3c 19 2a 88 3d 7e ef e2 ba
       0.06397668 0.014249194 0.066486545 -0.0017313806
0003b0 96 58 82 3b aa 93 8a bc 7d b5 21 bd c2 ea 30 bd
       0.0039778454 -0.016916115 -0.03947972 -0.043192632
0003c0 a1 f2 d5 b9 32 98 29 3d a1 3c 25 3d db ad 77 38
       -0.00040807299 0.04140491 0.040341023 5.9051305e-05
0003d0 92 e6 90 bd c5 81 79 bd 71 cc 93 3d 35 f4 39 3c
       -0.07075228 -0.060914773 0.072167285 0.011349727
0003e0 a0 56 99 bd b3 0b ea 3a bc 00 c2 bd 8a d4 31 bc
       -0.074872255 0.001785627 -0.09472796 -0.010853896
0003f0 4c 2a f0 bc e0 a8 8e 3d 9a d4 b5 3d 52 96 ac 3d
       -0.029317044 0.06965804 0.08878441 0.08427109

model/dense/MatMul_bias f4 [96]
000000 1c 1e 73 3c e7 0a f4 bb d2 50 9a 3c 99 58 4a bc
       0.014838722 -0.0074475887 0.018837366 -0.012350225
000010 bd 6e 2a bc a6 87 1f bc 59 12 da 3c 3b 07 23 3c
       -0.010402379 -0.009736931 0.026620077 0.009950454
000020 36 bb bf bc 8a f8 10 3c 9e 6e 3e bc a5 31 0c bc
       -0.023404699 0.008848319 -0.011623053 -0.008556758
000030 9b 7d 2d bc 2c 91 a1 ba 7e 82 21 3c 85 de 17 3a
       -0.010589029 -0.001232659 0.009857772 0.0005793351
000040 22 cc 1f bc fd d5 aa 3c b5 dc 69 bc dd 19 9c bc
       -0.009753259 0.02085399 -0.014273812 -0.019055301
000050 2b 92 d8 bb 0e ad 8d bc 16 bb 05 3b 91 6a 54 b9
       -0.0066092215 -0.017294433 0.0020405701 -0.00020257595
000060 cd 8b 9c bb c5 ab ef bb 16 1b c0 ba 15 bc 43 3c
       -0.0047774077 -0.0073141777 -0.001465651 0.011946698
000070 d5 f2 42 bc 02 ba 0b 3c 3c e1 6c bc e7 83 84 bc
       -0.011898716 0.008528234 -0.014457997 -0.016176177
000080 b4 7f 5f bc 31 e1 33 3b 3f 6e 54 3a 2f f8 1a bc
       -0.013641287 0.0027447457 0.0008103586 -0.009458586
000090 0a c4 bc 3b 3f 12 33 bc 5c 2c 9d 3b 14 be 53 bc
       0.0057606744 -0.010929643 0.004796548 -0.012923736
0000a0 53 35 2a 3b 33 ff 82 3c 71 a7 29 3c 98 46 0c bc
       0.0025971725 0.01599083 0.010354863 -0.008561753
0000b0 46 62 b2 3c 9e 15 b2 bb db 76 36 ba d2 ca a2 3a
       0.021775376 -0.005434706 -0.000696046 0.0012420064
0000c0 06 6d e8 3b 32 da 40 bc 98 91 88 bc e5 01 d6 bb
       0.0070930747 -0.011770772 -0.016670987 -0.0065309876
0000d0 04 77 64 bb d2 88 6c 3c c8 99 5c bc a5 ae a2 3c
       -0.0034860978 0.014436917 -0.013464399 0.019858668
0000e0 36 02 2b 3c af 5a 07 bc 87 18 f1 3a 31 52 d7 ba
       0.010437539 -0.008261367 0.001839415 -0.0016427693
0000f0 4a df 7c bb 45 5e b8 bc d5 8b 09 bc 80 67 12 bc
       -0.003858524 -0.022505889 -0.008395155 -0.008935809
000100 ab ce 33 3b 2a 66 13 3b 15 04 1f bb b4 30 1b bc
       0.0027436416 0.0022491314 -0.0024263908 -0.009472061
000110 da b0 89 3c 9c 96 24 bc 72 14 f8 bb c1 f0 4c bc
       0.016807962 -0.010045674 -0.0075707966 -0.012508572
000120 5f 07 01 bc fa 85 15 3c 16 c7 5b 3b 8a f1 3c 3c
       -0.007875293 0.009126181 0.0033535413 0.011532197
000130 d3 72 70 bc 54 ac c6 3b 90 42 3e 3c 19 de e1 3b
       -0.014675814 0.0060630236 0.011612549 0.006892931
000140 8d ed 4e bb c0 46 83 bb 28 cf 6c bb 1b f6 1a 3c
       -0.0031574697 -0.004006237 -0.0036134217 0.00945809
000150 39 0d 5e bb 51 5e 40 bc 44 85 10 bc 3a f7 32 bc
       -0.0033882393 -0.011741237 -0.0088208355 -0.010923201
000160 84 d9 5a 3c 01 b4 99 3c 26 5e 9c 3c 01 0d 96 3c
       0.013357524 0.01876259 0.019087862 0.018316748
000170 b5 66 40 3b dc 16 9e bc 33 5c 63 bb 4d 46 b2 bc
       0.0029358093 -0.01929801 -0.0034692406 -0.021762038
